px915_reproducible/f/MACE_model_f2.model (torch, 961538 bytes, 78 tensors)

r_max f8 []
0	0x4010000000000000	4.0

weight f8 [32]
0	0x3fd63b1133d773ac	0.34735517561585527
1	0xbfaddb181384cb21	-0.05831217993035965
2	0xbf2f3eaeb117ff51	-0.00023837931125569392
3	0x3fe64b0bd62bef2d	0.6966609175719661
4	0x3fbbb64ad981ccee	0.10825031099539092
5	0x3fe3906e8ccee928	0.6113808393631972
6	0xbff801ca7a868281	-1.5004372392797054
7	0xbfd919beb98459d6	-0.39219635121244545
8	0x40020ea966c8e6d7	2.2571590452251757
9	0x3fc36ed06d924aee	0.15181928014916174
10	0x3fc00c52e1976fb4	0.1253760911484939
11	0xbfcfafc11bb99d61	-0.24755109647524434
12	0xbfe318792d84078e	-0.5967374695758154
13	0x3fa6cb26f0d9d7b6	0.044518677616835076
14	0xbfe587f88d378c07	-0.6728480108398579
15	0xbfcdec7b181d49b4	-0.23377932240926003
16	0x3ff42e84d00f134a	1.261357128839523
17	0x3fb8fef969d1b37a	0.09764059861636368
18	0xbfd94bf9333068b8	-0.3952620506185087
19	0xbf95c584248805cc	-0.021261276941009474
20	0xbfe40ad70a6bd33a	-0.626323242524996
21	0xbff561c58daaf95a	-1.3363700422192637
22	0xbff03444e493f75f	-1.0127610138728966
23	0x3fe5756ace340b6c	0.6705831553848447
24	0xbff3e373e1ad82df	-1.2430304351366244
25	0x3feb13f49f30d5e0	0.846185980720005
26	0x3ffca00bdca69b77	1.7890738124058012
27	0xbff022077cb37846	-1.0083079215178414
28	0xbfd54971d5cb9bbf	-0.33260770681811985
29	0xbfc094fc9d14b651	-0.12954671544996413
30	0xbfe7d4e68ba6cdf5	-0.7447388389177251
31	0xbff46ca6d57f0b0c	-1.2765262927720782

output_mask f8 [16]
0	0x3ff0000000000000	1.0
1	0x3ff0000000000000	1.0
2	0x3ff0000000000000	1.0
3	0x3ff0000000000000	1.0
4	0x3ff0000000000000	1.0
5	0x3ff0000000000000	1.0
6	0x3ff0000000000000	1.0
7	0x3ff0000000000000	1.0
8	0x3ff0000000000000	1.0
9	0x3ff0000000000000	1.0
10	0x3ff0000000000000	1.0
11	0x3ff0000000000000	1.0
12	0x3ff0000000000000	1.0
13	0x3ff0000000000000	1.0
14	0x3ff0000000000000	1.0
15	0x3ff0000000000000	1.0

bessel_weights f8 [3]
0	0x3fe921fb54442d18	0.7853981633974483
1	0x3ff921fb54442d18	1.5707963267948966
2	0x4002d97c7f3321d2	2.356194490192345

r_max f8 []
0	0x4010000000000000	4.0

prefactor f8 []
0	0x3fe6a09e667f3bcd	0.7071067811865476

p f8 []
0	0x4010000000000000	4.0

r_max f8 []
0	0x4010000000000000	4.0

atomic_energies f8 [2]
0	0xc02b591b83ea04ec	-13.67403805
1	0xc0e617acbb7942b7	-45245.39788497

weight f8 [256]
0	0x3ff27f6c781be70d	1.1561093036420431
1	0x3fbae77e3bb02ab9	0.10509480435591002
2	0x3ffb93302f8d7f1d	1.7234346253898771
3	0xc00229b5cb2431f5	-2.2703662748738176
4	0xbfe26face06155f4	-0.5761322386194352
5	0xbff8e6dea69298b4	-1.5563646799796915
6	0xbff00dbe3b03202d	-1.0033552460827295
7	0xbfe2e4a86b2c2de6	-0.5904123395170557
8	0xbfe21c6db0cc8151	-0.5659702733137612
9	0xbfba191feed3ee94	-0.10194587307699471
10	0x3fe7b2931a4f4b5a	0.740548659692972
11	0xbfda690f15783062	-0.4126622876799556
12	0x3fe699641885f084	0.7062244872063421
13	0x3f8b2d7c97d7c898	0.013270352729680732
14	0xbf8f3854f8c7daf5	-0.015244163362678512
15	0xbfa7e3ab301962ab	-0.04665884935520145
16	0xbfd6cec9bb33b584	-0.3563713386673373
17	0x3fa8f696843f4bfc	0.048756316798652194
18	0xbfe396c08fa0a6fb	-0.6121523671365304
19	0xbff586a90c0df27f	-1.3453760596159154
20	0x3fb7728c911bcb92	0.09159163038911647
21	0xc0005276a97766f9	-2.040265392261855
22	0xbfdeaf2b31716fe0	-0.47944145039013897
23	0x3fe6c092b7cbfdbf	0.7110074605733913
24	0xbfd70a74c15c8580	-0.3600131881995239
25	0xbfe93c9c01e53185	-0.7886486088769266
26	0x3fb2f399fcaa93b4	0.07402956408129918
27	0xbfefb8fbf98380bd	-0.9913310883821606
28	0xbff779f113699e47	-1.4672709234527177
29	0xbfe14e63de817e0f	-0.5408191057030666
30	0x3ff6749c442ebfe1	1.4034693396933948
31	0xbfc0abd94da0099f	-0.1302444104222333
32	0xbff3c8ff20ddfce1	-1.236571434390321
33	0x3fadf2b9fd8f8626	0.05849248142454781
34	0xbfcf5adbb9cace8f	-0.24496027538190332
35	0xbfeac28d5e7f4391	-0.8362490506789176
36	0x3fe1a15e1bf2417b	0.5509481950594329
37	0x3fc7c3f1da2034cc	0.18566725874590018
38	0xbfe1d2fa0823abb7	-0.5570039900752509
39	0x3ff4bcaf20f625ea	1.296065453296587
40	0xbffe98e5867979e7	-1.9123282673750681
41	0x3fe6f7443e55ff08	0.7176839082239619
42	0x3fe2856bace2ab79	0.5787866951626334
43	0xbfe44f3374d419b0	-0.6346680909926388
44	0xbff1d25be4f4f7ac	-1.1138571685437268
45	0x3fdba2c9fb8c451a	0.43181085171916467
46	0xbfdabce7a47d261a	-0.4177798372589635
47	0x3fd564c2692ea28c	0.334274866787873
48	0x3ff46d6650653c69	1.2767089024016747
49	0x3ffe52cdd5a47c22	1.895215830365267
50	0x3fd9dadbd00dc6a9	0.4039830714965356
51	0x3ff4db89247d815e	1.3035975861931415
52	0xbfc1dfaf6e81eda6	-0.13963883300662622
53	0x3fcc087c3723ab76	0.21900894825315803
54	0xc003ee4b1bef8aa1	-2.491354196784713
55	0x3ffdfe9d1daaee4e	1.874661556138466
56	0xbfe807777393d064	-0.7509114510890069
57	0xbf7d1fdf5a86a63e	-0.007110474085871453
58	0xbfe75abfe1cb78a1	-0.7298278245978232
59	0xbfdc15e6be3d8fcb	-0.43883675172969266
60	0xbfc016782d9255b4	-0.12568571305443543
61	0xbfe10c0fb1368f58	-0.5327223263925402
62	0xbfe70c0837d0a0d0	-0.7202187624107186
63	0xbfd29effa2ab1974	-0.2909545029218841
64	0x3fac981e426029e5	0.05584806976556304
65	0xbfd73c5d67f69727	-0.3630593791261724
66	0xbfd3f78777f5811b	-0.3119829818224546
67	0xbfdf3e96a894fd20	-0.48819509947857576
68	0xbfe006dbc149d84e	-0.5008372092404529
69	0x3ffd911797f131dd	1.8479228911629584
70	0xbfef27043d3d4787	-0.9735127636033533
71	0x3fe0cf155fd7b92a	0.525278746788705
72	0x3fbc3005c42162ff	0.11010776556339506
73	0x3ff344459cbbb256	1.204167949904464
74	0xbfc22e992562facd	-0.1420470650245619
75	0xbfe7e698002d2ec7	-0.7468986514517945
76	0xbffa1fbb5b0d4428	-1.6327470356666343
77	0x3ff3ccf957eee83d	1.2375424799815982
78	0xbff687412d45aa61	-1.408021141857397
79	0xbfdc5a9fee41de38	-0.44303129451097645
80	0x3ff57773683d059e	1.3416627952395639
81	0x3fe219f85900f308	0.56567017921006
82	0xbfc7bbd020d22bff	-0.18541909792506314
83	0xbff04a5b55427ce5	-1.0181535082299942
84	0x3fd1d0cc1cb25971	0.2783689766160001
85	0x3fde227f19575df6	0.4708554980729497
86	0xbff6af35908cb235	-1.4177756926029705
87	0x3feeb0848b83c446	0.9590475773712874
88	0x3fe5500568e6405a	0.6660182045761858
89	0x3ff09ded8b86df71	1.0385566187159976
90	0x3fe22df052f89efc	0.5681077595263271
91	0x3ff50879304bec3c	1.3145686995110415
92	0xbfe295fb80f0a4fc	-0.580808402858707
93	0xbfd6f3e8724780ed	-0.3586369625100037
94	0x3ff574c9c7f9553a	1.3410127459986385
95	0xbfedcead30d21899	-0.9314790681389865
96	0xbff92e725949fa12	-1.5738395202494115
97	0x3ff06e1c1cbfb26e	1.026882278728546
98	0x3fd3e50ad8a7e8ed	0.31085463674356967
99	0xbfe37c7b5741005b	-0.6089455322435343
100	0x3fc78be5ba57a5c0	0.18395682905911137
101	0xbffa8bb036c56f5a	-1.6591035975934205
102	0x3fc99d0c03b3d2c7	0.20010519200118024
103	0x3ff75a9a73a4c7ed	1.4596199529009894
104	0x3fc1821c14b88761	0.13678313266523914
105	0x3fec0f648a760d1e	0.8768789963072867
106	0xbfe1d78747d1508f	-0.5575596239746278
107	0x3fded73d3983aa3e	0.48188715569145646
108	0xbfdeed1ad25679ba	-0.4832217268066433
109	0x3ffc0f2f178f63de	1.7537070198361486
110	0xbfe3e120481e0459	-0.6212312134304155
111	0xbfd0aff8695ee053	-0.26074037828539537
112	0xbfd7998b9b606b43	-0.36874666379451443
113	0xbfcf5cb59ef6a56c	-0.24501676809203887
114	0x3fda9664b3725c32	0.41542928241819077
115	0xbfd9af9c0c2273eb	-0.4013433569432993
116	0x4000a16fb6b58e2a	2.0788263582378663
117	0xbff18e879713977f	-1.0972972775866479
118	0x3fe63862e490935c	0.694383093276524
119	0xbfd1c1a567144e3d	-0.27744422022189835
120	0x3ff03fbdee259feb	1.015561990987403
121	0xc001954912b81618	-2.1978932821682626
122	0xbfe48b6e2da74662	-0.6420203105610194
123	0x3fe0a341f7131ef9	0.5199289155652586
124	0xbff6ebb09c116250	-1.432541474952945
125	0xc004956bc986644c	-2.5729594940317266
126	0x3fd4f33985a29ff0	0.32734525728528663
127	0xbfe4f13cd5bb9b7b	-0.6544479536504321
128	0xbfea8909f9c69ad1	-0.8292283895906057
129	0xbfaa2335f5ae061a	-0.05104988693257102
130	0xc0010ed63ee4fbb2	-2.1322445787077067
131	0x3fee50d80776e35f	0.9473686357297132
132	0xbff0143ac73ddb7c	-1.004938867843264
133	0x3fd29638a863d9ba	0.2904187817033762
134	0xbfe3b12e8e1032dd	-0.6153786444352495
135	0x3fe4a51739c5d099	0.6451526764272045
136	0xbfec731ad0d82fd2	-0.8890508727067703
137	0xbff1b2fa2ff1364c	-1.1061956284278436
138	0x3ff8ee4ffc75b4cd	1.5581817495070027
139	0xbfdae0e9a8d9bc50	-0.4199775837832407
140	0x3fe2133b279a7b4f	0.5648475430969969
141	0xbff346412ecce922	-1.204652006925763
142	0xbfd2c33f7a8a563a	-0.29316698996385393
143	0xbfea8ad4ff546905	-0.8294472681912174
144	0x3ff024488495f706	1.0088582209713777
145	0xbfbc3f5e241d15d0	-0.1103419149559024
146	0xbfe34dadbb8f23c7	-0.6032322562469908
147	0x3ff1891c30bfaef3	1.0959741501091542
148	0x3febf8ca42ec0a72	0.8741198832579598
149	0xbfed3f9905e495df	-0.9140133967491088
150	0xbff93f2261d5740e	-1.5779136487610717
151	0x3fc52ce51af93654	0.16543258492531498
152	0x3feba934f25f76ee	0.8644051297994488
153	0xbff4859adeeba8fc	-1.2826183994134785
154	0xbff22fb4b738baf3	-1.1366469533056118
155	0x3fed8ef6eb098017	0.9237017241066522
156	0xbfcc28c0329ef799	-0.21999361488081773
157	0x3ff4c953f7abcca6	1.2991523432399759
158	0xbfdd429e857c7552	-0.45719111476667706
159	0xbfe38eb0e30507f4	-0.6111683305718985
160	0x3ff6cf60af6ee5c8	1.4256293156489495
161	0x3feff9276bd90853	0.9991643053438203
162	0x3fd4a455dfc4c257	0.32253023960496335
163	0x3ff10aeb01696809	1.0651655249735106
164	0x3fea6a6f398dd494	0.8254924892522859
165	0xbfd1d70e797ca2e3	-0.2787510095973131
166	0x3fe9371c2359c0d5	0.7879772844735508
167	0xc002da4f88abdedd	-2.356597011323045
168	0xbfe1061a1e645a52	-0.5319948762506306
169	0xbffa0f918bcea415	-1.628800912973252
170	0x3fdd5b115d8f38b7	0.4586833394686311
171	0x3fb2a1e9e65d6726	0.07278310655729267
172	0xbff32425dc261f60	-1.196325168568329
173	0x3fd7cdc4f32d20a4	0.37193416354831244
174	0xbff6d6470a6fba59	-1.427313843505223
175	0xbfd1d95ffcbcca74	-0.2788925140513705
176	0xbfe1a25506d16ffa	-0.5510659344831759
177	0x3fe1be0b37ba7cf2	0.5544487083861027
178	0x3fc1c295c8d85b16	0.13875076586619944
179	0xbfc168b179147c0c	-0.13600748455152745
180	0x40021185b6e9e0b3	2.2585558214305705
181	0x4004c77b5ed83f04	2.5974032792800035
182	0x3fdbf509dd798cb2	0.43683096531294574
183	0x3fdeb3b60c00bdc2	0.479718696328714
184	0xbffe2825bfd72d1d	-1.8848016256113802
185	0x3fe151ec71f8c719	0.541250441170834
186	0xbff1e760337aea57	-1.1189882288878346
187	0xbfe92891f76165d6	-0.7862024146699536
188	0x3fee2d8d80aebf2c	0.9430606377918358
189	0x3fe4c85aa94c1e09	0.6494572931850949
190	0xbfd370464cb195f2	-0.3037276982271059
191	0x3fe804969cfbeb54	0.7505600992293275
192	0xbff0152e19eb9050	-1.0051709187037154
193	0x3fbed13bd3819496	0.12038015283322276
194	0xbfe71cb9f0811e5e	-0.722256631598565
195	0xbfe2bfc03978f088	-0.5859070894725997
196	0x3ff091733cfc0f51	1.035510290356758
197	0xbfd1c3351901622e	-0.27753951494153994
198	0x3feb194837feb59e	0.8468361943866289
199	0x3ffe2c49aeb5e34b	1.8858124565724264
200	0xbf84a747660023f0	-0.010084684181508735
201	0xbfcc31d7dfdd9c3c	-0.22027109557095226
202	0xc0000e5ac3f5de2c	-2.007009058895866
203	0x3fea38d5bf43ea0b	0.8194378600740618
204	0x3fcfa875c2367da3	0.2473284910492853
205	0xbfe446c75447c5db	-0.6336399694538913
206	0xbfeb30d4d9f1c181	-0.8497108704305419
207	0x400319935dea5df9	2.3874881112239987
208	0x3fea1f28d464d472	0.8163036487882336
209	0x3facc63c0ff4be35	0.05619991011405682
210	0xbfb4b0c1574afe95	-0.08082207089591471
211	0x3fedf88969920f2c	0.9365889608311355
212	0xbfa6c059c1cc61b0	-0.044436268717791605
213	0x3ff1ebf71ce4c0e3	1.1201087120680817
214	0x3ff2fcf3a3ce883a	1.1867557905866435
215	0x3fd52c00c0305d02	0.33081072586487903
216	0xbff344708aec62ab	-1.2042088915533593
217	0xbfdf40be48f91be8	-0.48832661749150796
218	0xbfeb8481041f019d	-0.8599248009195893
219	0x3ff458706377cb93	1.2715915570704268
220	0xbfe66f8f62de4966	-0.7011181765576964
221	0x3fa8b9de775fcc65	0.04829306800083869
222	0x3fc85f0900b46046	0.1904002431335831
223	0xbff903ff2b75f149	-1.563475770729456
224	0xbfecc8520ddd19dc	-0.8994531889700812
225	0x3fe693a97e831d17	0.7055251570645024
226	0x3fec3919a604e744	0.8819702379762266
227	0xbfb1a0b6256d73ce	-0.06885851300962928
228	0xbfc85dd92cc58d84	-0.1903640240299006
229	0x3fc314ab148e4406	0.14906824592301876
230	0x3ffdec26a51908fc	1.8701540421612313
231	0xbfa10ced25db1635	-0.03330174529177691
232	0xbfcb21f06dee7e27	-0.21197324149851335
233	0xbffe028214ce6625	-1.8756123364204396
234	0x3ff75c03fe8c51af	1.4599647467885963
235	0x3ffdc4879f9a9c75	1.8604809031037608
236	0xbfce5f974321ce67	-0.23729220178539664
237	0x3fd2d2edd96505a2	0.29412409048026167
238	0x3fc743c69ff125b9	0.18175585565249522
239	0x3fcdd34d43c0b8ce	0.23301091964953574
240	0xbff55824935fb2ec	-1.334019256285667
241	0xbfeb55d9079ceb9b	-0.8542294644060918
242	0x3fd0559178a37718	0.25522267132861165
243	0x3fede6912ab67342	0.9343953928215358
244	0x3fee000bc86a216f	0.9375056185099718
245	0x3fd6f1d49438b97c	0.3585101554371233
246	0x3fb7cae26e8e0b2a	0.09293952178090295
247	0x3ff156fe87a655c6	1.083738832361051
248	0xbfd0dd1a84f342f0	-0.2634950922338666
249	0x3fcf9891e280eaaa	0.24684356269593383
250	0xbfec46b04901a70c	-0.8836289811999634
251	0x3ffcd6ee0f23bf34	1.8024731246368448
252	0xbffcbc8cd28e7d7a	-1.796032736288764
253	0xbffa0765d88911f6	-1.6268061121382948
254	0x3ffa369249a3b934	1.6383231045288769
255	0xbfd402e6c4052d1b	-0.31267708914374887

output_mask f8 [16]
0	0x3ff0000000000000	1.0
1	0x3ff0000000000000	1.0
2	0x3ff0000000000000	1.0
3	0x3ff0000000000000	1.0
4	0x3ff0000000000000	1.0
5	0x3ff0000000000000	1.0
6	0x3ff0000000000000	1.0
7	0x3ff0000000000000	1.0
8	0x3ff0000000000000	1.0
9	0x3ff0000000000000	1.0
10	0x3ff0000000000000	1.0
11	0x3ff0000000000000	1.0
12	0x3ff0000000000000	1.0
13	0x3ff0000000000000	1.0
14	0x3ff0000000000000	1.0
15	0x3ff0000000000000	1.0

output_mask f8 [256]
0	0x3ff0000000000000	1.0
1	0x3ff0000000000000	1.0
2	0x3ff0000000000000	1.0
3	0x3ff0000000000000	1.0
4	0x3ff0000000000000	1.0
5	0x3ff0000000000000	1.0
6	0x3ff0000000000000	1.0
7	0x3ff0000000000000	1.0
8	0x3ff0000000000000	1.0
9	0x3ff0000000000000	1.0
10	0x3ff0000000000000	1.0
11	0x3ff0000000000000	1.0
12	0x3ff0000000000000	1.0
13	0x3ff0000000000000	1.0
14	0x3ff0000000000000	1.0
15	0x3ff0000000000000	1.0
16	0x3ff0000000000000	1.0
17	0x3ff0000000000000	1.0
18	0x3ff0000000000000	1.0
19	0x3ff0000000000000	1.0
20	0x3ff0000000000000	1.0
21	0x3ff0000000000000	1.0
22	0x3ff0000000000000	1.0
23	0x3ff0000000000000	1.0
24	0x3ff0000000000000	1.0
25	0x3ff0000000000000	1.0
26	0x3ff0000000000000	1.0
27	0x3ff0000000000000	1.0
28	0x3ff0000000000000	1.0
29	0x3ff0000000000000	1.0
30	0x3ff0000000000000	1.0
31	0x3ff0000000000000	1.0
32	0x3ff0000000000000	1.0
33	0x3ff0000000000000	1.0
34	0x3ff0000000000000	1.0
35	0x3ff0000000000000	1.0
36	0x3ff0000000000000	1.0
37	0x3ff0000000000000	1.0
38	0x3ff0000000000000	1.0
39	0x3ff0000000000000	1.0
40	0x3ff0000000000000	1.0
41	0x3ff0000000000000	1.0
42	0x3ff0000000000000	1.0
43	0x3ff0000000000000	1.0
44	0x3ff0000000000000	1.0
45	0x3ff0000000000000	1.0
46	0x3ff0000000000000	1.0
47	0x3ff0000000000000	1.0
48	0x3ff0000000000000	1.0
49	0x3ff0000000000000	1.0
50	0x3ff0000000000000	1.0
51	0x3ff0000000000000	1.0
52	0x3ff0000000000000	1.0
53	0x3ff0000000000000	1.0
54	0x3ff0000000000000	1.0
55	0x3ff0000000000000	1.0
56	0x3ff0000000000000	1.0
57	0x3ff0000000000000	1.0
58	0x3ff0000000000000	1.0
59	0x3ff0000000000000	1.0
60	0x3ff0000000000000	1.0
61	0x3ff0000000000000	1.0
62	0x3ff0000000000000	1.0
63	0x3ff0000000000000	1.0
64	0x3ff0000000000000	1.0
65	0x3ff0000000000000	1.0
66	0x3ff0000000000000	1.0
67	0x3ff0000000000000	1.0
68	0x3ff0000000000000	1.0
69	0x3ff0000000000000	1.0
70	0x3ff0000000000000	1.0
71	0x3ff0000000000000	1.0
72	0x3ff0000000000000	1.0
73	0x3ff0000000000000	1.0
74	0x3ff0000000000000	1.0
75	0x3ff0000000000000	1.0
76	0x3ff0000000000000	1.0
77	0x3ff0000000000000	1.0
78	0x3ff0000000000000	1.0
79	0x3ff0000000000000	1.0
80	0x3ff0000000000000	1.0
81	0x3ff0000000000000	1.0
82	0x3ff0000000000000	1.0
83	0x3ff0000000000000	1.0
84	0x3ff0000000000000	1.0
85	0x3ff0000000000000	1.0
86	0x3ff0000000000000	1.0
87	0x3ff0000000000000	1.0
88	0x3ff0000000000000	1.0
89	0x3ff0000000000000	1.0
90	0x3ff0000000000000	1.0
91	0x3ff0000000000000	1.0
92	0x3ff0000000000000	1.0
93	0x3ff0000000000000	1.0
94	0x3ff0000000000000	1.0
95	0x3ff0000000000000	1.0
96	0x3ff0000000000000	1.0
97	0x3ff0000000000000	1.0
98	0x3ff0000000000000	1.0
99	0x3ff0000000000000	1.0
100	0x3ff0000000000000	1.0
101	0x3ff0000000000000	1.0
102	0x3ff0000000000000	1.0
103	0x3ff0000000000000	1.0
104	0x3ff0000000000000	1.0
105	0x3ff0000000000000	1.0
106	0x3ff0000000000000	1.0
107	0x3ff0000000000000	1.0
108	0x3ff0000000000000	1.0
109	0x3ff0000000000000	1.0
110	0x3ff0000000000000	1.0
111	0x3ff0000000000000	1.0
112	0x3ff0000000000000	1.0
113	0x3ff0000000000000	1.0
114	0x3ff0000000000000	1.0
115	0x3ff0000000000000	1.0
116	0x3ff0000000000000	1.0
117	0x3ff0000000000000	1.0
118	0x3ff0000000000000	1.0
119	0x3ff0000000000000	1.0
120	0x3ff0000000000000	1.0
121	0x3ff0000000000000	1.0
122	0x3ff0000000000000	1.0
123	0x3ff0000000000000	1.0
124	0x3ff0000000000000	1.0
125	0x3ff0000000000000	1.0
126	0x3ff0000000000000	1.0
127	0x3ff0000000000000	1.0
128	0x3ff0000000000000	1.0
129	0x3ff0000000000000	1.0
130	0x3ff0000000000000	1.0
131	0x3ff0000000000000	1.0
132	0x3ff0000000000000	1.0
133	0x3ff0000000000000	1.0
134	0x3ff0000000000000	1.0
135	0x3ff0000000000000	1.0
136	0x3ff0000000000000	1.0
137	0x3ff0000000000000	1.0
138	0x3ff0000000000000	1.0
139	0x3ff0000000000000	1.0
140	0x3ff0000000000000	1.0
141	0x3ff0000000000000	1.0
142	0x3ff0000000000000	1.0
143	0x3ff0000000000000	1.0
144	0x3ff0000000000000	1.0
145	0x3ff0000000000000	1.0
146	0x3ff0000000000000	1.0
147	0x3ff0000000000000	1.0
148	0x3ff0000000000000	1.0
149	0x3ff0000000000000	1.0
150	0x3ff0000000000000	1.0
151	0x3ff0000000000000	1.0
152	0x3ff0000000000000	1.0
153	0x3ff0000000000000	1.0
154	0x3ff0000000000000	1.0
155	0x3ff0000000000000	1.0
156	0x3ff0000000000000	1.0
157	0x3ff0000000000000	1.0
158	0x3ff0000000000000	1.0
159	0x3ff0000000000000	1.0
160	0x3ff0000000000000	1.0
161	0x3ff0000000000000	1.0
162	0x3ff0000000000000	1.0
163	0x3ff0000000000000	1.0
164	0x3ff0000000000000	1.0
165	0x3ff0000000000000	1.0
166	0x3ff0000000000000	1.0
167	0x3ff0000000000000	1.0
168	0x3ff0000000000000	1.0
169	0x3ff0000000000000	1.0
170	0x3ff0000000000000	1.0
171	0x3ff0000000000000	1.0
172	0x3ff0000000000000	1.0
173	0x3ff0000000000000	1.0
174	0x3ff0000000000000	1.0
175	0x3ff0000000000000	1.0
176	0x3ff0000000000000	1.0
177	0x3ff0000000000000	1.0
178	0x3ff0000000000000	1.0
179	0x3ff0000000000000	1.0
180	0x3ff0000000000000	1.0
181	0x3ff0000000000000	1.0
182	0x3ff0000000000000	1.0
183	0x3ff0000000000000	1.0
184	0x3ff0000000000000	1.0
185	0x3ff0000000000000	1.0
186	0x3ff0000000000000	1.0
187	0x3ff0000000000000	1.0
188	0x3ff0000000000000	1.0
189	0x3ff0000000000000	1.0
190	0x3ff0000000000000	1.0
191	0x3ff0000000000000	1.0
192	0x3ff0000000000000	1.0
193	0x3ff0000000000000	1.0
194	0x3ff0000000000000	1.0
195	0x3ff0000000000000	1.0
196	0x3ff0000000000000	1.0
197	0x3ff0000000000000	1.0
198	0x3ff0000000000000	1.0
199	0x3ff0000000000000	1.0
200	0x3ff0000000000000	1.0
201	0x3ff0000000000000	1.0
202	0x3ff0000000000000	1.0
203	0x3ff0000000000000	1.0
204	0x3ff0000000000000	1.0
205	0x3ff0000000000000	1.0
206	0x3ff0000000000000	1.0
207	0x3ff0000000000000	1.0
208	0x3ff0000000000000	1.0
209	0x3ff0000000000000	1.0
210	0x3ff0000000000000	1.0
211	0x3ff0000000000000	1.0
212	0x3ff0000000000000	1.0
213	0x3ff0000000000000	1.0
214	0x3ff0000000000000	1.0
215	0x3ff0000000000000	1.0
216	0x3ff0000000000000	1.0
217	0x3ff0000000000000	1.0
218	0x3ff0000000000000	1.0
219	0x3ff0000000000000	1.0
220	0x3ff0000000000000	1.0
221	0x3ff0000000000000	1.0
222	0x3ff0000000000000	1.0
223	0x3ff0000000000000	1.0
224	0x3ff0000000000000	1.0
225	0x3ff0000000000000	1.0
226	0x3ff0000000000000	1.0
227	0x3ff0000000000000	1.0
228	0x3ff0000000000000	1.0
229	0x3ff0000000000000	1.0
230	0x3ff0000000000000	1.0
231	0x3ff0000000000000	1.0
232	0x3ff0000000000000	1.0
233	0x3ff0000000000000	1.0
234	0x3ff0000000000000	1.0
235	0x3ff0000000000000	1.0
236	0x3ff0000000000000	1.0
237	0x3ff0000000000000	1.0
238	0x3ff0000000000000	1.0
239	0x3ff0000000000000	1.0
240	0x3ff0000000000000	1.0
241	0x3ff0000000000000	1.0
242	0x3ff0000000000000	1.0
243	0x3ff0000000000000	1.0
244	0x3ff0000000000000	1.0
245	0x3ff0000000000000	1.0
246	0x3ff0000000000000	1.0
247	0x3ff0000000000000	1.0
248	0x3ff0000000000000	1.0
249	0x3ff0000000000000	1.0
250	0x3ff0000000000000	1.0
251	0x3ff0000000000000	1.0
252	0x3ff0000000000000	1.0
253	0x3ff0000000000000	1.0
254	0x3ff0000000000000	1.0
255	0x3ff0000000000000	1.0

weight f8 [3, 64]
0	0xbfcedc4e3eca51ef	-0.2410981947511028
1	0x3ff1a1b122495976	1.1019755687062491
2	0xbff764e79c7446d0	-1.4621349441044238
3	0x3fd0eca2a872b296	0.26444307756427443
4	0xbffea8f0261c7033	-1.9162446488108003
5	0xbff59ad73cd16071	-1.3503029227922776
6	0x3fed8a623f015a0a	0.9231425505229833
7	0x3ff2fa43cd9769d5	1.1860998183170655
8	0x3fdce6c94ca331a6	0.4515860794461112
9	0x3fb47d1c097f1328	0.08003401977391589
10	0xc0036427957174fc	-2.423903625035221
11	0x3fda8c8411fb8dd5	0.4148264098750734
12	0x3fdcdf97e2f4211d	0.4511470524162336
13	0xbff5253bf0173ada	-1.321590364317379
14	0xbfd139074958ff85	-0.26910574114662494
15	0x3f54df840d20b28b	0.0012739934504778806
16	0xbfd0eddea362fcec	-0.26451841312150637
17	0x3fd8148e3c0db8b1	0.37625461449250525
18	0xbff1437940d20224	-1.0789730579418881
19	0x3fe88b834e4e33e5	0.7670303849605459
20	0xbfe16c49e084305d	-0.5444688210568632
21	0x3fd2f490c4e34a25	0.2961770937664901
22	0xbffb7faf25eca66a	-1.7186728936598237
23	0x40021acef0c7b1d0	2.26309002026958
24	0xbff32310b9b5eea7	-1.1960608724902302
25	0x3f97eb73ab639ac2	0.02335911496711663
26	0xbff3980fd3c803b9	-1.2246244690615937
27	0x3ff0daa2412ae5cd	1.0533773942573703
28	0xc000bb0b11a9b162	-2.0913297061835445
29	0x3fe2d241a5f0ee2b	0.5881660691297318
30	0xbff1a467bc43d874	-1.1026379922964482
31	0xbff2f0e5bcea00ec	-1.1838128451782337
32	0x3fe5560c5f1a686f	0.6667539460643307
33	0x3fe79aae6f1fe18d	0.7376320047761041
34	0xbff3b8ae7223d67e	-1.2325882395356582
35	0xbfe1f91653b3dae6	-0.5616561541381457
36	0x3ff5e1f9079eff2d	1.367669133920525
37	0x3fe9ebb9759eea32	0.8100249573975076
38	0x3fe2a6262498812d	0.582781859851854
39	0xbfc8d269c97ad703	-0.19392130220301604
40	0x40019b85ab867fb2	2.2009385490818767
41	0x3ffc287239a5ef24	1.759874558628277
42	0xbfdeca5709b7b8cf	-0.4810998530291614
43	0x3fe765b8ed29b74a	0.7311672813500334
44	0x3fb8aff0d7a74191	0.09643464341139053
45	0xbfe0f2792c294ad1	-0.5295987951779698
46	0x3ff16471f11d4abb	1.0870227259189693
47	0x3ff11e9b1b78d298	1.0699721406100817
48	0xbfd724054f370912	-0.36157353149259663
49	0x3fd93a145768dee9	0.39416988884066356
50	0x3fae213b04b0194e	0.058847278902293895
51	0x3fcc0ceb49da3516	0.2191442595107353
52	0x3fe41038b472969f	0.6269801639907263
53	0x3fc47ff2c42436fb	0.16015467240543288
54	0xbff73f8bfff00423	-1.4530143735467014
55	0x3fbc0ecc7f66c93d	0.10960081205738433
56	0x3ff0cc35cd635445	1.0498559973687105
57	0x3fcfe2b0f27d19a0	0.24910556640879822
58	0xbfd8b651a88fe5ee	-0.38612786732809823
59	0x3fea01973c48e52e	0.8126941850124803
60	0x3ffa863814b6b809	1.6577683266764345
61	0x3ff37479b6ede395	1.21593638855686
62	0xbf73221504d0c31e	-0.004671175102928497
63	0x3fdbee140843c7ad	0.43640614325624477
64	0xbfdba155ece1b317	-0.4317221463486915
65	0xbffeb090098d671d	-1.9181061146868565
66	0x3fe46714a2054f65	0.6375830807178146
67	0xbff2bcc63ac2e00c	-1.171087483917293
68	0xbfb9bc388b3623ea	-0.1005282726165572
69	0x3febfae023057678	0.8743744548807646
70	0xbfe46c829bf48afe	-0.6382458730698486
71	0x3fea1db3dc699460	0.8161258034639438
72	0x3ff43bac1639e8f6	1.26456841165651
73	0xbfefb8422c79a914	-0.9912424915940243
74	0xbfb810a23b5759c2	-0.09400381039390651
75	0x3fe70f14f0e04017	0.7205910400971359
76	0x3fcf4c623c213998	0.2445185464479891
77	0x3ff436ed1aac2747	1.2634097139256981
78	0x3fe21c759a587153	0.5659740461883679
79	0x3ff8d04327fd77d3	1.5508452951539666
80	0x3fcc09bf460774f8	0.21904745978728335
81	0xbfe92dfc03a50a17	-0.7868633338151224
82	0x3ff51f447573f4b6	1.320133646774861
83	0x3fe26b254405713f	0.5755792931118221
84	0xbfd661a50766b1e7	-0.34970975611466176
85	0x3ff3440ceef6f65f	1.2041138968046636
86	0x3feef2012e44ffec	0.9670415786458739
87	0xbfc102640eff0b4b	-0.13288546306838564
88	0xbfcfa4b52e68ea50	-0.2472139813051677
89	0x3fee11dfefe427d3	0.9396819768310202
90	0xbfd47d44cbbb919c	-0.3201457967354828
91	0xbfe648a2f1b8ab52	-0.6963667603607553
92	0xbfc68bf1bc3ad828	-0.17614576044951602
93	0xbfffca8df91137cc	-1.9869518021764518
94	0x3ff99601c3aab701	1.5991227763401528
95	0x3ff3ad6a88cbf53c	1.2298379272099984
96	0xbff283f17548ecc1	-1.1572126943054146
97	0x3fd579334fadbf46	0.33552248746035607
98	0xbffa6146a4af7bbf	-1.6487490113283767
99	0xbfad08845da72a6b	-0.05670560496544826
100	0xbfe1afb30f392888	-0.5526976868943771
101	0x3fda0b729f85e629	0.4069487150041789
102	0xbfb1d217f42eba52	-0.06961202346313058
103	0x3fe019a3b6579c5a	0.5031298219081564
104	0xbffa23b12185c08d	-1.6337138471099337
105	0xbfbbd829c883101a	-0.10876713891326553
106	0x3fe9dd4368cc209e	0.8082596823524175
107	0x3fe8d7ea0cdbed60	0.7763567210344426
108	0xbfc88e3ad07e456f	-0.19184050731977773
109	0xbffb8f0eb3772351	-1.7224261293760785
110	0x3ffce0d7dc1d20cb	1.8048933599657626
111	0x3fd1283533b75239	0.26807909059906226
112	0x3ff1d7e8e1da4e2f	1.1152123281834851
113	0x3fd77b5e52bc18bc	0.3669048126179282
114	0xbfe8c8f8fd9da07c	-0.7745327905113437
115	0xbfd521317f81e68b	-0.33015096141716843
116	0x3fdaff7d9229f8b4	0.421843903291925
117	0xbfb947eb4bed31fa	-0.09875364879298579
118	0x3fe17ffe4733c8c7	0.5468741789502695
119	0x3fb25d4e4b163cf6	0.07173623402762871
120	0xbfe5a5f9f52c487c	-0.6765107906851564
121	0xbfdd00f4a0914b1d	-0.45318332367348707
122	0x3ff0c6b27eb83511	1.0485100698454668
123	0xbff5aa74ec7d56d7	-1.3541154134631392
124	0xbfd7faf0a1c45f57	-0.3746911601788176
125	0xbff05f17d4aa24ce	-1.0232160861217383
126	0xbf941434ab37ae76	-0.0196083287718651
127	0xbff95dc742f667ed	-1.5853951087688032
128	0x3fe0ec4eef6c1c35	0.5288462330071356
129	0x3ff5a00f41dc0ddb	1.3515770504608244
130	0x3ff184bd6f1eeea7	1.0949072209031472
131	0xbfe0186f7417bfdc	-0.5029828326641979
132	0x3ff3654daedc15f2	1.212232287450544
133	0xbfb174e9e700ff46	-0.06819021119826826
134	0x3f8d58ee65f31275	0.014329779134990542
135	0xbfed904149ec5220	-0.9238592571078392
136	0xbff76b1a0b00a67e	-1.4636478833948838
137	0x3fea6b53d01b1d8c	0.8256014885491125
138	0x3ffc461c5b41fdb6	1.7671168865925728
139	0xbff7bd95df63fc96	-1.4837855077928785
140	0xbfe725c818665219	-0.7233620144421052
141	0xbfd9ae258cd33fa4	-0.4012540698286051
142	0xbfd3566b977495d5	-0.3021496752793074
143	0xbff420c32274436a	-1.2579985948434236
144	0xbfbaeb13ab306bef	-0.1051494877760175
145	0x3fa28f7fb4dc6e66	0.03625105936791044
146	0xbfd8ec138fede8eb	-0.38940896087264204
147	0xbfe811d7cbf51442	-0.7521780952016643
148	0x3fcfc8fc1db0bbbc	0.2483210701916202
149	0xbff960a2953fdef0	-1.5860925512369555
150	0x3fa2f4e2552b8e83	0.03702456750559426
151	0xbff338fedf678648	-1.201414940522584
152	0xbfd39e0529039a02	-0.3065197849777236
153	0x40027de829564148	2.311477969116968
154	0x3ff1d7c1e594f432	1.115175148777109
155	0x3fbaff3b99c5fe1c	0.10545704368814096
156	0x3fe1c5fcc581f29d	0.5554183824129556
157	0x3fe0c1262adfb79d	0.5235777699833651
158	0xbff720eefefa85ca	-1.4455404243566243
159	0x3fc7a738fbccd2a0	0.18479072852064338
160	0x3fe7f6beb88f468e	0.7488702397042333
161	0xbfef42616d827c34	-0.9768530978070715
162	0x4008ca2f96e74fe8	3.098723582204901
163	0x3fd1dd1444822503	0.2791186017062303
164	0xbfc749f6eeb7f142	-0.18194471985033017
165	0xbfe26215eb9007e2	-0.5744733429748943
166	0xbfe03cea07a0516d	-0.507435812850003
167	0xbfdb8f9bb4db2b1a	-0.43064015065890404
168	0x3faf60cf95b22113	0.061285483382620985
169	0xbfefc6645ca825e9	-0.9929677781776124
170	0xbfe0dab4bbdaa97c	-0.5266975087190953
171	0xbff2f56af86840b6	-1.1849164679916107
172	0x3fe0ce4f01c0d91c	0.5251841577762977
173	0x3fc1ee971b2a8816	0.14009369684669143
174	0x3fe8d9a272308def	0.7765667181269559
175	0x4001225d2a3efc85	2.1417792606803823
176	0xbfefc6ee49040135	-0.9930335451208864
177	0xbfd934f29f3730fe	-0.393856673702217
178	0xc001f5af5e55275d	-2.244963395093619
179	0x3fc9e463d16e1a3c	0.20228240705564982
180	0xbfde508d9e56b855	-0.4736665769841058
181	0x3f7b9158a15aa55b	0.006730409824436147
182	0x3fc4b5df68f79551	0.16180031419132004
183	0xbfb1a3e032c5e86b	-0.06890679587914554
184	0x3fa33ae815eef2ec	0.03755879657498959
185	0x40020047d39ebe64	2.2501369984454858
186	0xbfe75fff1493e57a	-0.7304683114918327
187	0x3fe9200a533ef98c	0.7851611734293313
188	0xbfd5e27b0b4cbf88	-0.341948281321486
189	0x3fc0b40119558c35	0.13049329506893206
190	0xbfb1a1770be14c7e	-0.06887001075783591
191	0x3fd2d830bad0a227	0.29444521182679967

weight f8 [64, 64]
0	0xbfb51a3e299d8d06	-0.08243168369294915
1	0x3ff25c76f3964cfa	1.1475743785020414
2	0xbfd754d105eab522	-0.3645517881185062
3	0xbfde3327e2c64b43	-0.47187230249362616
4	0x3fd7bf837ebca211	0.3710640657104998
5	0xbfa862b0466a5c08	-0.04762793407024196
6	0xbff0e5313c25bec7	-1.0559551572331871
7	0x3fdd47f5e240e051	0.4575171193605501
8	0x3fe183c8b38ee8fc	0.5473369128224301
9	0x3ffb9353dffd5f51	1.723468661270051
10	0x3fe5efadda676f62	0.685507704325101
11	0xbfef13fbb61fef2a	-0.9711893612979783
12	0xbfe3bfbfe00d0525	-0.6171569229119639
13	0x3fea8e38354efac5	0.8298607865507043
14	0x3ff4d12861f9dc51	1.3010639025867656
15	0x3fe77318806c9dbf	0.7327997692381628
16	0xbffcb17f84c862f3	-1.7933345019175106
17	0x3fe04d7d7c29b68f	0.5094592499787768
18	0x3fcb589c6c6214bb	0.2136416939939972
19	0x3ff45506aa576589	1.2707583097420374
20	0x3fe3c2870267a5ab	0.6174960181207799
21	0xbff372ca2c7a0067	-1.2155248391500437
22	0x3ff29811e7978d46	1.1621264502108075
23	0xbff591c87e608253	-1.3480915962792508
24	0x3ff13782b07a3450	1.0760523694655326
25	0x3fd6af365478d7f0	0.35444410561774387
26	0x3fe12b34882ba8dc	0.5365240726071323
27	0x3ff0f9f55dba261b	1.0610250149933396
28	0xbfe5feaa35255e9f	-0.6873370206839872
29	0x3ff4107e16ae5ef2	1.254026497457684
30	0xbffb50fa335f66dc	-1.7072698599571856
31	0xbfdeefe04887614a	-0.4833908756532038
32	0xbfe3dc7970215a6e	-0.6206633749050761
33	0x3ff08c7f5af5ec0b	1.0343011429929472
34	0x3ff574a396beca2c	1.340976322983475
35	0x3fe69fe3a62dedf6	0.7070177312556882
36	0x3fd5ccc5debf3536	0.3406233477843047
37	0x40026ee9e319af0c	2.304157041760737
38	0xbfdf8f5a5480a656	-0.49312456371499047
39	0x3fefc589f7d5a0b8	0.9928636398808726
40	0x3ff5368249866f0e	1.325807845313594
41	0x3ff126c8162ab3ef	1.0719681611910763
42	0x3ffa69cae4f1e33e	1.650828260723031
43	0xbff8e7b99a2e941b	-1.556573488496048
44	0xbfc3b137ae5c93cd	-0.1538457490325115
45	0x3ff9343aa7630312	1.5752512491746455
46	0x3fd89c453bee7358	0.384537991072468
47	0x3fda9ac9c2048f05	0.41569751689006323
48	0x3fb17eacd6dd3a6e	0.06833915944774002
49	0xbfd4c59177d48ea9	-0.32455860807588494
50	0x3fb1e0e65b84ce94	0.06983794912667413
51	0x3fc4d66d273b251d	0.16279377379968532
52	0xbfa7d13df13086d6	-0.04651826447685685
53	0x3ff06b4a20d720bc	1.0261937411142261
54	0x3fec3dd8a90128a8	0.8825496006841336
55	0x3fea8fe3cfe68dae	0.830064683967455
56	0x3fd73684682e1f7b	0.36270246671528356
57	0x3fea777e81477768	0.8270866894706446
58	0x3fe5819e4f91475a	0.6720725587895047
59	0xbfdb785dbd77c037	-0.42922156813347406
60	0x3fea9e86d34cc45f	0.8318513991308797
61	0xbff94ab9333623f1	-1.5807430267761868
62	0x3f7670910815e8da	0.005478445558191514
63	0xbfe36fafed9de858	-0.6073836937860149
64	0x3fe4a73fb63b6c12	0.645416122362237
65	0xbff3ba19aeee05b3	-1.2329346497721019
66	0x3ffb0a7305bbb0d0	1.690051100154097
67	0x3fe3f80d57ec0965	0.6240298001505776
68	0x3ff0288910376b93	1.0098963387924627
69	0xbfcf3a00d8aec490	-0.24395762043198888
70	0x3fb0bdbecb33e1db	0.06539528332712712
71	0x3fe0a07ba77d12ed	0.5195902129422315
72	0xbfe6cfb2432314a8	-0.7128535567541308
73	0x3fe6f7c284bf62a1	0.7177441208578622
74	0x3fec60ea1e7b13c3	0.8868303866698785
75	0xbfa29697c6b76764	-0.03630518246400419
76	0x3fd25103550fc43d	0.28619464213176454
77	0x3fc7449c9213f1d2	0.1817813599844969
78	0xbfed29dc0389f425	-0.9113597935789853
79	0x3ffa7efb3e05f5f4	1.6560013220581569
80	0xbfdf653a57e9cf1c	-0.49055346093449415
81	0xbff81a4fb15dd363	-1.506423657262723
82	0xbfe4280ffa268fdc	-0.6298904309992355
83	0xbfdd64152ce70311	-0.4592335642337711
84	0x3fb84a69f68ea541	0.0948854662844001
85	0xbfc8bfed2284823e	-0.19335712609701433
86	0x3feee47f125b7935	0.9653926237622615
87	0x3fd2352b4f28f8e2	0.28449518900369075
88	0xbfc9e7718f2464a2	-0.20237559785235698
89	0x4000de92c5d52e8e	2.1086783843691768
90	0x3ff7b0a10e9a4b53	1.4806223459642822
91	0x3ffac0136314fde5	1.6718934889212218
92	0x3ff651ffab752ced	1.3950192163054524
93	0xbfe3d3a1133e1576	-0.6195836425619479
94	0x3fdd91980c426036	0.4620113486976182
95	0x3fe4f30831c6747f	0.6546669933483286
96	0xbfdd845780502265	-0.46120250254219847
97	0x3fe3db6c66d309cd	0.6205350883758968
98	0x3fe056b1eca982bb	0.5105828878696096
99	0x3faabc696b5179a2	0.05221871790921574
100	0xbff5592a71bccbbf	-1.3342689936514345
101	0xc0014e09ba4a4f49	-2.1631044916083835
102	0xbfd2a4485649363b	-0.29127701212277984
103	0x3fb51da47b4172b1	0.08248355874224945
104	0x3fed9274fa41baa3	0.9241280448748806
105	0x3fff9c28b7ccd582	1.975624769181508
106	0xbfb1d77863ca2783	-0.06969406543990257
107	0xbfe83dd908b0e043	-0.7575497789139337
108	0xbfe6f859e3472ee1	-0.7178162993454543
109	0x3ff8da6334c568fc	1.5533172665951147
110	0xbff14a7d5d71c5ff	-1.0806859636471697
111	0xbfe539571283fa4e	-0.6632495271331409
112	0x3fdb89bbc3d0fc11	0.4302815830487257
113	0x3fba2a67c66c413c	0.1022095546179615
114	0xbfcb00865c018ed5	-0.2109535168884721
115	0x3f964f39a60068c8	0.0217865951127372
116	0x3ff4831ab30711af	1.2820078843370586
117	0xbfef0d05ca274e4b	-0.9703396747885987
118	0x3fe9e13b2ac71c6d	0.8087440333846537
119	0xbffb27404c13292d	-1.6970828029321396
120	0x3fe69fad8e0ebc15	0.7069919371186894
121	0x3fd4e4f0f3ff2c02	0.32647346332368
122	0xc004994eae06a548	-2.5748571010377965
123	0xbfc064ccc978887b	-0.1280761703247356
124	0x3fcefe9f25c5cb78	0.24214543671004285
125	0xbfdb4dfc541a1796	-0.4266348668392025
126	0x3ff4293cadd674b7	1.2600676336799503
127	0x3ff2fb6aa8d9b1b3	1.1863810153691758
128	0xbfc2a2e74157e8c5	-0.1455964154300259
129	0x3ff4f4815bd983d5	1.309693678653493
130	0x3fca2b75c6fe51d3	0.20445129600979203
131	0xbff5963f639861b0	-1.3491815462531171
132	0xbffb82b72ab32306	-1.7194129627188786
133	0x3fd18ad57cd61677	0.2740987509826946
134	0x3fceaad4ed08018d	0.2395883710269228
135	0xbfde16f328af8403	-0.47015074704364695
136	0x3fe234efcc008e15	0.5689620003144592
137	0xbffecb284ebfa280	-1.9245989872089524
138	0x3fda646a24d13aab	0.41237882228316874
139	0xc0006807311c2b1d	-2.0507949673386876
140	0x3fe01a802d9911c7	0.5032349482140085
141	0x3ff5bdc6abb41c66	1.3588320452852485
142	0xbfef500079fb79b9	-0.978515852209788
143	0x3ff1226c3232512a	1.0709039650728962
144	0x3feac24351b8d6ec	0.8362137409337413
145	0x3fdfa18f553e5d05	0.49423583340235694
146	0xbfd6d5aed2d0e464	-0.35679216945169956
147	0x3f927f760792492e	0.01806435033047043
148	0x3fd6a5b2a562ee6c	0.353863393316465
149	0xbfef797fe6872792	-0.983581495523355
150	0x3fe753fcedec6756	0.7290024420683305
151	0xbfd528be1e118c78	-0.33061173378354836
152	0xbfde970ffb8d9702	-0.4779701191495037
153	0xbfe30c55e235b75f	-0.5952557962570885
154	0xbfe885b80b53bdf9	-0.7663231106980098
155	0xbfd6a399b4299d65	-0.3537353763008098
156	0x3ff5030bc478f8c3	1.3132436442097493
157	0xbfd63e662aa769bc	-0.34755853810716153
158	0xbfd49a4db193f367	-0.32191793767542837
159	0xbf866a6581bf96af	-0.010945122739893646
160	0xbffd319b7f6a39ba	-1.8246111848016953
161	0x3fe6829a3d318ab5	0.7034426875291816
162	0x3fbd8808fc2e5733	0.11535698086512695
163	0x3fb6fbc112487bf5	0.08977896400800474
164	0x3fca88783d3be91e	0.2072897242540614
165	0xbfe14bef526a9ebf	-0.5405193910309761
166	0x3fdc386fee8bfec8	0.44094465537635275
167	0x3fe4bea081608b4e	0.648269894303988
168	0xbfd12fd0192a9af3	-0.26854326684626456
169	0x40079c85bc9f809b	2.951426957719446
170	0x3fd33b16788488e8	0.30048143166835795
171	0xbfc63e706ad795b2	-0.1737804910364225
172	0x3fd8d4e4c363ed07	0.38799399453246547
173	0xbfe88b2257d05c1a	-0.7669841494670238
174	0x3ff8b898506f233d	1.5450671331365833
175	0x3fdea4d80207134e	0.4788112659264713
176	0xbffc010770c68693	-1.7502512364666571
177	0xbff1fef080a5775b	-1.1247410798309463
178	0x3fe946ee7a215e38	0.789908636604145
179	0x3ff7032e3c33995b	1.4382765151618375
180	0x3fea0d95a106dc40	0.8141582627348569
181	0x3fd9ed3a63974777	0.40510425306012315
182	0xbfe863280527bd1c	-0.762104044026191
183	0x3ff139693e612c24	1.076516383810266
184	0x3fce73c51b8aa1fd	0.2379080185394428
185	0x3fe6e1d9ed4e9e4a	0.715069735994754
186	0xbfc80b151cfdec50	-0.18783821025485503
187	0x3fe9ef83162016fe	0.810487311566902
188	0x3fdcadeef3005b2b	0.4481160519657574
189	0xbff7588ac530550a	-1.4591167166411787
190	0x3fe1a048660fa4be	0.5508157723790175
191	0xbfe41ec1dab6f10f	-0.6287545463342513
192	0x3ff7edb5f7e286b9	1.4955348666193642
193	0xbfeded89ba47342f	-0.9352463377232477
194	0x3ff78ad0fe913032	1.4713907188443156
195	0x3ff071d96ce0fe99	1.0277952435571136
196	0xbfc40541572eaac7	-0.15641037709186476
197	0xbffe144379689084	-1.8799471609609393
198	0xbfe44213e1952d5c	-0.6330661207115713
199	0x3ff2b2a0d7e2f6cb	1.1686104233808006
200	0xbfaf264da8569906	-0.060839106368165516
201	0x3fd5ab84b23ea83f	0.3385936489745553
202	0x3fec5c978218ecf9	0.8863027134861162
203	0x3fd3a7618e652f2a	0.30709113031183455
204	0x3ff36256f4e43949	1.2115087095331367
205	0x3fe8a59ee47247d5	0.7702173673480909
206	0xbff3bcbd66d1c0d0	-1.2335790649777216
207	0xbfde02ac25608614	-0.46891311311819206
208	0xc008f6c61d1a8813	-3.1204950593683036
209	0xbff5a2af289d2b6d	-1.3522178255541022
210	0x3ffab80d4e6de793	1.6699345649380788
211	0x40003f994e4310ab	2.0310541261879584
212	0x3ff3c15dfaa2253e	1.2347087660185276
213	0xbff09cc6e69cb663	-1.0382756241118833
214	0xbff1060c03074fbd	-1.0639762991240638
215	0x3ff5a401657eca4f	1.3525403942736778
216	0x3feba5ce5eef8058	0.8639900068483355
217	0x3fe1b7671ce882f1	0.5536380352606028
218	0x3fe71c670f019773	0.7222171109285526
219	0x3ffa616bbf821b81	1.6487843972006149
220	0xbfea2680e8d795a5	-0.8172001407335087
221	0xbff0c95ebad8a5f6	-1.0491626070673852
222	0x3fcd407054993a8b	0.22852901583469917
223	0xc001770bd2cbb723	-2.183128020135784
224	0xbfda18a41b8fe3cd	-0.4077539700661504
225	0x3ff35d14c0542a05	1.2102248680918148
226	0x3fc7cfbb6d5e61ba	0.1860269817377807
227	0xbfd1ae29257ddaab	-0.27625492726603323
228	0x3fea4390104418f5	0.8207474057860781
229	0xbfd676ff33f5c2d0	-0.35101299356669546
230	0xbfe450839ac95f38	-0.6348283789802514
231	0xbfc838469a784b6f	-0.18921740095592152
232	0xbfd3b336ebc55123	-0.30781338715066137
233	0x3fd777222819ea36	0.36664632717262025
234	0xbff281368ff39401	-1.156546175299127
235	0x3fe99cb11be18a9a	0.8003774208594507
236	0xbff6b0087e5395cd	-1.417976849997433
237	0xbff20beb908d0f1d	-1.1279101988338376
238	0xbfcd43cb38ab3c3c	-0.22863140360866108
239	0xbfda30504d55eb13	-0.4091988330107352
240	0xbff26a841ad06b6e	-1.1510048911502184
241	0xbfd64fbf611b089f	-0.3486174057289961
242	0xc0029c008e61a1d8	-2.326172935823916
243	0x3ff96a1cbd61d7e8	1.5884063146345344
244	0x3fe8034ca0fb80a8	0.7504027504146693
245	0xbfc0742771aff671	-0.12854474116459216
246	0x40005ea669ee988d	2.046215846628064
247	0x3ffd0405789c9e6b	1.8134817801855216
248	0x3ff11fa52768160c	1.070225862438181
249	0x3ff5053f01f0b4ca	1.3137807918349602
250	0x3fe0f2567e67a12a	0.5295822590678985
251	0x3fd9c4d31a28a1d1	0.40263822130739607
252	0x3feb4007de5f7b09	0.8515662520620434
253	0x3fef9434358c2748	0.98684130152217
254	0x3fec89fe4decb7ca	0.8918448945967097
255	0xbfdeec8c7e75e81d	-0.48318779325166067

weight f8 [64, 64]
0	0xbfdd28c7757f2d6d	-0.4556139609746513
1	0x3fd338f0bf849034	0.3003503675738586
2	0xbffb2d3c6135782b	-1.6985439107152256
3	0xbfd518a73f355a01	-0.32962971852012407
4	0x3fde40a54f906657	0.47269566316535844
5	0x3fe9a8bd7986db0c	0.8018481610841675
6	0x3fc88bd6e3bbc0e2	0.19176756019397262
7	0xbff1e3f58b803a3a	-1.118154091763826
8	0x3fcd7fc8f7ee3a9f	0.23046218973145913
9	0x3fe0e24439a40f33	0.5276204229162204
10	0xbfb146c2d6388b03	-0.06748597841264474
11	0xbfcfdf7d1fd3edbe	-0.24900783590406478
12	0x3ff98428311b3340	1.5947648924076958
13	0x3fe1c416b148984b	0.5551866018838693
14	0x3ff321387164dade	1.1956104688121552
15	0x3fd23342f652f66f	0.28437875800214035
16	0x3fd19358f9781ed8	0.2746183811400278
17	0xbfe840db39175ea0	-0.7579170336784564
18	0x3fc1ac60022afeb5	0.1380729685388268
19	0xbfcdffcff89289de	-0.23436927449536332
20	0xbfe6f5c68a0bbf3b	-0.7175018974503254
21	0x3fdcaf6e01760425	0.44820737974811414
22	0x3fe6945019c584e7	0.7056046012259259
23	0x3fe9a81d65072bea	0.8017718289569278
24	0x3fcc79db0a9c5f82	0.22246873872859046
25	0xbff85052821e7eaf	-1.5196099360254427
26	0x3ff541784daf379a	1.3284838709400675
27	0xbfd58117c1a60ae7	-0.33600419913288565
28	0xbf99e0ba860cff81	-0.025271334106264035
29	0x3ff1673754794902	1.0876992511517192
30	0x3fc73da18601a18c	0.18156832736282202
31	0xbfe957afc1770acf	-0.7919539240468455
32	0x3fcdf7ebb2347316	0.23412843896303376
33	0xbfcc4940f6bd845f	-0.22098552749506248
34	0xbfe04f892bb3037b	-0.5097089627744106
35	0xbfd181c8d959ce4d	-0.27354642129578083
36	0xbfd31c56700fc3c5	-0.2986045927382828
37	0x3fe005c4e41c7b8e	0.5007042365358403
38	0xbfdd435de3142423	-0.457236739880104
39	0x3f863d572a366bb1	0.010859185195661288
40	0x3fede0ec82e23ae7	0.9337065273592459
41	0x3ff7978b026d025f	1.4744978041418546
42	0xbff1288b72bd1dfe	-1.0723986131650913
43	0xbfe7431c5db23c93	-0.7269422369007706
44	0xbfe8f0e422b8b32d	-0.7794056585458741
45	0x3fe3cafe3b3ad5d0	0.6185294300873299
46	0x3ff116c17f4f6e6c	1.0680556271608124
47	0xbfecb83a9fc5b303	-0.897488891654206
48	0x3fbd76fa613cd0a0	0.11509671091045215
49	0x3fdb8ea5c33891a5	0.43058151306675035
50	0xbfda1d4f00f87447	-0.40803885550287017
51	0xbfb92776f194378b	-0.09825843236850866
52	0xbf8804ffdd753748	-0.011728285737855906
53	0xbfe7fc98c5d4e25a	-0.7495845664880776
54	0xbfcfbfdfe51c5270	-0.24804304778139707
55	0xbf7cb652fab8dff7	-0.007009815347878138
56	0xbfe083116becc52b	-0.5159995181949503
57	0xbfc0ee0ef0a13c2f	-0.1322649645757976
58	0xbff069005d88661a	-1.025635114061862
59	0xbfe761dd3ce85179	-0.7306963147735096
60	0x3fffc6da79d7996c	1.9860481986484855
61	0xbff18d16d0f19412	-1.0969455873357714
62	0xbff371f5318b7a55	-1.2153217254014141
63	0xbfeff7d15e886c87	-0.9990012022348232
64	0x3fd0d4ebc406364b	0.2629956640529129
65	0x3ff078b96d9163e1	1.0294737129208829
66	0x3febf5a9366ba6eb	0.873737913408346
67	0xbff9e49f411e2039	-1.618315939298567
68	0x3fd3a7f00c800941	0.30712510319439806
69	0xbfeed2bd273c5570	-0.963224960930047
70	0xbfeb8ee0188e3138	-0.8611908416365059
71	0x3ff0d01f858d6577	1.050811311425006
72	0x3fc6f89c16120dd9	0.17946196630155845
73	0x3ff42adf73beba83	1.2604670068064088
74	0xbff033ddc46bec61	-1.0126626656263158
75	0xbfd6f88e67ed7667	-0.3589206709783412
76	0x3ffc47bd556e9af4	1.767514547079995
77	0x3ff6d968c9e87c2a	1.4280784499203585
78	0x3fe8b58378b46771	0.7721574170602549
79	0x40000581a51a5220	2.0026886843354674
80	0xbff1a4b5c5b2e584	-1.1027124140367457
81	0xbfdaaac5ee2d7331	-0.4166731668427018
82	0x3fec93b522f145c7	0.8930307085485588
83	0xbfe3269c59d6dc96	-0.5984632258104223
84	0x3fee76c50ef55711	0.9519982616572823
85	0xbfdbeec0fdfe3472	-0.4364473801040908
86	0xbfe1505087acf0dc	-0.5410540246880617
87	0x3fc501c3e8b59137	0.16411637175327495
88	0x3fe159fd342a6c82	0.5422349947797473
89	0x4003cb329b4b1106	2.4742176182063558
90	0x3fbef95c1149c92b	0.12099242612911058
91	0x40000093812f5ed6	2.000281342752582
92	0xbfd0837534feb036	-0.2580235497978295
93	0x3ff1b4aa0cd4a3c7	1.1066074849315883
94	0xbfc8b08bbe9651b0	-0.19288775259032098
95	0xbfc0bf54980e2f19	-0.13083894180851344
96	0x3fd99e630c6f70ad	0.4002921697081188
97	0xbfa56152ef92b892	-0.041758147949949934
98	0xbff3b261b0b422da	-1.2310501959311098
99	0x3ff3feb22dd75b59	1.249681643550238
100	0xbfd86dc34bc98672	-0.3816993942365122
101	0x3fcd7d4bfc7d04a5	0.2303862555363924
102	0x3fdca9b2c766e1f6	0.44785756562080736
103	0xbff9914244c6c675	-1.5979635893421833
104	0x40022b72d9cda87e	2.2712151542555707
105	0xbfeba98baee81d46	-0.8644464889666004
106	0xbffec80924d8d3d0	-1.9238368453345522
107	0x3ffe4df7774ffb9d	1.8940348301546017
108	0x3fd118ba237a7b13	0.2671342226475854
109	0xbfd932f390f5ef10	-0.3937348285323745
110	0x3ff76fd2d88901b9	1.46480068763786
111	0xbf3de5bc22d1a06e	-0.0004561981502946348
112	0x3ff3813638de59bc	1.2190458508899686
113	0xbfe53f15804956b6	-0.6639506822200107
114	0x3fc756126116ae63	0.18231420269636364
115	0x3fda62254e7c1335	0.4122403398944699
116	0xbfd8144e20d799aa	-0.37623933036084145
117	0xbfef8e433739d88b	-0.9861160353309669
118	0x3fd564ca463da8d7	0.3342767415948748
119	0x3fe4c508bbd6de7e	0.6490520161377871
120	0xbfc5b7c8f1d4908e	-0.16967117126580827
121	0x3ff1f9405343faca	1.1233523609695788
122	0xbffc3c71d7cca57a	-1.764757006613165
123	0x3febe2d6c14415c1	0.8714402937627527
124	0x3fc0f26d57ad96cf	0.13239828854709976
125	0x3fb577dc24de44c2	0.08386016750434336
126	0x3ffff6e6788b8dcf	1.9977783879083864
127	0xbff2eae91908f007	-1.1823512056280394
128	0x3f9e644029e6dd9e	0.029679300839885785
129	0x3fdb6edf2537fa28	0.4286420691932187
130	0x3ff27111d5769d25	1.152604898301271
131	0xbff1a3088ec4dd4f	-1.102303083125509
132	0x3fab5179e6f7adae	0.053355988926195294
133	0xbf81df08c14c566d	-0.008726185225479821
134	0xbfe22848779f2bc9	-0.5674173675882851
135	0x4002c98b5e7791f1	2.3484103565444845
136	0xbfde97ede0ac9a26	-0.4780230230411767
137	0xc00b4a22741c803a	-3.41119852745035
138	0xbfe0ca7d7e84928d	-0.5247180434276558
139	0x3ff151d05901aa02	1.0824740864578648
140	0x3fe637fa7fccb2b7	0.6943333145223595
141	0x3ff7b9c3967e8b27	1.4828525427516952
142	0x3ff250a6776e7527	1.144690004853439
143	0x3fe73b67d9c81fd1	0.7260016683148881
144	0xbfe02147566188ff	-0.5040623366478768
145	0xbfe8d17886dff264	-0.7755701669953621
146	0xbfe3f826af256fd0	-0.6240418835473012
147	0x3fc4e295a1438913	0.16316480993470658
148	0xbfc0f69d4462a63e	-0.1325260719216192
149	0x3fb6b6293668db3f	0.08871705606803192
150	0xbfed70cbb6f8d669	-0.9200190137550638
151	0xbffb663985323637	-1.7124571993803224
152	0xbfb326f836576f80	-0.07481337858865622
153	0xbfe41722aab429bc	-0.6278241476114128
154	0xbfefa67c19334e0a	-0.9890728466220378
155	0x3fecfb84656db14e	0.9057027798676616
156	0x3fb0d35e12ca555e	0.06572521170376919
157	0xbfed8c93aab082cf	-0.9234102567462176
158	0xbfe56197a14b5bad	-0.6681631231575601
159	0x3fe0f26af755f8df	0.5295920210626511
160	0x3ff15c98ef55d3a0	1.0851067875894174
161	0xbfe5f7cd9936212d	-0.6864994041834841
162	0x3ff54b94a4f829ee	1.3309523052326955
163	0xbfe71df52bd964bb	-0.7224069458417469
164	0xc0013ab34203b175	-2.153662219751079
165	0x3fd161ad8357d245	0.2715867788931841
166	0xbff5093374031adc	-1.3147463351939939
167	0x3fed6169b412ba26	0.9181412236264961
168	0x3ff69a89a83a4d98	1.4127289363285396
169	0xbffa8c2d814e76bf	-1.659223084548486
170	0x3fdb232a13fdf4a1	0.4240212626680862
171	0xbfaa0804acdba735	-0.050842424488861594
172	0xbfefdd6be1e0b71d	-0.9957789813686052
173	0x3fe36f0f2b26800c	0.6073070376187402
174	0x3feef211b62f1ac8	0.9670494612008378
175	0x3faa77bf1fabf008	0.051694843879857955
176	0x3ff9f201e70111dc	1.6215838454819425
177	0xbfe73025f494c3a2	-0.7246274735426719
178	0xbfd38ac6e40a50a3	-0.3053452708202348
179	0xbfef4d7f563832bc	-0.9782101329779702
180	0x3fe2e72f6391ea41	0.5907208389974771
181	0xbff44e4d7938b558	-1.2691168532577048
182	0x3fe5d60cc4b3cd2b	0.6823791353075753
183	0x3ff7956423253fbf	1.4739724514838455
184	0xbfe8786a0da463a8	-0.7646990076492459
185	0x3fd7415634018e24	0.36336283758848453
186	0x3f4744745ef8c507	0.0007100647180263993
187	0xbfe946e260dc0ac4	-0.7899028674877049
188	0x3fb5e3a9ee98b737	0.08550512385474184
189	0xbff6dfc2294a8fe0	-1.4296285260143051
190	0x3ff106b9e8c7a2d7	1.064142140670972
191	0xbfb9ea3ff3f0648a	-0.10123061852972817
192	0x4000781f0ca14ea8	2.0586529719092432
193	0x4001e890a93a602d	2.238557169050202
194	0x3fb757fbeb793eb9	0.09118628023974908
195	0x4001d5b186417a30	2.229342507241448
196	0xbfdec854c7d82b60	-0.4809772445302567
197	0xbfe797c7fe20f2ad	-0.7372779811335782
198	0xbfef148b25b00b94	-0.9712577568137584
199	0xc0031f658b64e9d9	-2.3903303995295855
200	0xbfd817f4c6994632	-0.37646216768652885
201	0x3fc2fe430f5a3cda	0.14838445901521063
202	0xbff1d1a9c5659349	-1.113687296944777
203	0x3fe11387e96294d9	0.5336341436674515
204	0xbfe26b90ce8bf11f	-0.5756305727113932
205	0x3ff17b48bf908f11	1.0925986750598364
206	0xbfff475aa7db15a3	-1.9549204403750557
207	0xbfbdfcfeb90e54d6	-0.11714164751022635
208	0xbff80ef9087e2e9f	-1.503655465293299
209	0xbfe4811c96932eee	-0.6407607022206017
210	0x3fd83ce6e5cb07e8	0.378717159659685
211	0xbfca014809202093	-0.20316410489636336
212	0xbfdc73b348a70c41	-0.44456178755735115
213	0x3ff178147282ac54	1.0918163750709668
214	0x3ff78d595139b84f	1.4720090077276102
215	0x3ff1962f7cc6bd20	1.0991663812708978
216	0x40049cc71633a2ef	2.5765516027935216
217	0xbfeac72dbac848ba	-0.8368137977688754
218	0xbfea540148fb28fc	-0.8227545190250392
219	0xbfd6fc97a2494006	-0.3591670117211837
220	0xbfddb25963f4d013	-0.46401057015759867
221	0xbff542ae36d8b437	-1.3287794249001885
222	0xbfe8411702d8aba5	-0.7579455428689142
223	0x3ffef65d2868f64d	1.9351474360004375
224	0xc001754a0b455a85	-2.18227013402367
225	0x3ff31b61902fa457	1.194184840418776
226	0x3f9c3e53f9865664	0.02758151255110021
227	0x3fe3df05a67cbbe2	0.6209743739799445
228	0x3fee6b6ce15f5b3d	0.9506134416395536
229	0xbff0436a24979599	-1.0164586476688326
230	0x3fd4bbe7e30e6533	0.32396886037311673
231	0xbfe29e1eb4b93efe	-0.5818017511137155
232	0x3ff2edd3938fd059	1.1830631031162027
233	0x3fd9e07edc4355cc	0.40432712087689704
234	0x3fae7b631bd420e6	0.0595351191969387
235	0xc0023f3baed2ae0b	-2.2808755548519506
236	0xbffdc09f03740f13	-1.8595266470810585
237	0xbfe4f5d337c870c7	-0.6550079431067609
238	0xbfd4012255c3533a	-0.3125692212609469
239	0xbff214374d60b6f6	-1.1299355528421393
240	0xbfe45f766bdd171f	-0.6366531473838427
241	0xbfd43e3c46e86e5e	-0.3162985508404058
242	0x3ff718fdf6f46b9d	1.4436015745802486
243	0xbff5dda5459bf33b	-1.3666126937016105
244	0xbfe477dade659493	-0.6396307319343059
245	0xbff6b1122a9e0082	-1.4182302155241193
246	0xbff251702adbe09b	-1.1448823618102668
247	0xbff2dfb02d761a23	-1.1796113754113626
248	0x3fecbf93c277532d	0.8983858869711178
249	0xbfe113f28706168e	-0.5336849820311771
250	0x3ff0a15610a505de	1.0393887186222552
251	0xbff4129c12e8434d	-1.2545433748784547
252	0x3ffd89a311fe684c	1.8461027815706244
253	0xbfd96bcf7e1e328a	-0.397205231821126
254	0x3fe0902068ef65f0	0.5175935792460091
255	0x4000af4b973f8189	2.085593396783399
