px915_reproducible/f/MACE_model_f4.model (torch, 961538 bytes, 78 tensors)

r_max f8 []
0	0x4010000000000000	4.0

weight f8 [32]
0	0x3fe414556f96625b	0.6274821452562479
1	0xbfa0500311788d71	-0.03186044300334857
2	0xbfba55dd897fc12c	-0.10287270171079815
3	0xbfe4b426e2b933e8	-0.6469911983673429
4	0x3fda2466520474cf	0.40847166070473134
5	0x3f9b2219314280f8	0.02649726260335769
6	0xbfeb8a63a36e4041	-0.860643214417003
7	0x3fb6fba4e0097e6c	0.08977728337912944
8	0x3fa039c1e9a54756	0.03169065453643209
9	0xbfecc2a9733096a1	-0.8987624406624556
10	0xbfb73dafe982d80f	-0.09078502131419007
11	0xbfb2fe5f646a3cb0	-0.07419391824281507
12	0x3fda6954607fde63	0.4126788084390453
13	0xbfe3cb41c7b7a79d	-0.618561639855432
14	0x3fb067057f70ed21	0.06407198296885898
15	0x3fdd74c91cab57b1	0.46025302695977205
16	0x3fb0851f214b3d9b	0.06453127444114275
17	0xbfe4b15e18068f3a	-0.6466513127565812
18	0xbff08728b9d66a30	-1.0329978236465074
19	0xbfd2ff58b0155ba8	-0.29683510966918414
20	0xbfe2cd9c928d24bf	-0.5875990736323259
21	0x3fb2a106f3f67303	0.07276957946892186
22	0x3fc38a9fbcfe9405	0.15266796806568564
23	0xbfaf067e8173dcce	-0.06059642153007304
24	0xbfd887b38494caef	-0.38328254649529375
25	0x3fecafe189a91ee8	0.8964698494609964
26	0x3ff3d6982bbc8622	1.2398912151769612
27	0x3fee5a4ed602df97	0.9485239200503085
28	0x3ff7ca871b7e3c04	1.4869452547025057
29	0xbfd5c5b7eff57ad5	-0.3401927798603713
30	0x3f966e9e7458a162	0.021906352854928264
31	0x3fe60c297f649a3d	0.6889846313613998

output_mask f8 [16]
0	0x3ff0000000000000	1.0
1	0x3ff0000000000000	1.0
2	0x3ff0000000000000	1.0
3	0x3ff0000000000000	1.0
4	0x3ff0000000000000	1.0
5	0x3ff0000000000000	1.0
6	0x3ff0000000000000	1.0
7	0x3ff0000000000000	1.0
8	0x3ff0000000000000	1.0
9	0x3ff0000000000000	1.0
10	0x3ff0000000000000	1.0
11	0x3ff0000000000000	1.0
12	0x3ff0000000000000	1.0
13	0x3ff0000000000000	1.0
14	0x3ff0000000000000	1.0
15	0x3ff0000000000000	1.0

bessel_weights f8 [3]
0	0x3fe921fb54442d18	0.7853981633974483
1	0x3ff921fb54442d18	1.5707963267948966
2	0x4002d97c7f3321d2	2.356194490192345

r_max f8 []
0	0x4010000000000000	4.0

prefactor f8 []
0	0x3fe6a09e667f3bcd	0.7071067811865476

p f8 []
0	0x4010000000000000	4.0

r_max f8 []
0	0x4010000000000000	4.0

atomic_energies f8 [2]
0	0xc02b591b83ea04ec	-13.67403805
1	0xc0e617acbb7942b7	-45245.39788497

weight f8 [256]
0	0x40077844787fa40b	2.933724347491539
1	0xbff3afc5533d9334	-1.2304127933104612
2	0xbff062314f3b6418	-1.0239728064536902
3	0xbfe3676f19984477	-0.6063762187860807
4	0xbfd133cff0dacb8e	-0.268787369928014
5	0x3ff70e506a2ed91a	1.440994658257813
6	0xbfef8cab35c9def4	-0.9859214830930498
7	0x3ffaede9829d4aa9	1.683084020817356
8	0xbfdd1d624c2bc463	-0.45491845549174154
9	0xbfe9696dfae73cac	-0.7941198254065021
10	0x3ff6c99b5f76d5d7	1.4242204407759027
11	0xbfff9fb6ecec8e99	-1.976492810711454
12	0x3ff7e2d2cbd06575	1.4928768121229414
13	0x3fed21b1b833700d	0.9103630635904679
14	0xbfd86a95b9d0b662	-0.38150542398475384
15	0xbfe3538220ba4a1a	-0.6039438857281454
16	0x3fda292d2a931eac	0.40876320989307646
17	0x3fd125cb0300e518	0.26793170255003096
18	0x3fe48fc9a148602b	0.6425521993687701
19	0xbfcaac29a6b32a8e	-0.20837898864404675
20	0x3fd6fd0ae4c33596	0.3591944917687554
21	0x3ffe6d3511ef62bf	1.9016619396772254
22	0x3fbcf83c7bd2e64b	0.11316278479616775
23	0x3fdf4ffedc2d59f7	0.48925754071879574
24	0x3fe9f4f073c039af	0.8111498127707842
25	0xbfeb940ba4b08e05	-0.8618219582171497
26	0x3f7995efebc006ef	0.006246506873141418
27	0x3fe28a39dd4c0ac0	0.5793732950408739
28	0xbfe651615d234086	-0.697434121999337
29	0xbfef61d342acf1e8	-0.9806915571458008
30	0x3ff3b14249a10073	1.2307761074189585
31	0xbfcf26e7fead111a	-0.2433748239074099
32	0xbfe4286e34bc36b2	-0.6299353628143847
33	0xbfd20b79ee2c577a	-0.28195045718290823
34	0x3ff87aa06d577f09	1.5299381514705053
35	0x4001b0dc9b17532e	2.211358272218056
36	0x3fd9cb229a968e01	0.40302338692183076
37	0x3fea24fb4b7594c9	0.817014357930611
38	0xbfe8d1903f24eaa7	-0.7755814774785293
39	0x3ff2b19cd231fecf	1.16836244685685
40	0x3ff32833caa0450e	1.1973150172310087
41	0x3fd2eca4ae00d536	0.29569355957513055
42	0xbf8ecc05ed847026	-0.01503758078666102
43	0x3fe61c66ba59fe3a	0.6909669532469203
44	0x3fea0c877cadbf29	0.8140294489985297
45	0x3fda3f141af4dc7e	0.4101000083205192
46	0x3fecee8c3d5347eb	0.904119605804451
47	0xbfdc67cafefdf4fe	-0.44383501912655265
48	0xbff0a96ed50dec96	-1.0413654634892615
49	0x3fe1f453a774ab7c	0.5610750456447557
50	0x3fd0aa149cb5d64f	0.26038089088192334
51	0xbfd7ec7c76a9e145	-0.3738089712928921
52	0xbfe59ffee97fd476	-0.6757807312520885
53	0x3fea91e11015a2b3	0.8303075136328374
54	0xbff0c3947bc88002	-1.0477490268021943
55	0xbfe6d57ebf4b852e	-0.7135614143591391
56	0x3fec59d5221957f0	0.8859658876415306
57	0xbff619aabde8c1a6	-1.3812663477257074
58	0xbfcdc3f2ca08e452	-0.23254237046220055
59	0xbfc8ba6ec851c01d	-0.19318947583406124
60	0xbff016983837d1d2	-1.0055162616746327
61	0xbff327b37b153ef1	-1.1971926505975115
62	0x4001374983c61c5b	2.1519956869920356
63	0xbfe2dfd76758b60b	-0.5898243921744223
64	0x3ffb30512d0b5c2f	1.6992961654230034
65	0xbffc2dce18db279c	-1.7611828776302678
66	0x3ffe5ff46e3113e6	1.898426466404311
67	0x3fe96ff179e44ba4	0.7949149494837582
68	0x3fffc2ce3c1e3977	1.9850599621164216
69	0x3fc9d0cab88fe4ac	0.20168432246990642
70	0xbff1e7d338275f65	-1.1190979188449657
71	0xbff400d5a309cfd3	-1.2502037399944939
72	0x3ff975c445ddf190	1.5912516335657507
73	0xbfe1fd9738b1b387	-0.562205897074464
74	0xbfe14ab88493e3a6	-0.540371188107305
75	0xbfdf2febd86fff52	-0.48729988228295895
76	0x3f9244651b54ddb0	0.01783903102224621
77	0xbff4d49e585b77df	-1.3019088221985766
78	0x3fe7b2d309bc9346	0.740579146401253
79	0xc00018db5d2f14a9	-2.0121371536248103
80	0xbf974e402c0e3335	-0.02275944012540095
81	0xbfccc60736bed826	-0.22479334042663018
82	0xbff00d3f04242263	-1.0032339250339184
83	0x3fc880e9871ca575	0.19143408868084646
84	0x3ff67a7e0800bf55	1.4049053490270655
85	0xbff0dd0b6cfbdf7d	-1.0539659745390673
86	0xbfd285f2b1722ffa	-0.28942553833689966
87	0xbfe64e4806b083a8	-0.697055829110572
88	0x3fde7dc8f09e5e0e	0.47642730234062547
89	0x3fdca31cca9868eb	0.44745559487058867
90	0xbfb6a6a6f1e6a6f6	-0.08848040967736978
91	0xbfede85c64ff681c	-0.9346143696413978
92	0x3fa56fbea9049603	0.041868169910497265
93	0x3f989c6e7f258059	0.02403423930206858
94	0xbfc6ab21da9ce827	-0.1770975415655027
95	0x3f9859116f0873b5	0.02377726783935304
96	0xbfe5687310606af5	-0.6690001792770476
97	0x3fd322b5593d80d6	0.2989934321867741
98	0xbfe38ce736f6bd36	-0.6109500955116463
99	0x3fe60f8b871a3681	0.6893975867003094
100	0x3f942b887caa59a7	0.019697315796827344
101	0xbfedbad511d70b03	-0.9290566776693087
102	0xbfbe41632e19d50c	-0.11818523288259913
103	0x3ff0d58b904dd7a4	1.0521350514295387
104	0xbff1e7fe79443e56	-1.119139169404567
105	0xbfebb1d3ad323441	-0.8654573805557747
106	0x3ff517c3f451c151	1.318302111027226
107	0xbff2957af6a66e23	-1.1614942202348935
108	0xbfeb849c479f993c	-0.8599378012557177
109	0xbfcb030537a120af	-0.21102967468528308
110	0xbfd0b90e3a7839c6	-0.2612948962204452
111	0xbfd3ce3069e4c867	-0.30945978490047427
112	0xbfe2b202d3261769	-0.5842298625945946
113	0xbffba4883a2e569e	-1.7276689789481803
114	0x3fe2f98183747e54	0.5929572646600243
115	0x3fb27a32e53cddfe	0.07217710587143952
116	0x3fe9a5c5faa55d21	0.8014860053471332
117	0xbff674fbff51f2fb	-1.403560635894961
118	0x3ff1aba0135369f3	1.1044007067599722
119	0xbfcd5cc8f93ccc9e	-0.22939407510566395
120	0x3ff0ebfe0ce2282d	1.0576153281458673
121	0x3fe7d321d144be1b	0.7445229613567251
122	0x3fd1f6d759f0d538	0.2806909921958609
123	0x3ff6ede2cf230875	1.4330776301653974
124	0xbfba145cc9a8d2ac	-0.10187320636107228
125	0xbfe358191d75daa8	-0.604504163303166
126	0x3fdccfcdc1e8568b	0.45018333374296365
127	0x3fe3c75c6d331440	0.6180860646060253
128	0xbfe110fa4ffc9057	-0.5333224832761613
129	0xbffb8cee2d8d2726	-1.7219068316794135
130	0x3fea289ee2be4c3d	0.8174585751133986
131	0x3ff109c043d0653c	1.0648806237207529
132	0x3ffab21da498b441	1.668485300974922
133	0xbfe30ff634d37c8e	-0.5956984550247328
134	0xbff0fbb452179d03	-1.0614512640693767
135	0x3fba018c9a044c1f	0.10158613929915859
136	0xbfddcf9c487953de	-0.4657965381387025
137	0xbfeb42ba968df7c3	-0.85189561276615
138	0x3ff4bb019034d423	1.2956557877598776
139	0xbff20c08b897e749	-1.1279380045584324
140	0x3f9fdaee51f7dbab	0.031108592751447322
141	0xbfe165ba321099a7	-0.5436678865269656
142	0x3fe0e1396409dd00	0.5274931863667973
143	0xbfe6d9a710cc66d0	-0.7140689209074598
144	0x3fe96c2d64a77718	0.7944552389051038
145	0x3ff63280271a7191	1.387329247233627
146	0xbfe36d8f30395bd9	-0.6071239416004303
147	0x3fc137d11c53b690	0.13451589472918046
148	0xbfde08f711d1c6bc	-0.4692971872346836
149	0xbffb284fffd9d4f8	-1.6973419183898937
150	0x3ff351c9530c045b	1.207467388536563
151	0x3ffb8442d39a5d7a	1.7197902932874443
152	0x3fa4b3a3790e2934	0.04043303349233654
153	0x3fe84350dc0421b1	0.7582172677221505
154	0x3fded2993f46f65e	0.48160391978658434
155	0x3ff2f2ec98c97601	1.18430766756444
156	0xc000a0f3697cc395	-2.078589271659846
157	0xbff580f8e23ed4f3	-1.3439873540603997
158	0xbfdacb5f9cbdff5e	-0.41866293246129327
159	0xbfec6cd62cd9a357	-0.8882857204417672
160	0xbfe21642d40036c1	-0.5652174130097692
161	0xbfe195fd1cb55ad4	-0.5495591698371194
162	0x3fdb71cc53cdf354	0.42882068809540397
163	0xbfd052dc14ab8783	-0.25505735415037395
164	0xbff675474221532f	-1.4036324103555662
165	0xbfc54a22afbf5be4	-0.1663249357358999
166	0x3fb4900ee9497419	0.0803231544063724
167	0x3fdbf3454a76556c	0.43672306319907395
168	0x3fd83592a9b78ba8	0.3782698304550487
169	0x3fcd9340fba1cad5	0.23105633055418787
170	0x3ffc60c397610d65	1.7736240304228315
171	0xbfbaaca6644f973b	-0.10419692944523444
172	0xbfe449034fb80f81	-0.6339127118121582
173	0xbfdcbfe19be04b75	-0.4492115041950265
174	0xbff53aee3e511e4d	-1.3268873628857307
175	0x3fd79544c4924cfd	0.3684856338160925
176	0xbfa1d119543ec028	-0.03479842332251365
177	0xbfde2edca11cd095	-0.4716102193226644
178	0x3fe0c262c987234b	0.5237287460414363
179	0xbff379957ed232b7	-1.2171835855435071
180	0xbfdd08c8333d3e18	-0.45366101268607073
181	0xbfbadcc523c71b3a	-0.10493118403892945
182	0x3fd36af61588384e	0.3034033975862983
183	0x3fc46f3ed96250dc	0.159644943375162
184	0xbff4ce33def46032	-1.3003424367107184
185	0xbfb706945fc65680	-0.08994414652110017
186	0x3fb34b86c8c471e4	0.07537119294688172
187	0xbff6002420f7deeb	-1.3750344550916747
188	0xbfd05538cc8c837d	-0.2552015302226705
189	0xbff8a6a262f7da66	-1.5406822076744446
190	0x3fe14d9e58c02181	0.5407249196442053
191	0x3fff7a3bf3417fdc	1.967342329233353
192	0x3fd5b479fbfad972	0.3391404114476223
193	0x3fcac0fe4e558479	0.20901469063668168
194	0xbfe31b521607dbcf	-0.597085040119845
195	0xbfe7790559a9d2b6	-0.7335230590093349
196	0x3fe3b9d7bc50850e	0.61643587856466
197	0x3fea3faa1ecd10f2	0.8202715493758019
198	0xbfb87f2f538bf817	-0.09569068708148652
199	0xbfee46935b8a06ca	-0.9461151874422395
200	0xbff22be20f39bf17	-1.1357136339901837
201	0xbfb707e04b4b9666	-0.08996393049491189
202	0x3ff2357f96b7ec01	1.1380611312331441
203	0xbff7d4180aec18ac	-1.4892807413721512
204	0x3f8783b3ba536864	0.011481670497620118
205	0xbfeb552ae944f641	-0.8541464382212284
206	0xbfda4edcda84852a	-0.4110633977853292
207	0x3fe59688465fc605	0.6746255278105201
208	0x3ff5deb083a6f201	1.3668675558720909
209	0x3feb480aa75c6182	0.8525441426054814
210	0x3fe92274b9608ede	0.7854560490272566
211	0xbff6259bd742813d	-1.3841818245492299
212	0x3fd3e58ba240ad8f	0.31088534207329926
213	0xbff4ff4fce6653e1	-1.312331968544861
214	0xbff708882a791fed	-1.4395829829318203
215	0xbfe35613d8c05105	-0.6042575105116447
216	0xbff06a13a52189a3	-1.025897641222948
217	0xbffcc1ea13eabf1a	-1.7973423746115658
218	0x3fe2c7a84ef92072	0.5868722479290354
219	0xc0011af02b992593	-2.1381534010039984
220	0xbfc9035a4b260e05	-0.19541481656425233
221	0xbfee516386c01f38	-0.9474351531834833
222	0x3ff17b2ab8bb187b	1.0925700393723037
223	0xbfedc1b01af9a263	-0.9298935438974464
224	0xbfc9dd710e189686	-0.20207036197932754
225	0x3fe5fab784b47de0	0.6868550865073608
226	0xbfe336b32a74d5ee	-0.600427229807506
227	0xbfd21b7f00a5d090	-0.28292822898152625
228	0x3fa688114db14948	0.044006863340330826
229	0x3fcb3f7e1ef98cdc	0.21287514221612625
230	0xbfe3a869186d318a	-0.6143079258995823
231	0xbfea5da52c496ab8	-0.8239312996841681
232	0x3faa3bebe065a779	0.05123841394636392
233	0x3fe479a54ee713b3	0.6398493329112312
234	0xbfc0d40bf1fb61ba	-0.13147115054631603
235	0x3ff768f7e7876781	1.4631270450686034
236	0x3f8572cee9340006	0.010472885600847814
237	0x3ff34db4aebaff97	1.20647114042365
238	0x3fe1ae37c83be712	0.5525168333835799
239	0x3fe77d191925cb72	0.7340207568325765
240	0x3ff73f03d6987593	1.4528845198286475
241	0xbfeb075c4e2dae7c	-0.8446485068247536
242	0xbfcc10500f8bcadf	-0.21924782523236439
243	0x3fe71df969281b16	0.7224089673844414
244	0x3ff39d67a6369168	1.2259289257718482
245	0x3fe39911cbb882bd	0.6124352435036468
246	0x3fcb7ef246181218	0.2148115961318957
247	0x3ff55de9c8f3865d	1.3354280328425354
248	0xbfe789d9097ff4be	-0.735577124170639
249	0x3fe215806d3f2414	0.565124715206482
250	0x3fedc61efab42e95	0.9304346939620297
251	0x3fedca9993a4f8cf	0.9309814342193706
252	0x3fe7d1c8b7507f4a	0.7443584041938973
253	0xbfe2b1dfedc353d5	-0.584213222866874
254	0xbfd14d10f57c9e10	-0.270328750355902
255	0x3fd919fe9e103949	0.3922115844333303

output_mask f8 [16]
0	0x3ff0000000000000	1.0
1	0x3ff0000000000000	1.0
2	0x3ff0000000000000	1.0
3	0x3ff0000000000000	1.0
4	0x3ff0000000000000	1.0
5	0x3ff0000000000000	1.0
6	0x3ff0000000000000	1.0
7	0x3ff0000000000000	1.0
8	0x3ff0000000000000	1.0
9	0x3ff0000000000000	1.0
10	0x3ff0000000000000	1.0
11	0x3ff0000000000000	1.0
12	0x3ff0000000000000	1.0
13	0x3ff0000000000000	1.0
14	0x3ff0000000000000	1.0
15	0x3ff0000000000000	1.0

output_mask f8 [256]
0	0x3ff0000000000000	1.0
1	0x3ff0000000000000	1.0
2	0x3ff0000000000000	1.0
3	0x3ff0000000000000	1.0
4	0x3ff0000000000000	1.0
5	0x3ff0000000000000	1.0
6	0x3ff0000000000000	1.0
7	0x3ff0000000000000	1.0
8	0x3ff0000000000000	1.0
9	0x3ff0000000000000	1.0
10	0x3ff0000000000000	1.0
11	0x3ff0000000000000	1.0
12	0x3ff0000000000000	1.0
13	0x3ff0000000000000	1.0
14	0x3ff0000000000000	1.0
15	0x3ff0000000000000	1.0
16	0x3ff0000000000000	1.0
17	0x3ff0000000000000	1.0
18	0x3ff0000000000000	1.0
19	0x3ff0000000000000	1.0
20	0x3ff0000000000000	1.0
21	0x3ff0000000000000	1.0
22	0x3ff0000000000000	1.0
23	0x3ff0000000000000	1.0
24	0x3ff0000000000000	1.0
25	0x3ff0000000000000	1.0
26	0x3ff0000000000000	1.0
27	0x3ff0000000000000	1.0
28	0x3ff0000000000000	1.0
29	0x3ff0000000000000	1.0
30	0x3ff0000000000000	1.0
31	0x3ff0000000000000	1.0
32	0x3ff0000000000000	1.0
33	0x3ff0000000000000	1.0
34	0x3ff0000000000000	1.0
35	0x3ff0000000000000	1.0
36	0x3ff0000000000000	1.0
37	0x3ff0000000000000	1.0
38	0x3ff0000000000000	1.0
39	0x3ff0000000000000	1.0
40	0x3ff0000000000000	1.0
41	0x3ff0000000000000	1.0
42	0x3ff0000000000000	1.0
43	0x3ff0000000000000	1.0
44	0x3ff0000000000000	1.0
45	0x3ff0000000000000	1.0
46	0x3ff0000000000000	1.0
47	0x3ff0000000000000	1.0
48	0x3ff0000000000000	1.0
49	0x3ff0000000000000	1.0
50	0x3ff0000000000000	1.0
51	0x3ff0000000000000	1.0
52	0x3ff0000000000000	1.0
53	0x3ff0000000000000	1.0
54	0x3ff0000000000000	1.0
55	0x3ff0000000000000	1.0
56	0x3ff0000000000000	1.0
57	0x3ff0000000000000	1.0
58	0x3ff0000000000000	1.0
59	0x3ff0000000000000	1.0
60	0x3ff0000000000000	1.0
61	0x3ff0000000000000	1.0
62	0x3ff0000000000000	1.0
63	0x3ff0000000000000	1.0
64	0x3ff0000000000000	1.0
65	0x3ff0000000000000	1.0
66	0x3ff0000000000000	1.0
67	0x3ff0000000000000	1.0
68	0x3ff0000000000000	1.0
69	0x3ff0000000000000	1.0
70	0x3ff0000000000000	1.0
71	0x3ff0000000000000	1.0
72	0x3ff0000000000000	1.0
73	0x3ff0000000000000	1.0
74	0x3ff0000000000000	1.0
75	0x3ff0000000000000	1.0
76	0x3ff0000000000000	1.0
77	0x3ff0000000000000	1.0
78	0x3ff0000000000000	1.0
79	0x3ff0000000000000	1.0
80	0x3ff0000000000000	1.0
81	0x3ff0000000000000	1.0
82	0x3ff0000000000000	1.0
83	0x3ff0000000000000	1.0
84	0x3ff0000000000000	1.0
85	0x3ff0000000000000	1.0
86	0x3ff0000000000000	1.0
87	0x3ff0000000000000	1.0
88	0x3ff0000000000000	1.0
89	0x3ff0000000000000	1.0
90	0x3ff0000000000000	1.0
91	0x3ff0000000000000	1.0
92	0x3ff0000000000000	1.0
93	0x3ff0000000000000	1.0
94	0x3ff0000000000000	1.0
95	0x3ff0000000000000	1.0
96	0x3ff0000000000000	1.0
97	0x3ff0000000000000	1.0
98	0x3ff0000000000000	1.0
99	0x3ff0000000000000	1.0
100	0x3ff0000000000000	1.0
101	0x3ff0000000000000	1.0
102	0x3ff0000000000000	1.0
103	0x3ff0000000000000	1.0
104	0x3ff0000000000000	1.0
105	0x3ff0000000000000	1.0
106	0x3ff0000000000000	1.0
107	0x3ff0000000000000	1.0
108	0x3ff0000000000000	1.0
109	0x3ff0000000000000	1.0
110	0x3ff0000000000000	1.0
111	0x3ff0000000000000	1.0
112	0x3ff0000000000000	1.0
113	0x3ff0000000000000	1.0
114	0x3ff0000000000000	1.0
115	0x3ff0000000000000	1.0
116	0x3ff0000000000000	1.0
117	0x3ff0000000000000	1.0
118	0x3ff0000000000000	1.0
119	0x3ff0000000000000	1.0
120	0x3ff0000000000000	1.0
121	0x3ff0000000000000	1.0
122	0x3ff0000000000000	1.0
123	0x3ff0000000000000	1.0
124	0x3ff0000000000000	1.0
125	0x3ff0000000000000	1.0
126	0x3ff0000000000000	1.0
127	0x3ff0000000000000	1.0
128	0x3ff0000000000000	1.0
129	0x3ff0000000000000	1.0
130	0x3ff0000000000000	1.0
131	0x3ff0000000000000	1.0
132	0x3ff0000000000000	1.0
133	0x3ff0000000000000	1.0
134	0x3ff0000000000000	1.0
135	0x3ff0000000000000	1.0
136	0x3ff0000000000000	1.0
137	0x3ff0000000000000	1.0
138	0x3ff0000000000000	1.0
139	0x3ff0000000000000	1.0
140	0x3ff0000000000000	1.0
141	0x3ff0000000000000	1.0
142	0x3ff0000000000000	1.0
143	0x3ff0000000000000	1.0
144	0x3ff0000000000000	1.0
145	0x3ff0000000000000	1.0
146	0x3ff0000000000000	1.0
147	0x3ff0000000000000	1.0
148	0x3ff0000000000000	1.0
149	0x3ff0000000000000	1.0
150	0x3ff0000000000000	1.0
151	0x3ff0000000000000	1.0
152	0x3ff0000000000000	1.0
153	0x3ff0000000000000	1.0
154	0x3ff0000000000000	1.0
155	0x3ff0000000000000	1.0
156	0x3ff0000000000000	1.0
157	0x3ff0000000000000	1.0
158	0x3ff0000000000000	1.0
159	0x3ff0000000000000	1.0
160	0x3ff0000000000000	1.0
161	0x3ff0000000000000	1.0
162	0x3ff0000000000000	1.0
163	0x3ff0000000000000	1.0
164	0x3ff0000000000000	1.0
165	0x3ff0000000000000	1.0
166	0x3ff0000000000000	1.0
167	0x3ff0000000000000	1.0
168	0x3ff0000000000000	1.0
169	0x3ff0000000000000	1.0
170	0x3ff0000000000000	1.0
171	0x3ff0000000000000	1.0
172	0x3ff0000000000000	1.0
173	0x3ff0000000000000	1.0
174	0x3ff0000000000000	1.0
175	0x3ff0000000000000	1.0
176	0x3ff0000000000000	1.0
177	0x3ff0000000000000	1.0
178	0x3ff0000000000000	1.0
179	0x3ff0000000000000	1.0
180	0x3ff0000000000000	1.0
181	0x3ff0000000000000	1.0
182	0x3ff0000000000000	1.0
183	0x3ff0000000000000	1.0
184	0x3ff0000000000000	1.0
185	0x3ff0000000000000	1.0
186	0x3ff0000000000000	1.0
187	0x3ff0000000000000	1.0
188	0x3ff0000000000000	1.0
189	0x3ff0000000000000	1.0
190	0x3ff0000000000000	1.0
191	0x3ff0000000000000	1.0
192	0x3ff0000000000000	1.0
193	0x3ff0000000000000	1.0
194	0x3ff0000000000000	1.0
195	0x3ff0000000000000	1.0
196	0x3ff0000000000000	1.0
197	0x3ff0000000000000	1.0
198	0x3ff0000000000000	1.0
199	0x3ff0000000000000	1.0
200	0x3ff0000000000000	1.0
201	0x3ff0000000000000	1.0
202	0x3ff0000000000000	1.0
203	0x3ff0000000000000	1.0
204	0x3ff0000000000000	1.0
205	0x3ff0000000000000	1.0
206	0x3ff0000000000000	1.0
207	0x3ff0000000000000	1.0
208	0x3ff0000000000000	1.0
209	0x3ff0000000000000	1.0
210	0x3ff0000000000000	1.0
211	0x3ff0000000000000	1.0
212	0x3ff0000000000000	1.0
213	0x3ff0000000000000	1.0
214	0x3ff0000000000000	1.0
215	0x3ff0000000000000	1.0
216	0x3ff0000000000000	1.0
217	0x3ff0000000000000	1.0
218	0x3ff0000000000000	1.0
219	0x3ff0000000000000	1.0
220	0x3ff0000000000000	1.0
221	0x3ff0000000000000	1.0
222	0x3ff0000000000000	1.0
223	0x3ff0000000000000	1.0
224	0x3ff0000000000000	1.0
225	0x3ff0000000000000	1.0
226	0x3ff0000000000000	1.0
227	0x3ff0000000000000	1.0
228	0x3ff0000000000000	1.0
229	0x3ff0000000000000	1.0
230	0x3ff0000000000000	1.0
231	0x3ff0000000000000	1.0
232	0x3ff0000000000000	1.0
233	0x3ff0000000000000	1.0
234	0x3ff0000000000000	1.0
235	0x3ff0000000000000	1.0
236	0x3ff0000000000000	1.0
237	0x3ff0000000000000	1.0
238	0x3ff0000000000000	1.0
239	0x3ff0000000000000	1.0
240	0x3ff0000000000000	1.0
241	0x3ff0000000000000	1.0
242	0x3ff0000000000000	1.0
243	0x3ff0000000000000	1.0
244	0x3ff0000000000000	1.0
245	0x3ff0000000000000	1.0
246	0x3ff0000000000000	1.0
247	0x3ff0000000000000	1.0
248	0x3ff0000000000000	1.0
249	0x3ff0000000000000	1.0
250	0x3ff0000000000000	1.0
251	0x3ff0000000000000	1.0
252	0x3ff0000000000000	1.0
253	0x3ff0000000000000	1.0
254	0x3ff0000000000000	1.0
255	0x3ff0000000000000	1.0

weight f8 [3, 64]
0	0xc003f3d08de2049a	-2.494050129375478
1	0xbfd3de5aa84499e0	-0.31044641907138093
2	0xc002f4bdb3abe244	-2.369502452548007
3	0xbffa358ad36c52cf	-1.638071847793231
4	0x3fda15e92baa1c2e	0.4075873304759082
5	0xbff0ba8bf4521583	-1.0455436271452931
6	0xbff349cc7abd898c	-1.205517272429094
7	0xbfee2d4b97dd47d4	-0.9430292097188109
8	0xbfea520946fa710e	-0.8225141893667869
9	0x3fa29c345112cc4b	0.03634799470582858
10	0x3ffa0f0c7f52ae68	1.6286740277818357
11	0xbf8ffc0004e7b48b	-0.015617370748225909
12	0x3f95bfc60beae873	0.021239370801346923
13	0x3fdfd642b4957f74	0.4974524272456542
14	0xbfb8463f636c232f	-0.09482189347558
15	0xbffa61d50699985f	-1.6488847978412406
16	0xbff846e346f16c7e	-1.5173065921033237
17	0x3fdf8e8a0c947d26	0.49307490566748624
18	0x3fffc011729911ae	1.984391639373921
19	0xbfeb1aab07533ba3	-0.8470053809231682
20	0xc0017afafb1050f5	-2.185049020228798
21	0xbfc20e3279be7755	-0.1410582632496992
22	0x3fd6f648e2d353d4	0.358782025822902
23	0xbfdd2e906e8b1cba	-0.4559670524144611
24	0x3fd795e759e224db	0.36852439668343856
25	0x3ff09a4a85c4e795	1.037668726478363
26	0xbff4ec2f79ed29a3	-1.307662464404168
27	0xbfe4ea5e72f8aa51	-0.6536094899686963
28	0xbfe68d0388c28a13	-0.704713599309175
29	0xbff8a26005a128f3	-1.5396423549560125
30	0x3fe0837efef0ef94	0.5160517672843405
31	0x3ffa1cf5380b5585	1.6320697964887085
32	0x4004efa243424f7d	2.617008710347305
33	0x3fe59a049da3bd32	0.6750510291002796
34	0xbfedd7edff5151d8	-0.9326086031601859
35	0x3febc6ced8169577	0.8680185528252612
36	0x3fe4b8a3165f391b	0.6475387036278194
37	0xbfecff9facfdd592	-0.9062040690175073
38	0xc005dd2f9c51b3e9	-2.733000966304179
39	0x4004e24bf476bcfc	2.6104964350448636
40	0x3fb92a6ed6929f88	0.09830372561066103
41	0xbfd0dbc42c0f8e25	-0.26341347029503687
42	0xbfee0e14d27b7db7	-0.9392189131721612
43	0x4003ad07cf9ddc48	2.4594875545549577
44	0x3fe71e1fb7ed11f5	0.7224272339158789
45	0x3fed78cbd601de54	0.9209956340627721
46	0xc0022be1ddddb1bb	-2.271426900222847
47	0xbffd9e2638fddc06	-1.8511106706844216
48	0x3fe2dc747ece4a79	0.5894110180546043
49	0xbfea3d2d383e888c	-0.8199678514977378
50	0xbff93c69509293f7	-1.577248873459437
51	0xbfd853e576d8ef55	-0.3801206265086326
52	0x4007d7b48037bb62	2.9803247468002363
53	0x3fc5279aee11120c	0.16527115463590325
54	0xbfe37baeac125448	-0.6088479386113557
55	0xc00129d6a588fedd	-2.145428937190316
56	0x3fd4a8b662dbcba7	0.32279739050062023
57	0xbff6a75d29735600	-1.4158603305016868
58	0xbfc93f1fbab2083b	-0.1972388898466891
59	0xc0031ea5933edac5	-2.3899642470890705
60	0x3fec4ba2905caf75	0.8842327899524053
61	0xbfce70c86d16a29f	-0.23781686140616373
62	0xc007dd1c478bb84e	-2.9829640950693266
63	0xbffc928277ed0889	-1.7857689556699674
64	0x3fd8e1082ac5ca58	0.38873485733998825
65	0x3fe24b6d0f56f129	0.5717072772600079
66	0xbfd085afc8b68158	-0.2581595859610579
67	0x3fd0e355f93d82ce	0.26387547817107027
68	0xbfdcf4bc9bfb539d	-0.45243754608719106
69	0xbfd8d961af7416d0	-0.38826791891220314
70	0xbfdeab569407f1ae	-0.4792076535811941
71	0xbfe337aebd81e559	-0.6005471898380775
72	0x3f92f715b448c322	0.018520678642917628
73	0x3f9610e8d5c41510	0.021548879668462695
74	0xbff7d9feafaa56a4	-1.49072140330592
75	0xc00356f515cbd990	-2.417459650310043
76	0x3ff418b7b5a07296	1.2560345740122663
77	0x3fe6ef53d1a6b544	0.7167147726774279
78	0x3fffa5ff425ce22f	1.9780266372964765
79	0x40084a7c20f674f6	3.036369569321887
80	0x3fe1306d9d3174e6	0.537161643045377
81	0xbfe2b1f7c8ceff41	-0.584224598125708
82	0x3ff6e8edda92593a	1.431867460055925
83	0xbff20990fc66c75f	-1.127335534995346
84	0xbff78fd075425d40	-1.4726109104575045
85	0xbfdbe8b072009aae	-0.4360772240928935
86	0xbffbd9dbf8ca8d26	-1.7406882971197972
87	0x3ff7dc467f35e6eb	1.491278168598394
88	0x3fe1cffd668fca2c	0.5566393855245386
89	0xbfb87a6e8cd81d31	-0.09561816156939497
90	0x4004e1ee6dabfa66	2.6103180473431165
91	0xbff86aaec604ef48	-1.526045583260343
92	0xbfef381fa478e9c8	-0.9756010258054681
93	0xbffbb9deda0c0f59	-1.7328785436120226
94	0x400395a856d97784	2.4480749878993624
95	0x3fe5103c145364f5	0.658231773089169
96	0xbfef49abadf3241c	-0.9777429959732475
97	0xbff0b8f7f945d628	-1.0451583611696922
98	0xbfe86cc789e9cf03	-0.7632787412280496
99	0x3fe033e010d03b7b	0.5063324287783496
100	0xbfea7490b397a4c0	-0.826729155317615
101	0xbfa3557e971e13c4	-0.03776164622016823
102	0xbfe35ad81bcf5ab5	-0.6048393767512922
103	0x40007180fb9a9602	2.0554217964697736
104	0xbf7fa09ebf2f313b	-0.007721538643590538
105	0x3ff7d162c6d3bcf5	1.488619591396682
106	0xbfeff3b05c8cea3c	-0.9984971816659889
107	0xbfcee5bfe119fb86	-0.24138639918598076
108	0xbfe617c2b2a49c90	-0.6904004563447348
109	0xbfe50d23ad93dcb3	-0.6578539266764863
110	0xc0039f5d83862746	-2.452815082103288
111	0xbff071a3eef662c7	-1.0277442297430512
112	0xbfea38c2380c5a1a	-0.8194285483066921
113	0xbfc44950f4766c5c	-0.15848743378305385
114	0x3fc8e6e5634771cc	0.1945463881264814
115	0x3fe6f154fe59b763	0.7169594733984294
116	0xbfb2f67dea20c1be	-0.07407366720213468
117	0xc002d4cf74572964	-2.3539113129710802
118	0xbfbf957280f48ea4	-0.12337413452456275
119	0x3ff44cb409211ca9	1.2687263828864082
120	0xbff7bb0508bf9f29	-1.4831590978373674
121	0xbfa245b2a55b330a	-0.035688002286042034
122	0x3f833f8e624bc6d0	0.009398567557102139
123	0x3fe9f2d0cf15c24a	0.8108905834797693
124	0x3fddbea3b96ff5c0	0.4647607146178778
125	0xbfcff21fb529b1e2	-0.24957653375476158
126	0xbfd1a7ede1ae40a7	-0.27587458647850344
127	0x3ff31aa5664b9d9d	1.1940053935921704
128	0x3fe759fa49379392	0.7297336034795185
129	0xbfcfdaea921a5373	-0.2488682950394395
130	0x3ff211a8249f3e44	1.129310744337901
131	0x3fe6c35524bb924d	0.7113443105159348
132	0x3fc7f0e9f13ef35d	0.18703960685334212
133	0x3ff28e03a2cd47a1	1.1596714362571918
134	0x40091680f36bbf31	3.135988141751931
135	0xc006bb871bae3393	-2.8415662920510356
136	0xc0095f579f2b6a40	-3.1715538439869135
137	0xbf9caec45921660e	-0.02801043313988854
138	0x3fdd4946284d0057	0.4575972932398193
139	0xbffe941f80795c3d	-1.9111628550069917
140	0xbfed3c406c2bba77	-0.9136049378119669
141	0xbfe72a0b148f7606	-0.7238822366304596
142	0xbff67840ac9203af	-1.4043585530309703
143	0xbff5f3341e147a2d	-1.3718758749961453
144	0x3febdcc6f2e2150f	0.8707003349124153
145	0x3fd05d4dfefa7f40	0.2556948652290778
146	0xbffd89ca37b1f8f8	-1.8461401153177217
147	0x3ff4645a5012a049	1.274500191482746
148	0x400150e934542646	2.1645073021107093
149	0x3fff2b59333eb46b	1.9480831147914397
150	0x3ff9a1659e3097d3	1.6019035510339463
151	0xbfed985474a88887	-0.9248449591143676
152	0x3fcc5888f0ec7634	0.22145187152720924
153	0x3fb990bb6448c29c	0.09986468504281237
154	0xbff64d5f136bc89a	-1.393889499534032
155	0xc00186068ef7f110	-2.1904421967902934
156	0x40089f8b9d98289b	3.077903014379513
157	0x4000187e94164be6	2.0119601792625756
158	0xc000935beac6f064	-2.0719526617013333
159	0xbff354ea87828721	-1.2082314771036595
160	0xbfd4ca8f9b447ba5	-0.32486334002345024
161	0x3fea4e99e4bf91df	0.8220948665371529
162	0x3fed4257dd5f04ae	0.9143485377936906
163	0xbfdd2b875bbc231d	-0.455781783661722
164	0x3fd54cad3888bab6	0.3328049709406672
165	0x4001bee7d4a2b3d8	2.2182156192925326
166	0x3ff992af17975690	1.5983115121393077
167	0xc0054d1c5bf850bc	-2.6626517472414815
168	0xbfa2d1f9065e3556	-0.03675821497663871
169	0xbfef6a341d665c80	-0.9817143034187126
170	0x3ff1db7abcc9cd22	1.116083848432773
171	0xbfe9fed7f49f4663	-0.8123588350083079
172	0x3fc9bca27b65b0ac	0.20106917405371882
173	0x3fa58c5995683cbc	0.04208641003435207
174	0xc00248d560ea2c53	-2.2855632373298618
175	0x3ffb28e350fd8d97	1.697482410782731
176	0xc007f04ff22ef0bc	-2.992339984948641
177	0x3ffc40b1029e3940	1.7657938101070414
178	0x3fdfadcf2c3490e2	0.4949834758465511
179	0xbfd77089953217fc	-0.3662437397946403
180	0xc010bd4be5e059ac	-4.18485984021974
181	0xc0019afffd58d05e	-2.200683573983084
182	0x3fe6924c9ce14c68	0.7053587974609288
183	0xbfb3a0838dc66658	-0.07666799746802988
184	0xc0034bc072054ed3	-2.4119881542081685
185	0x3fe21539a5eff659	0.5650909653629227
186	0x3fb389fc7d40750f	0.07632425363449989
187	0x3fd60374612aba6a	0.34396085251765973
188	0xbfe5a1051e6129b3	-0.6759057610845985
189	0x3fd16ffbea3cfa9f	0.2724599635584272
190	0x3ff79d20813d5f63	1.4758610771586624
191	0xbfc912b71b817c9f	-0.19588364451462767

weight f8 [64, 64]
0	0x3ff98a3e970d6d23	1.5962510967718309
1	0x3fe8ba9417e6832a	0.7727756945424507
2	0x3fff0b87dfcd71f7	1.9403151266370722
3	0x3fd86338ee034352	0.38105605357582306
4	0xbff51b381293e201	-1.3191452718439225
5	0x3fb77079e997d5fe	0.09156000092465175
6	0x3fdbcf6eb10b969b	0.4345356682737049
7	0x3fd8b2f79ea21fd2	0.38592329494030964
8	0xbfc18b7b7a09ac68	-0.13706916293026272
9	0x3fee6c53515bb7fd	0.9507233227757294
10	0x3ff01cd0324d4b88	1.0070344891471184
11	0x3fd4ea19150441a5	0.3267882066002364
12	0x3fbc57f7220b8c05	0.1107172449224408
13	0x3fe26ffe8835d817	0.5761711750371913
14	0xbfee402e3bb58702	-0.9453345457261266
15	0xbfc8fee8403ab7b0	-0.19527915130805473
16	0xbfe652c71bcd7927	-0.6976047080059161
17	0x3fb149d356297f1f	0.06753273824278637
18	0x3ff28058de01c2e3	1.15633475037992
19	0x3febef535d059a21	0.8729645554383901
20	0x3fecfe4312b5861e	0.9060378423129725
21	0x3fd9fcc1effd0f21	0.40605209766748557
22	0x3febba55ecd8b191	0.8664960504443561
23	0xbfd1d92ab96a5b8c	-0.2788798151681753
24	0xbfcfd2138a0e468a	-0.24859852066997618
25	0xbfe906b4f2db1ee9	-0.7820687049179159
26	0x3fd8c5d4ce3db0ca	0.38707466259689893
27	0x3fec54f35e6793b3	0.8853699535217089
28	0x3fdb71076411bdbe	0.4287737347831032
29	0x3fd62b28afb37345	0.3463842120962009
30	0x3ff51b0e8e349112	1.319105678071598
31	0xbffc6c35037d036c	-1.7764177452338243
32	0x3fe17ac397f6ad88	0.5462358444250848
33	0x3f6b6e74083af811	0.0033485666516233155
34	0xbfdaf420138a62fb	-0.42115022571810784
35	0x3fd5ff2c0a139aa3	0.34369946464577533
36	0x3fcf1a3befa65814	0.24298810197495924
37	0xbfd8cce4c0e4f76e	-0.38750571095794484
38	0xbfb6053a4fd230a2	-0.08601726959949699
39	0xbfd2a2d1055084ad	-0.29118752974506884
40	0xbfeccbad8eded217	-0.899863032382714
41	0xbff91da1f8a59f73	-1.569734545972065
42	0xbfe136e58fbb0b81	-0.5379512603034159
43	0x4006d633e15079af	2.854591141003048
44	0xbf714a0a3e416d8c	-0.004221000683254938
45	0xbfe37d5ab9679ed9	-0.6090520497500292
46	0x3ff09d1dd024c661	1.0383585100757033
47	0x3ff6fe6013ea6425	1.4371033456757314
48	0x400816d6f8ff99e5	3.0111522152903825
49	0xbfb75a880250a4dd	-0.09122514778632103
50	0x3fd087872dc1002a	0.2582719752135768
51	0xbfeb59e7b755daec	-0.8547247486847858
52	0x3fe48ad052181f1a	0.6419450381663154
53	0x3ff09d7ad553fd11	1.0384472211006293
54	0xbfd1bd01e9cbc34a	-0.2771611006892739
55	0x3fded7800391aff3	0.48190307949585004
56	0xbff291c7d123fbc1	-1.1605909509232648
57	0x3fecd11256794a63	0.9005214394513356
58	0x3ffc7f1e1582ec48	1.7810345497407685
59	0x3fed7e92b079a319	0.9217008063106703
60	0xbfea392b89c0bdeb	-0.8194787683950698
61	0xbfe0fd6a6cb3b4a1	-0.5309345362744758
62	0x3fc9f81e26627bde	0.20288445352795653
63	0x3fe417982a7e7bbb	0.6278801755869304
64	0xbff5399a212dee13	-1.3265630050726755
65	0xbfc6d38a1966238f	-0.17833067169365477
66	0x3feac083dddb06e6	0.8360003789059334
67	0xbfe1bf5060a4374a	-0.554603756668919
68	0xbfeb0b05aaaf68a7	-0.8450954755492334
69	0xc00113b7d4e01b06	-2.1346279745952215
70	0x3fd4285423d61abc	0.314961466785842
71	0xbff1757910aa9a7a	-1.0911799098045365
72	0xbfd147676e1bee2e	-0.26998315575449083
73	0x40013ae6d1ec05a3	2.1537605667260364
74	0xbff53616a17dee5f	-1.3257051761892382
75	0x3ff380bf53c45581	1.218932463850564
76	0x3fc9cc08f581953b	0.20153915393454178
77	0x3fce3a645c0b229f	0.2361569833212984
78	0xbfc0a5b8fb9f51ac	-0.1300574520706851
79	0xbfd761aea81d6163	-0.36533705155809154
80	0x3fe5d05958cc12d0	0.6816832289046832
81	0xbfc1e399c7d5cf32	-0.1397583223111894
82	0x3fe1a653f1764bb1	0.5515536991173261
83	0xbfcd7e8d436669d8	-0.2304245547391719
84	0x3fe1c3d4005866d9	0.5551548010582464
85	0xbfd6d5b5b55a81f1	-0.35679381094271806
86	0x3fd6be8c9b64576f	0.35538020300861367
87	0x3fd08bd5bc44d16f	0.25853484521510145
88	0xbfe68b6b48c81871	-0.7045189305797647
89	0xbfd36f492ad28f73	-0.30366734678158663
90	0x3fc3366f7ab712ae	0.15009873859357498
91	0x3fe04b3bd2b6ecec	0.5091837993162733
92	0x3fe50f77ca22d6e2	0.6581381748171362
93	0x3fad2d4c5d98887e	0.0569862236263967
94	0x3fc959754537a005	0.1980425441718127
95	0x3fe50ac462a620ea	0.6575643469559769
96	0x3ff64e049bc609a8	1.39404736374909
97	0x3feac23debb8eda1	0.8362111667587905
98	0xbfe1a5d9974fcc7f	-0.5514953570658604
99	0x3fff132119905798	1.9421702383601538
100	0xbfe55648d17cd89c	-0.666782769351602
101	0xbfb61fe91fc9f535	-0.0864244177445997
102	0xbffc1cb47179e697	-1.757008021608646
103	0xbfef5fe66bb1ca80	-0.9804565528305176
104	0xbfa3c129152c87ec	-0.03858307250472123
105	0xbfca0b24065bec50	-0.2034649878549737
106	0x3ffaf32c9b3b1db4	1.6843687118251696
107	0x3fea8591bbc85389	0.8288048427226481
108	0xbfed75a5a80b79bb	-0.9206112177014839
109	0x3fc847d811f27096	0.18969250561065526
110	0xbfe3d98bc9955141	-0.6203059136555923
111	0x3fd7dd0b71ea1bc9	0.37286649822675294
112	0x3fdff8c33fe7dea9	0.4995582698897843
113	0x3fc6ee2e6ee6b9ed	0.17914371886349958
114	0xbfe1a592160ff793	-0.5514612608819668
115	0xbfe4864523a9aa12	-0.6413903900659668
116	0xbfe870a521b00e2f	-0.7637506158793651
117	0xbff5b753a416bc7e	-1.3572575006217273
118	0xbfe87da1f9ab646a	-0.7653360248906556
119	0x3fcedeacc7415a7a	0.2411704991270261
120	0xbfa3a9ccbb43ef44	-0.038404844150106615
121	0x3fce3f3c2e9d23a3	0.2363047816855018
122	0x3fcb2b88cc28c113	0.21226606339178797
123	0xbfea83f811a1d06b	-0.8286094993950547
124	0x3ffb8c31071b608b	1.7217264440169255
125	0x3fd072b7549d8e6e	0.2570017172167586
126	0xbffd103b1612561d	-1.816462599007884
127	0x3ff32cfab931f7e5	1.1984812959849418
128	0x3fe495f9f92cbf37	0.6433076731391115
129	0x3fd970516dd81ab0	0.39748035170525053
130	0x3fea40c2c9b0a2e4	0.8204053820855646
131	0xbff079b4ad8021e3	-1.0297133233417461
132	0xbfb94cfe1d2a59ec	-0.09883106433912986
133	0x3fe3422a24b0105f	0.6018267361219037
134	0xbfd4df36c0d0e3d3	-0.326123894020893
135	0x3fe7f869d6055652	0.7490739040465064
136	0x3fffae020579659c	1.9799823964916419
137	0xbfd4b721fce4c4bf	-0.32367753693240425
138	0xbfd967dce26c29cf	-0.39696428405355005
139	0xbfe5eb1e2bceb3b4	-0.6849509101499422
140	0x3fece95ea2f351a8	0.9034875090242638
141	0xbfc32a36dd573368	-0.14972577865264758
142	0x3ff98654c427f38e	1.5952956831308458
143	0x400543fd2f895c8f	2.658197757129137
144	0xbff8c1a0208e7d27	-1.5472718497984006
145	0xbfe8d5de512aa5dc	-0.7761069855961824
146	0x3ff04fb3ca2ec5f7	1.019458570266918
147	0x3fd0c3656636c60c	0.26192603093940714
148	0x3fdc8f5745e6d8ac	0.4462488348612037
149	0xbfe9a6c1200991a2	-0.8016057611208007
150	0xbff2091f5246d685	-1.1272271360334412
151	0x3febab89875d2a1d	0.86468960226313
152	0xbfd359923639c38f	-0.3023419885203617
153	0x3fd5064d2f8629f9	0.32850961342833745
154	0xbfa9f44750cc0bc7	-0.05069182263652965
155	0x3f9c960a52d0fc31	0.0279161084220016
156	0x3ff2bab1cdf66a34	1.1705797238743232
157	0xbff62e37a3209813	-1.3862835285340267
158	0xbfeb8dfa98e46a54	-0.8610814081360538
159	0xbfe5c191f938e5ad	-0.679879175913063
160	0x3fef318cce031fd9	0.9747985862422822
161	0xbfdc734c72f54d7a	-0.44453726984394104
162	0x3ff4e53b10a26ab7	1.305964531877789
163	0x3feef746f76d4bcd	0.9676852066571598
164	0xbfeed3540d03156e	-0.9632969144956129
165	0x3fcea14b3c228553	0.2392972987773115
166	0xbfefa49aaa1e0830	-0.9888432810405501
167	0x3fbe8926c2bcb9d0	0.11928026441885398
168	0x3ff801979a6e4843	1.5003887207463016
169	0x3fec823090b6c9ba	0.8908922983594529
170	0x3fee22f3fa4630ea	0.9417667282264379
171	0x3fefff16e42af418	0.9998888451006023
172	0x3fe47de600d4dac0	0.640368463157607
173	0x3fd6000e9bdd4cbf	0.34375348302019043
174	0x3fc14322ac4d29b0	0.13486131108431954
175	0x3fc0b64697c1e319	0.13056261453655152
176	0x4005328b3beb2371	2.6496796303876455
177	0x3ffab9c9dc27b3d1	1.6703585243042094
178	0x3ffb220f920e8b17	1.6958156304687628
179	0x40020fc904d4d526	2.257707631821762
180	0x40069f726658fa5d	2.8278549190429616
181	0x3fd6878468f8ee77	0.3520213151093467
182	0x4004cdd6bc6bb036	2.600507232700717
183	0xbfdfd2df190afa64	-0.49724557347864207
184	0xbfe1e68e02d5c5fe	-0.5593938880321614
185	0xbfd07a5c2ce22615	-0.257468265372695
186	0x3ff23fd4c276af82	1.1405837627634985
187	0xbfc8dd12e241f20f	-0.1942466358922421
188	0x3fe7fa5724d65fb1	0.7493091315727637
189	0x3ffb601e51561331	1.710966413230562
190	0x3fc34e5cbc2079eb	0.15082892595178463
191	0x3ff930676f07eb9a	1.5743173920770688
192	0xbffac6c15df89579	-1.6735242529624357
193	0xbff3deac34b825cb	-1.241863447127218
194	0xbfac8396cbbcd40f	-0.05569144475013143
195	0x3ffd5b33eb11b2fb	1.8347663099659133
196	0x3fd9f2605047ee67	0.4054184707635841
197	0x3fd118acd4f8b162	0.2671310500907308
198	0x3fea856106f800a0	0.8287816177471719
199	0xbff56b83c00948fa	-1.338748693601302
200	0xbff99c216a996ab7	-1.600617805865722
201	0xbff634b516950838	-1.3878680116763586
202	0x3fc94f07ce8cfc3e	0.19772431931957785
203	0xbfeb1f9146a246b6	-0.8476034526413148
204	0x400118c4f5a3ceab	2.1370944204916973
205	0x3ff985be8caff778	1.595152425346411
206	0x3fe7076050ef5627	0.7196504193077019
207	0xbfef6a7d1b9b00f0	-0.9817491091889945
208	0xbff029daba52ea10	-1.010218360736534
209	0xbff230fb4f156bcd	-1.1369584168630695
210	0x3feb3ce6a2b7a3e6	0.8511841943810594
211	0xbfa2f248fedfc6b1	-0.037004738915027764
212	0x3fc3ebb96c6379f1	0.15563123505030732
213	0x3f33fe2656631df0	0.00030506549809358654
214	0xbfddfa724e09b4db	-0.4684110414589903
215	0xbfd9f7174df78aa3	-0.4057062398334585
216	0xbff25452e5c8611a	-1.1455868698013263
217	0x3fd7a6d477b4f1f1	0.3695574921619303
218	0x3fca905154afa955	0.20752922663752807
219	0x3ffd5825456d22da	1.8340199195828775
220	0xbfef2f2b6f669650	-0.9745080161853341
221	0x3ffb30d06206368e	1.6994174794266743
222	0x3fced37907b7f5a7	0.24082863690266018
223	0xbfbd74dd0553aad9	-0.11506444339799361
224	0x3fa9be8901bef04a	0.05028179308234877
225	0xbff9a6409166a9a6	-1.603088920567282
226	0xbfd85abd13fb1df6	-0.38053824378263756
227	0xbfc2b7b2aa648315	-0.14623101539566422
228	0x3fe67874502b5a33	0.7022038999373933
229	0x3fe69ae7061e996b	0.706408988907055
230	0xbfd0670f3e0ad174	-0.25629025515379245
231	0x3fc20bacd4bdcc6d	0.14098129642261217
232	0x3fffebbdc3f6f82b	1.9950540213462868
233	0xbfd4b7f789ad69d6	-0.32372845120485516
234	0x3ff213905d0e25fd	1.1297763476344465
235	0xbfe87db9f126aab5	-0.7653474531155867
236	0xbff011107ced70dd	-1.004166114805279
237	0xbff77fe551ef5ca2	-1.4687245560251445
238	0xbff5f0529711fffa	-1.3711725140747135
239	0x3fd42879bfe957b7	0.3149704336295786
240	0xbfd141f9470e36f9	-0.269651717558062
241	0x3fd28ef19c05ae34	0.2899745963720506
242	0xbfe09a1bea779b63	-0.5188121394574917
243	0xbfb4dfd1453c239e	-0.08154018345170619
244	0x3fc6404c92fcfa48	0.1738372533527175
245	0xbffa2b3da248cc7a	-1.6355568255646902
246	0xbff4f8d57dad706c	-1.3107504758145536
247	0xbfe01848bdf6c6c0	-0.5029643736108582
248	0x3fee326fa1694d3f	0.9436567452016006
249	0x3fe81f1d72b175ef	0.7537982215978313
250	0xbfeb8dd67c86fb72	-0.8610641891644788
251	0x3fdb618f838b3a4f	0.42782962652282647
252	0x3fd1ba9977e381f1	0.2770141287601567
253	0x3fd1ea19ef39c638	0.2799134098232545
254	0xbfeafab2a43f8844	-0.8431027610752229
255	0x3ff6a107c75918d1	1.4143140589745153

weight f8 [64, 64]
0	0xc00118b20ecb5243	-2.1370583682821986
1	0xbf5c5b1b1ae3d824	-0.001730705709233068
2	0xbfe29c2de262aab1	-0.581564848097818
3	0x3fb967aee5936b0a	0.09923832993392182
4	0x3fbb01a3ce6631f9	0.10549377240221948
5	0xc009c0d4664cf660	-3.219155120109278
6	0xbfd918da6ee937a0	-0.3921419222941669
7	0x3ff948bf7ba21a1d	1.580260737364035
8	0xbf97eb6c3ed0966b	-0.02335900433913311
9	0x3fc3bb5a0cdd30c4	0.15415502193571318
10	0xc003c880f57e07c5	-2.472902219685212
11	0x3ff8092371354835	1.502231065959234
12	0xbff7b673d42fee4d	-1.4820440567554158
13	0x3fb8185722655eaf	0.09412140455003269
14	0xbff13ab9ca18bc5a	-1.076837338867128
15	0x3fdb14d882f39745	0.42314732349619916
16	0xbfe4f310a0538a60	-0.6546710139630925
17	0xbfbfa57fa160ba95	-0.12361905755890697
18	0xbfc342595988f84c	-0.1504623114760214
19	0x3fd3bf74e083c6d3	0.3085605804945832
20	0x3fcd4cb01eed9b0a	0.22890283117450166
21	0xbfdaf75b4491d63c	-0.4213474435449347
22	0xbfef37d8bee8b732	-0.9755672196094791
23	0xc001a1e89dafd991	-2.204056960991871
24	0x3fd816c79e19139d	0.3763903659749362
25	0xbff35dfc5a0831d2	-1.2104457394481085
26	0xbffd4e7a4fc9c07e	-1.831659614250412
27	0x3ff1a248062a33ed	1.1021194687666551
28	0xbfee6629b37e4616	-0.9499710565307307
29	0xc004202819cc766d	-2.5157014861604723
30	0x3feb20d121cbf9f2	0.8477559719174776
31	0x3feb41ceee25fb4d	0.8517832423529882
32	0xc000d5b22123af96	-2.104343661214396
33	0x3ffb5476b34f7cf9	1.7081210140530045
34	0xbf7a44a192801961	-0.006413108007114894
35	0xbfd420ed815ffb75	-0.3145097506930406
36	0x3ff8706331a54c3c	1.5274383487019483
37	0x3ffb26fa0ceec84c	1.6970158105073265
38	0x400238d0480412d2	2.277741015075983
39	0x3fee4d3ae03829ba	0.9469274882588288
40	0xbff94218732fd779	-1.5786365985381663
41	0x3fd729695af108a9	0.36190256005296334
42	0xbff1834aa639a9db	-1.094553613011718
43	0xbff3771862998115	-1.2165759898708235
44	0xbfdef2b31d256056	-0.4835632118824881
45	0xbf9f8304cc412b19	-0.030773234335622044
46	0xc000760a87e39631	-2.057637273438353
47	0x3fd90b585301ee9f	0.3913174448605136
48	0xbff6c7e5da7622f3	-1.4238031896258547
49	0xbfd96f86d05b737a	-0.3974320444811422
50	0x3ff96ab74edc0e1d	1.5885537224247692
51	0x3ff1b7a96e369113	1.1073393159104554
52	0xbfe88895fddbf9e2	-0.7666730840863318
53	0x3ffd802c4e7202a6	1.843792253901634
54	0x3fd331fe80ed362e	0.29992640104760226
55	0x3ff2a14f994d3aaa	1.164382551989244
56	0xbfd6de88c5fe331c	-0.35733241400957794
57	0x3fcff80c44f44cf4	0.24975732199582235
58	0xbfcd316b944286db	-0.22807068576098896
59	0xbfee354972489e99	-0.9440047485449724
60	0x40006d07decf112f	2.0532376677457687
61	0x3fea85f482cb4679	0.8288519434519933
62	0x3ff34e3cbdb6efb4	1.206600895950925
63	0x3fb9a77cc2bc4c3e	0.10021190408979039
64	0xbffd8f27d69ec917	-1.847450102196097
65	0x3fc0a03d86426737	0.12989014678606178
66	0xbff7c882124e2e81	-1.486452170854051
67	0x3febf57413b608a9	0.8737125763875798
68	0xbffd04677919e569	-1.8135752420915543
69	0xbff5c34287e6114a	-1.3601708706419964
70	0x4000cc63c804780d	2.0997996927608313
71	0x3fd569c3c571f749	0.33458036691432774
72	0xbfd4b9df944bdbfc	-0.32384480936110527
73	0xbfe6dfce484d09a1	-0.714820042813063
74	0xc00572de82f19950	-2.6810884695034147
75	0x4003fb0c7d2ef785	2.4975824146230843
76	0x3fc511a14735bb32	0.16460052468343062
77	0xbff2bbf325cf38e1	-1.1708861805851074
78	0xc0001a44ee87868b	-2.012826789389526
79	0x3fd0fd005a802c2e	0.26544197881657083
80	0xbfcbff665d65cc1e	-0.21873168526107717
81	0x3fe9c54fe8bf57e4	0.8053359552238786
82	0xbff8bf725104add3	-1.546739880063673
83	0xbfe01db7c424c5e1	-0.503627665608459
84	0x3ffbb8c954a5dd8d	1.7326138788756424
85	0xbfc9417b1c93d9d1	-0.1973108186281949
86	0x3ff97537285761ae	1.5911170554955834
87	0xc0005eaaa3ea4782	-2.0462239080306412
88	0x3ff00607050726d6	1.0014715382007373
89	0xc00e45e5c8ff2d73	-3.784129686629677
90	0x3fe84fd81962c55f	0.7597465987984541
91	0xc0010ad2b3725dd3	-2.1302846926953207
92	0xbfe7d9cf3976b3a0	-0.7453380701386898
93	0xbfedf69012bda9cf	-0.9363479963333762
94	0x3fed03b24c170933	0.9067012296803
95	0xbff6b8683ff8e22e	-1.4200212954439269
96	0xbfd15345066df625	-0.27070737483868107
97	0xbfea0d750c43d0f7	-0.8141427268551799
98	0x3fabafdbed76cb57	0.05407607339602432
99	0x3fefc02314570b5a	0.992204227186771
100	0xbff530c7e31b2db1	-1.3244093772253616
101	0x3fc7d69b678d3e1a	0.18623678737866173
102	0x3fbe6172f4befbcc	0.1186744544529425
103	0xbfe167433593e0de	-0.5438552900732494
104	0x3ff3e140a6e446f2	1.242493297501309
105	0x3ff0d0b8e3b18ccb	1.0509575742988086
106	0xbff254448bdf2382	-1.1455731834159626
107	0xbfe975079178f417	-0.7955358353862064
108	0x3ff7bacd269a583f	1.4831058032919058
109	0xbffec251722fa9f6	-1.922440954246324
110	0xbffee589b6b7167d	-1.9310395371734608
111	0x3fecd81ddebb3769	0.90138143064699
112	0xc00555a7250f2c41	-2.6668227095847503
113	0x3fed0f99eed6bd7a	0.9081544556446908
114	0x3feee02024461b6b	0.9648590763543842
115	0xbfe2a2fd8f0185d1	-0.582396296795361
116	0xbfeb13f195eabfc6	-0.8461845329347788
117	0x3ffe349831fc0e4a	1.8878404572032133
118	0x3fd7d0cc75f073a8	0.37211905972963644
119	0x3fe81431c47e120d	0.7524651372664849
120	0xbffafc68b215605b	-1.6866232830416468
121	0x3ff6a897ebf52b69	1.4161605088326843
122	0xc007a897b015cffa	-2.9573205715805644
123	0xbfe512b5a02ba412	-0.658533871491388
124	0x4004cf78f8462dba	2.601304950372392
125	0xbfe0d2045a89f739	-0.5256368416155289
126	0x3ff798a61debb838	1.4747677964001138
127	0xc0038da2fcd2dc09	-2.4441585304116455
128	0xbfa3284f0c8c3ccd	-0.03741690662547512
129	0x3fe9468aaad117c6	0.7898610435738582
130	0x3f6880dc7b979f7e	0.0029911333374350027
131	0xbfd6b191b1cd5025	-0.35458795894124
132	0x3fe1011b8f56b8ee	0.5313852119050162
133	0x3fdcf371a8f800ce	0.4523586416326112
134	0xbf90ecd84d608abb	-0.01652849170944635
135	0xbff1b7c653a22409	-1.1073668734482018
136	0x3fd79c37328c7e39	0.3689096444740901
137	0xbfd412571bbe2199	-0.3136194010662848
138	0x3fe62e907ecf571d	0.6931841351276692
139	0xbff19c847f84d7d4	-1.1007122975547547
140	0xbff2828366f74edd	-1.1568635961638656
141	0x3fd9d9d0208c966e	0.4039192502844803
142	0x3fb0ced1cb0fd6d1	0.06565581519665932
143	0xbfd4bbd321d59a29	-0.3239639120496656
144	0xbff9ff8840a6b173	-1.624885799926315
145	0xbff844bcc81881e0	-1.5167815986861726
146	0x4001dd0d2e8e6ba3	2.232935298653915
147	0xbfa7b0c6ae1c3b80	-0.04627056956643738
148	0x3fcd3129d00baf87	0.22806284578780042
149	0x3ff713d0fbfcda05	1.442337974860153
150	0xbfd44dd342caa977	-0.3172500755560103
151	0xbfeefd2f0270e52a	-0.9684062049556463
152	0xbfc110dea77a8248	-0.13332732370055767
153	0xbfe6208d7b2df6c1	-0.6914737134790913
154	0xbfdc69f56221bc56	-0.4439671953504719
155	0xbfdfe1a17ff40ea7	-0.4981464147133274
156	0xbfe7acb60eab030c	-0.7398329054341004
157	0xc0064daae74ac433	-2.7879236287776847
158	0x3ff43d570fbc00c0	1.2649756064056845
159	0xbff33bab7f283d41	-1.2020678488805319
160	0x3fc9ca9d513ba19b	0.2014958044667424
161	0x3fdbb22ad8a8a33d	0.4327494731719986
162	0xbfb84abd9f41d7f4	-0.09489045274844427
163	0x3fc48728f6b1cb91	0.16037475629454126
164	0xbfe832b8ea51b88d	-0.7561916901156721
165	0xbfd1a313c1658500	-0.27557844053633573
166	0xbff365a88a58a7ae	-1.2123189357903175
167	0x3ff412fc6638a6e7	1.2546352379817394
168	0x3fdb9604f25d5f7f	0.4310314528315686
169	0x4000c59a9dcec122	2.0964863136979526
170	0xbfe9a6da85bae22a	-0.8016178714670492
171	0x3fd313be9b000161	0.29808011185379796
172	0xbfe517c7ec63fc00	-0.6591529480937197
173	0x3f7314c712ea2677	0.004658486969341894
174	0x3f9f3ff24098f064	0.030517373268807893
175	0x3ff3d19e56cad47f	1.2386763944935237
176	0xbfddde8c39b8c5ca	-0.4667082370461598
177	0x3fdd1c79a9049563	0.4548629904332612
178	0xbff84ecd4b7ca9c6	-1.5192387531957237
179	0x3fa84bedc9358049	0.04745429116405881
180	0xbfb3b3d73f169534	-0.07696290292968372
181	0x4003d00ab2719654	2.4765829029954975
182	0xc002f55c91c7acc0	-2.369805468469707
183	0x3ffcfa87fa267ebf	1.811164834165467
184	0x3fc00a8bee7cd6f6	0.125321856926966
185	0xbfe9a43ed3c4e326	-0.8012994896044787
186	0xbfcb92f0f0ec6650	-0.21542178882445961
187	0xbff85b53f8503c8b	-1.5222968768828504
188	0x3fb2e736254bee1d	0.07384050760804724
189	0xbff19355ef57edf5	-1.0984706258158188
190	0x3fc608d8ec83450b	0.17214499996638497
191	0x3fe53bb463f8455d	0.6635381653342552
192	0x400ae100082824c4	3.3598633420229778
193	0xc000425542ad9739	-2.032389183924263
194	0xbff2128a397e74e1	-1.1295263524873962
195	0xbfd5b6d40c2fbc09	-0.33928395452579757
196	0xbff734c685aee9ba	-1.4503846380235772
197	0x3fc914247a6d6db2	0.19592720010665016
198	0x3ff6d250bd67b543	1.4263465307843297
199	0xbff280dd17ef6aec	-1.1564608511895882
200	0xbff6e6fcf9ec9626	-1.4313936007178056
201	0xbfdf36135be691e9	-0.48767551397966585
202	0xbfff21ed344bd018	-1.9457828562563062
203	0x3fd649ccbaf3233b	0.3482543779069151
204	0x3ff59789ebeb6457	1.3494967666249715
205	0x3fc7b535f7ae92ac	0.18521761506885548
206	0xc005ec2d3440ba2f	-2.7403205950024794
207	0xbff3733681e42ca8	-1.2156281541709095
208	0x3fcad0e98db068f8	0.20950049799359483
209	0x3fe9c0343bca9c65	0.8047124069024788
210	0xbfcc22d644a910c6	-0.2198131404167098
211	0x3fe098f243b5545e	0.5186702082088563
212	0xbfea291c9f434859	-0.8175185309030538
213	0xbfe852ea22d33ca5	-0.7601214103869053
214	0x400497eda2b5162a	2.5741837226403463
215	0xbfc498abfeb33a5c	-0.16090917526749393
216	0x3ff2982fa084f51c	1.1621547956741045
217	0xbfdbc466c7217941	-0.43386239477503713
218	0x3fdf4fb4dd48dec1	0.48923989877537727
219	0xbffceb000c7a6a49	-1.8073730933598589
220	0xbfe362b815dbb0f3	-0.6058006693761214
221	0xbfe055b230220d28	-0.5104609432313838
222	0x3fe76fba2d743e28	0.7323885810637352
223	0xbff3205256a032b9	-1.1953910240001007
224	0xbfdf3cb15435d6a2	-0.48807938789046024
225	0x3ff995d30fc59f16	1.5990782371608865
226	0xbfd5b3256e57e7d2	-0.3390592172214585
227	0x3fe3b253f9850449	0.6155185578755972
228	0xbfe580e6cc38609a	-0.6719850529361964
229	0x3ff7148e258934b1	1.4425183740852783
230	0x3ff1304008bd4749	1.0742798177129365
231	0x3fc946ec0a4d92cc	0.1974768686588021
232	0xbfe06f1e87417d2a	-0.5135643617358359
233	0xbfeb368dde373aad	-0.8504094448233751
234	0xbfc3f76114741167	-0.1559869146223136
235	0xbfa1c490dfd08a9b	-0.03470280391799926
236	0xbff7e511983a9eab	-1.4934249826855346
237	0x3facaad9372b4db7	0.055990970596805516
238	0x3ff219b0dd7eb171	1.1312721874374712
239	0xbfe824249958afef	-0.7544119830176877
240	0x3fcfc280ebf5e389	0.24812327882298416
241	0xbfe683c644d38124	-0.7035857528935918
242	0x3fe1117ac193b597	0.5333837300110414
243	0x3fd346938219122b	0.3011826296317703
244	0xbff7b3dc3efd9c64	-1.4814112148831322
245	0xbfe57972e98292a3	-0.6710753021948971
246	0x3ffa9d11f9839ad8	1.663347220100766
247	0x3ff6f6498fd4b88a	1.4351287477871062
248	0x3fd9b2d01833f97c	0.4015388714177772
249	0x3fc44b4a1846432d	0.15854765115047922
250	0xbfd814a34e70448d	-0.37625963840498217
251	0xbffb11a5cc73bb18	-1.6918085085305332
252	0xbfd02c7d510958d0	-0.25271542466852015
253	0x40034a42a796e8e8	2.4112599461487783
254	0x3fe9b38dd99aba2d	0.8031682252965929
255	0x3fb5cb795767597f	0.08513601669196723
