px915_reproducible/f/MACE_model_f5.model (torch, 961538 bytes, 78 tensors)

r_max f8 []
4.0
00000000: 0000 0000 0000 1040

weight f8 [32]
-0.8326580104681421 -1.6670401562092036 1.9031766756698663 0.1236407079067404 0.4839441044782954 -1.0277234795836176 -0.19412358290735146 0.388912814665746
0.009429693231418047 0.08095052610803617 0.7418418441996779 -0.06686629650242154 0.05223233609924057 -0.005805931736511165 2.196184438279647 -0.28371333274530647
-1.0994684191521173 -0.25098279723120587 -0.31139628784176354 1.2855117902212179 -1.6471381294645246 0.9525241985897764 0.9476919370484602 -0.04341053429141341
-0.4601964661670889 -0.4415041473979625 -0.5890354312118425 0.916435907222621 0.19483630990946868 0.3057435101749203 -0.34615078049532144 -0.24330667509122408
00000000: afd1 7669 22a5 eabf 9f98 804c 32ac fabf
00000010: 7531 c862 6973 fe3f c6ea e9dc eaa6 bf3f
00000020: dee1 74b1 f0f8 de3f 9249 e22c 8e71 f0bf
00000030: ed15 fca3 0ad9 c8bf 2205 ff92 f2e3 d83f
00000040: 3470 5200 e04f 833f d55e 3a76 2cb9 b43f
00000050: ce8a 741b 2bbd e73f ecba ae4c 261e b1bf
00000060: cb09 ae5e 32be aa3f 38e2 e5ee f5c7 77bf
00000070: 6629 9325 c991 0140 ef22 65f7 5b28 d2bf
00000080: 00e4 7332 6c97 f1bf 3edd 7d26 1a10 d0bf
00000090: 4813 18b2 eaed d3bf f0f5 99cf 7491 f43f
000000a0: 49b7 e082 ad5a fabf 33ef 3207 147b ee3f
000000b0: faca 890a 7e53 ee3f 72c1 2ad2 e739 a6bf
000000c0: e308 fbe0 db73 ddbf e2d8 879c 9a41 dcbf
000000d0: 13af 27d5 60d9 e2bf 05d7 4c65 7153 ed3f
000000e0: ed36 916d 65f0 c83f fa97 4a3a 4d91 d33f
000000f0: 0096 6d9a 5527 d6bf b928 3552 ac24 cfbf

output_mask f8 [16]
1.0 1.0 1.0 1.0 1.0 1.0 1.0 1.0
1.0 1.0 1.0 1.0 1.0 1.0 1.0 1.0
00000000: 0000 0000 0000 f03f 0000 0000 0000 f03f
00000010: 0000 0000 0000 f03f 0000 0000 0000 f03f
00000020: 0000 0000 0000 f03f 0000 0000 0000 f03f
00000030: 0000 0000 0000 f03f 0000 0000 0000 f03f
00000040: 0000 0000 0000 f03f 0000 0000 0000 f03f
00000050: 0000 0000 0000 f03f 0000 0000 0000 f03f
00000060: 0000 0000 0000 f03f 0000 0000 0000 f03f
00000070: 0000 0000 0000 f03f 0000 0000 0000 f03f

bessel_weights f8 [3]
0.7853981633974483 1.5707963267948966 2.356194490192345
00000000: 182d 4454 fb21 e93f 182d 4454 fb21 f93f
00000010: d221 337f 7cd9 0240

r_max f8 []
4.0
00000000: 0000 0000 0000 1040

prefactor f8 []
0.7071067811865476
00000000: cd3b 7f66 9ea0 e63f

p f8 []
4.0
00000000: 0000 0000 0000 1040

r_max f8 []
4.0
00000000: 0000 0000 0000 1040

atomic_energies f8 [2]
-13.67403805 -45245.39788497
00000000: ec04 ea83 1b59 2bc0 b742 79bb ac17 e6c0

weight f8 [256]
-1.1805614616019688 0.6460211517474069 -0.2070343840675465 -0.5047538514752786 -0.8280748290056232 -1.439502354445363 0.3294154397219364 0.27570272953984604
0.21022807645585834 -1.3529644480169785 1.547214123046911 1.3069389400547329 -0.344074693408108 -0.4522650459962621 -1.573909253213419 -1.694014418008206
0.0398924068299331 -0.8959960688220461 1.7711097314602462 0.05432872043451754 0.1496949894710011 2.021153864135121 0.4802130634851075 1.2187111715810959
-1.536430548874841 0.17846416045331034 0.29215792799614676 -0.8759969690996371 -1.4287850596219724 -0.371606345216269 -0.970337817979064 -0.5655411982536568
1.0905495184289145 0.5457657855961389 -2.192730406779939 -1.4846404166163112 0.8688838733539299 0.5329434891757239 0.6455426295078425 -0.5468175235193166
-1.8982886193256088 0.8860388655849347 0.43974019068633796 0.41206891235160764 0.20016522496523134 0.5996590379746222 1.4673503082829171 -0.6584249230104883
0.4337707858092386 -1.4578284284858123 0.9030506818691165 0.2509876103429635 -1.2301102241421962 -0.5837529957514694 0.9586049529236653 -1.9236001725950151
1.691058019701686 1.2233730591748713 0.3209818521835022 -0.7129121544975742 -0.4801871229280034 1.891907024861103 1.5500121630262194 -0.7390309962832569
-1.535178234031283 -0.17682797172843495 0.3463071144852675 -1.4756440010829452 -1.9906095297011828 0.5990182334564215 -0.017218989924869383 -0.2772982604908774
-0.16592860296561668 0.6442908978450121 0.801597964241948 0.5565178459767227 0.14026051100964293 -0.47106041580291025 -0.07629673769535868 -0.3456357292030108
1.0843555869268142 -2.101662138556849 1.7960416462392679 0.03959638665497239 0.3022740518953825 1.00012785372404 0.1453150423814966 -0.20149042749230342
-0.03842162836052866 -0.04591126489556228 -1.2099899925762747 -0.23361114027116256 -1.3760191689047225 0.04167200511559968 0.7468735388071168 -0.6876226898415924
1.204514575313694 0.7536813967642506 0.7600813589070134 0.8547913220672025 1.885582742448643 -0.49395592983086245 1.1027548523988715 0.1395896938314919
-2.5290015407533293 0.11950863949616768 -0.8167209565989885 1.3602553806141342 0.15279446062706062 -0.08389289919647774 0.30700590852471243 1.1679962405444033
-0.5406550787629549 -1.300524946295356 -0.7879841806073323 1.416817145524553 -1.1957537544104493 -0.11868048065876266 -1.068570584644449 -0.052119339605089736
-0.7851901258216001 0.7321871129101939 0.8645481736128688 0.21539503364890342 -0.3774817230300356 -0.3472281380255051 0.9494804653199876 0.4385869854670193
-2.6498965638275696 0.9665430974150648 1.3437344758189333 1.6136379660033648 -1.3628644937492052 -0.5620481853510205 0.26389741829227653 1.4876357502317104
0.6234708181368885 0.3427388496318349 0.38875312779216564 0.23232325444758548 1.0304895895996475 -0.7615216637213843 -0.18336863558443559 0.6420906028388077
-1.0526068622973257 0.7511865569508885 -0.2674462406743318 -0.5691189048137737 -0.4043007282015449 0.7183546086034956 -0.1980804399256384 0.40765302014748306
-0.3685869558004866 0.005300986618194869 -0.24390432053700312 -1.2327666916748585 0.17228901976271094 -0.31807425688559854 -0.12239919466935012 -0.2910696526576037
0.8290911798958229 0.1461328466944897 -2.3397578413079625 -0.31320896771127016 -0.7045971114670431 -0.05868820041788195 -1.4229780260613925 1.2733550802092681
0.20379633579453674 0.36849607239417875 -0.5203305926288435 1.7902879717120401 0.021963724834139626 -1.7172952979776615 0.2525599990750202 0.7608404546259004
-0.8003256912279834 -0.08002753402616684 -1.8227678175485036 -1.1440866137069805 1.44418472114255 -3.803843887445215 -2.439790176849192 -0.2505619028034769
-0.9655158939241023 -0.9091130239555989 1.5283915970233357 -0.007394146001700232 -0.9911858607107609 1.928516426875913 -1.0120292544973508 -0.4005155048275681
0.04515161086653426 -0.34763530833957906 0.45457626172188165 -1.8803033881405653 -1.9062118828636643 -0.26906523595303977 0.46521960630686865 -0.853652582680566
-0.27156262995643726 -0.524953554107678 -1.2039348432281132 -1.2256209622895724 0.38391497139125474 0.5236720016567539 0.1909545888266055 0.35652703667648883
-1.8325288955650936 -0.14796791515154273 0.01269140865807846 1.2558648252165372 0.4453849184528944 -1.4994365001745034 -1.1327355972900925 -0.7055012149058594
-0.07752603988853267 2.6717002980090565 -1.849062314633152 2.283553770979797 -0.7912003034568419 0.032054930660829345 -0.0855278019789439 1.1557553055796226
-0.8080770459607153 1.087414497343263 -0.7636144281081696 0.5435212667595236 -1.3898415133936557 0.7779345424873966 0.05134345669489677 -1.5738937448976433
-1.0550100922511603 1.5064612342757335 0.5253628152852251 0.0338875993713882 1.5627286312939743 -0.49711175795611035 1.0186370438286256 1.1841907312236912
-1.1732887023095968 0.3879859853266936 1.3884789789455745 -1.1361154491313818 -0.6472869821469219 0.9717697899803724 -0.2658866840724476 0.3873169210854603
-1.5283965493030989 -0.6764101009469338 -0.1259703718665471 0.8272937433155859 -0.4580868198550048 -2.420812002521675 -0.1788874513477253 0.46400889522426125
00000000: 83f9 476a 94e3 f2bf 91f0 e88c 34ac e43f
00000010: d5da 5b4a 1a80 cabf 3fb9 938c f126 e0bf
00000020: c809 a7c8 967f eabf b0b9 ed9e 3308 f7bf
00000030: a3cd 197f 2415 d53f 1da9 b20f 1da5 d13f
00000040: 5e19 8aec c0e8 ca3f 4923 8e0c bea5 f5bf
00000050: 3555 a698 63c1 f83f b676 56ce 38e9 f43f
00000060: 536b e4dc 5105 d6bf 6962 6b17 e9f1 dcbf
00000070: 51c6 1678 bb2e f9bf 74c3 c4dc ae1a fbbf
00000080: def6 620d c76c a43f 98ed 9df2 ffab ecbf
00000090: 50fc 6328 7756 fc3f 21e3 ff5a f9d0 ab3f
000000a0: f795 1396 3429 c33f ad27 95b7 522b 0040
000000b0: daf3 b192 cfbb de3f d45e 1349 d77f f33f
000000c0: 65e2 ff32 3895 f8bf 27d9 53e2 e9d7 c63f
000000d0: 3bad 802a b7b2 d23f b3b2 b5cb 2a08 ecbf
000000e0: bf6f 01b9 4ddc f6bf 5428 ecfa 65c8 d7bf
000000f0: ba58 49e5 010d efbf 9148 e1da e918 e2bf
00000100: bd21 450d e472 f13f 4228 0dcf e976 e13f
00000110: 5584 503d b68a 01c0 6dfd 3a4f 16c1 f7bf
00000120: 4076 828d e5cd eb3f 1407 1481 df0d e13f
00000130: f31e 3d04 49a8 e43f 47a5 8c76 877f e1bf
00000140: b1f5 25e3 635f febf f282 d52d 6e5a ec3f
00000150: 1a04 6f0a b424 dc3f 87e6 8f49 565f da3f
00000160: dbd5 829b 039f c93f 2542 9b26 6830 e33f
00000170: 409c 1d51 447a f73f 9571 e624 d111 e5bf
00000180: 99b2 c08a e6c2 db3f 0469 f8e6 4353 f7bf
00000190: 7344 288b cae5 ec3f 37f3 8756 2e10 d03f
000001a0: c8a7 f20e 88ae f3bf 113a 36c3 1aae e2bf
000001b0: 86e7 524b e4ac ee3f 3c02 7ef9 10c7 febf
000001c0: c21d a4da 920e fb3f ae6a ffa0 ef92 f33f
000001d0: a135 6f77 f78a d43f 899d 8f26 2dd0 e6bf
000001e0: 2be9 3bc5 62bb debf 179e ed4c 4045 fe3f
000001f0: ea98 c98d d9cc f83f 548a f854 24a6 e7bf
00000200: 5620 4b0d 1790 f8bf e2ba cb89 4ca2 c6bf
00000210: ca86 c550 e529 d63f 9409 53e2 3c9c f7bf
00000220: a5c2 d260 89d9 ffbf 91e5 4c49 282b e33f
00000230: 85ce 63da daa1 91bf c9f1 0234 41bf d1bf
00000240: 52a9 9a01 263d c5bf 8e5a ebf1 079e e43f
00000250: f2b2 1ec6 b0a6 e93f 4f88 8383 fece e13f
00000260: fa73 da71 0ef4 c13f 0613 1496 da25 debf
00000270: 1d6c 31d9 2e88 b3bf 0463 5052 e51e d6bf
00000280: 6c5e 713e 8559 f13f a4be 423d 34d0 00c0
00000290: 63a0 4d2a 96bc fc3f f81c 7243 fa45 a43f
000002a0: 1a7c d443 7558 d33f c803 7910 8600 f03f
000002b0: df9b 52ed ae99 c23f 1dac 4436 70ca c9bf
000002c0: 92fa 88ea ffab a3bf 4d26 7d6a ae81 a7bf
000002d0: 5ca3 6977 1e5c f3bf a313 b947 f8e6 cdbf
000002e0: 90d6 11ad 2c04 f6bf 84af 4276 0856 a53f
000002f0: 4e94 ed55 63e6 e73f 1b6e 9b4c 0101 e6bf
00000300: 3c71 4813 b145 f33f 0498 d672 281e e83f
00000310: 6cc1 5924 9652 e83f 16dd a554 735a eb3f
00000320: ab80 4bcf 582b fe3f 1c7c 1255 f99c dfbf
00000330: 74ef a845 e2a4 f13f 64b5 ee38 13de c13f
00000340: a48d e828 653b 04c0 fbb9 3942 1e98 be3f
00000350: 9f9d d1fc 9322 eabf bf21 5f25 9bc3 f53f
00000360: 919b b3d5 c48e c33f fc5d 6a4a 017a b5bf
00000370: ceb6 321c fca5 d33f 9bd3 6fd3 1cb0 f23f
00000380: 9480 36e1 0b4d e1bf 0888 ff3e f3ce f4bf
00000390: c729 af99 2a37 e9bf 5b0a 8774 48ab f63f
000003a0: 8b31 54b0 ce21 f3bf ae5a 1a0f d861 bebf
000003b0: 863f 2878 dd18 f1bf cf9a 2fd6 62af aabf
000003c0: fe77 f10a 4720 e9bf e90f 10ab 136e e73f
000003d0: 4e7b 6fee 60aa eb3f 0716 9f80 1092 cb3f
000003e0: 641c d019 a928 d8bf 6083 445e fc38 d6bf
000003f0: cbaf 57db 2462 ee3f 850d c225 cf11 dc3f
00000400: a460 3bf8 fc32 05c0 d64f 32ca ebed ee3f
00000410: 7d66 c2b8 ef7f f53f 3718 390b 76d1 f93f
00000420: d884 d8ff 4ace f5bf 1f7b db79 4cfc e1bf
00000430: 321b 44ff b1e3 d03f 9fb0 f924 5bcd f73f
00000440: cb10 bd12 79f3 e33f 7031 8fed 6eef d53f
00000450: a071 85cc 54e1 d83f f7f0 f9b5 c4bc cd3f
00000460: e42e e3a6 e27c f03f 951f 1cae 625e e8bf
00000470: e340 799a 9f78 c7bf 0f5f 8897 018c e43f
00000480: 87cb 114b 7ad7 f0bf a790 e963 b809 e83f
00000490: 039a 48d6 d61d d1bf 60bc 76d9 3836 e2bf
000004a0: c7f9 5729 10e0 d9bf ab40 dccd c2fc e63f
000004b0: c89c ba29 b35a c9bf 588a 69b1 fc16 da3f
000004c0: 644c 39be ed96 d7bf 663e 96c2 7cb6 753f
000004d0: aa9e 07bc 4138 cfbf 5477 0591 69b9 f3bf
000004e0: 689d ab0c 910d c63f 447b c120 545b d4bf
000004f0: 605e 29ba 8d55 bfbf 6f70 c19b e2a0 d2bf
00000500: 62bf e139 ea87 ea3f ad4c b62a 7bb4 c23f
00000510: 6cd1 87f5 d2b7 02c0 9890 48a0 9d0b d4bf
00000520: ae6c d33d 0f8c e6bf 446b e93a 610c aebf
00000530: dbc3 4d9b 84c4 f6bf b41b 9b93 a95f f43f
00000540: 211e a492 ff15 ca3f ebcb e88c 7095 d73f
00000550: b25f ce57 8ca6 e0bf 61ce 0e00 05a5 fc3f
00000560: d5a2 719f a87d 963f d537 66a2 0a7a fbbf
00000570: 2785 136a f129 d03f c8f1 c214 ce58 e83f
00000580: 0921 bf9f 449c e9bf 8b02 6c39 af7c b4bf
00000590: 6527 4996 0e2a fdbf 1a9b dac3 2d4e f2bf
000005a0: c80a 2b70 611b f73f 6955 3db4 456e 0ec0
000005b0: cd5a 55b6 b084 03c0 9486 8aca 3409 d0bf
000005c0: dd82 8596 81e5 eebf 0839 4832 7417 edbf
000005d0: 9c24 4bbf 4a74 f83f 357c 25f4 5249 7ebf
000005e0: 9e54 0069 cbb7 efbf 72b1 730a 34db fe3f
000005f0: 0695 6a96 4531 f0bf 179f b1c8 0ba2 d9bf
00000600: ab24 11a8 1c1e a73f 2f37 102a a83f d6bf
00000610: ed89 6808 c717 dd3f 93f2 6901 b915 febf
00000620: 1a56 0208 d87f febf 422a 3a65 5d38 d1bf
00000630: 9af1 a274 28c6 dd3f 7549 9838 1f51 ebbf
00000640: 2ba2 9e39 4861 d1bf 58f7 5965 6bcc e0bf
00000650: c7df a22e 5143 f3bf 5336 e5b9 249c f3bf
00000660: 667e a419 1092 d83f ad4a 1ec9 ebc1 e03f
00000670: d604 0431 3371 c83f 7994 aac6 56d1 d63f
00000680: 4ed5 b6d1 0952 fdbf 6872 37d6 9cf0 c2bf
00000690: 6b50 0309 f4fd 893f 4e07 08b7 0518 f43f
000006a0: 78c1 b8be 2f81 dc3f ded9 aa20 b1fd f7bf
000006b0: fd03 965c af1f f2bf c9e2 a948 7793 e6bf
000006c0: 1fde e81d bfd8 b3bf 7f4c e567 a45f 0540
000006d0: e2d8 995d c295 fdbf 2820 e8d6 b744 0240
000006e0: 51d6 7d4c 8351 e9bf 4445 bafd 8069 a03f
000006f0: d5f8 6568 26e5 b5bf 9649 7a46 f97d f23f
00000700: 0196 a164 c4db e9bf ca91 74be 0c66 f13f
00000710: 7e4e 6f86 876f e8bf 6534 2db6 8664 e13f
00000720: e261 6a74 ca3c f6bf d92f 4dfb d6e4 e83f
00000730: 4981 bc86 b049 aa3f f56d 1b35 ab2e f9bf
00000740: e6b2 3243 52e1 f0bf 437f 5e18 771a f83f
00000750: ade7 c5ad c5cf e03f 1283 1426 b759 a13f
00000760: 2ce3 bebc ef00 f93f 5b3a b8d5 add0 dfbf
00000770: 1ecf 5b5b 564c f03f 3350 edfa 71f2 f23f
00000780: d9f9 d25f cac5 f2bf 0035 922b c3d4 d83f
00000790: 5013 dcbb 3537 f63f 83fe a764 872d f2bf
000007a0: 7552 6e30 93b6 e4bf 8d9b 66f5 bc18 ef3f
000007b0: 6f1d 2295 4904 d1bf 3bf7 4fe9 ccc9 d83f
000007c0: 8c37 a9f0 4f74 f8bf 5509 c8cb 26a5 e5bf
000007d0: 8344 b711 cc1f c0bf 3f3a 77ba 3079 ea3f
000007e0: 7d60 8061 4b51 ddbf 48c2 e4ae d25d 03c0
000007f0: cb04 9ab4 c8e5 c6bf 8aa4 825d 52b2 dd3f

output_mask f8 [16]
1.0 1.0 1.0 1.0 1.0 1.0 1.0 1.0
1.0 1.0 1.0 1.0 1.0 1.0 1.0 1.0
00000000: 0000 0000 0000 f03f 0000 0000 0000 f03f
00000010: 0000 0000 0000 f03f 0000 0000 0000 f03f
00000020: 0000 0000 0000 f03f 0000 0000 0000 f03f
00000030: 0000 0000 0000 f03f 0000 0000 0000 f03f
00000040: 0000 0000 0000 f03f 0000 0000 0000 f03f
00000050: 0000 0000 0000 f03f 0000 0000 0000 f03f
00000060: 0000 0000 0000 f03f 0000 0000 0000 f03f
00000070: 0000 0000 0000 f03f 0000 0000 0000 f03f

output_mask f8 [256]
1.0 1.0 1.0 1.0 1.0 1.0 1.0 1.0
1.0 1.0 1.0 1.0 1.0 1.0 1.0 1.0
1.0 1.0 1.0 1.0 1.0 1.0 1.0 1.0
1.0 1.0 1.0 1.0 1.0 1.0 1.0 1.0
1.0 1.0 1.0 1.0 1.0 1.0 1.0 1.0
1.0 1.0 1.0 1.0 1.0 1.0 1.0 1.0
1.0 1.0 1.0 1.0 1.0 1.0 1.0 1.0
1.0 1.0 1.0 1.0 1.0 1.0 1.0 1.0
1.0 1.0 1.0 1.0 1.0 1.0 1.0 1.0
1.0 1.0 1.0 1.0 1.0 1.0 1.0 1.0
1.0 1.0 1.0 1.0 1.0 1.0 1.0 1.0
1.0 1.0 1.0 1.0 1.0 1.0 1.0 1.0
1.0 1.0 1.0 1.0 1.0 1.0 1.0 1.0
1.0 1.0 1.0 1.0 1.0 1.0 1.0 1.0
1.0 1.0 1.0 1.0 1.0 1.0 1.0 1.0
1.0 1.0 1.0 1.0 1.0 1.0 1.0 1.0
1.0 1.0 1.0 1.0 1.0 1.0 1.0 1.0
1.0 1.0 1.0 1.0 1.0 1.0 1.0 1.0
1.0 1.0 1.0 1.0 1.0 1.0 1.0 1.0
1.0 1.0 1.0 1.0 1.0 1.0 1.0 1.0
1.0 1.0 1.0 1.0 1.0 1.0 1.0 1.0
1.0 1.0 1.0 1.0 1.0 1.0 1.0 1.0
1.0 1.0 1.0 1.0 1.0 1.0 1.0 1.0
1.0 1.0 1.0 1.0 1.0 1.0 1.0 1.0
1.0 1.0 1.0 1.0 1.0 1.0 1.0 1.0
1.0 1.0 1.0 1.0 1.0 1.0 1.0 1.0
1.0 1.0 1.0 1.0 1.0 1.0 1.0 1.0
1.0 1.0 1.0 1.0 1.0 1.0 1.0 1.0
1.0 1.0 1.0 1.0 1.0 1.0 1.0 1.0
1.0 1.0 1.0 1.0 1.0 1.0 1.0 1.0
1.0 1.0 1.0 1.0 1.0 1.0 1.0 1.0
1.0 1.0 1.0 1.0 1.0 1.0 1.0 1.0
00000000: 0000 0000 0000 f03f 0000 0000 0000 f03f
00000010: 0000 0000 0000 f03f 0000 0000 0000 f03f
00000020: 0000 0000 0000 f03f 0000 0000 0000 f03f
00000030: 0000 0000 0000 f03f 0000 0000 0000 f03f
00000040: 0000 0000 0000 f03f 0000 0000 0000 f03f
00000050: 0000 0000 0000 f03f 0000 0000 0000 f03f
00000060: 0000 0000 0000 f03f 0000 0000 0000 f03f
00000070: 0000 0000 0000 f03f 0000 0000 0000 f03f
00000080: 0000 0000 0000 f03f 0000 0000 0000 f03f
00000090: 0000 0000 0000 f03f 0000 0000 0000 f03f
000000a0: 0000 0000 0000 f03f 0000 0000 0000 f03f
000000b0: 0000 0000 0000 f03f 0000 0000 0000 f03f
000000c0: 0000 0000 0000 f03f 0000 0000 0000 f03f
000000d0: 0000 0000 0000 f03f 0000 0000 0000 f03f
000000e0: 0000 0000 0000 f03f 0000 0000 0000 f03f
000000f0: 0000 0000 0000 f03f 0000 0000 0000 f03f
00000100: 0000 0000 0000 f03f 0000 0000 0000 f03f
00000110: 0000 0000 0000 f03f 0000 0000 0000 f03f
00000120: 0000 0000 0000 f03f 0000 0000 0000 f03f
00000130: 0000 0000 0000 f03f 0000 0000 0000 f03f
00000140: 0000 0000 0000 f03f 0000 0000 0000 f03f
00000150: 0000 0000 0000 f03f 0000 0000 0000 f03f
00000160: 0000 0000 0000 f03f 0000 0000 0000 f03f
00000170: 0000 0000 0000 f03f 0000 0000 0000 f03f
00000180: 0000 0000 0000 f03f 0000 0000 0000 f03f
00000190: 0000 0000 0000 f03f 0000 0000 0000 f03f
000001a0: 0000 0000 0000 f03f 0000 0000 0000 f03f
000001b0: 0000 0000 0000 f03f 0000 0000 0000 f03f
000001c0: 0000 0000 0000 f03f 0000 0000 0000 f03f
000001d0: 0000 0000 0000 f03f 0000 0000 0000 f03f
000001e0: 0000 0000 0000 f03f 0000 0000 0000 f03f
000001f0: 0000 0000 0000 f03f 0000 0000 0000 f03f
00000200: 0000 0000 0000 f03f 0000 0000 0000 f03f
00000210: 0000 0000 0000 f03f 0000 0000 0000 f03f
00000220: 0000 0000 0000 f03f 0000 0000 0000 f03f
00000230: 0000 0000 0000 f03f 0000 0000 0000 f03f
00000240: 0000 0000 0000 f03f 0000 0000 0000 f03f
00000250: 0000 0000 0000 f03f 0000 0000 0000 f03f
00000260: 0000 0000 0000 f03f 0000 0000 0000 f03f
00000270: 0000 0000 0000 f03f 0000 0000 0000 f03f
00000280: 0000 0000 0000 f03f 0000 0000 0000 f03f
00000290: 0000 0000 0000 f03f 0000 0000 0000 f03f
000002a0: 0000 0000 0000 f03f 0000 0000 0000 f03f
000002b0: 0000 0000 0000 f03f 0000 0000 0000 f03f
000002c0: 0000 0000 0000 f03f 0000 0000 0000 f03f
000002d0: 0000 0000 0000 f03f 0000 0000 0000 f03f
000002e0: 0000 0000 0000 f03f 0000 0000 0000 f03f
000002f0: 0000 0000 0000 f03f 0000 0000 0000 f03f
00000300: 0000 0000 0000 f03f 0000 0000 0000 f03f
00000310: 0000 0000 0000 f03f 0000 0000 0000 f03f
00000320: 0000 0000 0000 f03f 0000 0000 0000 f03f
00000330: 0000 0000 0000 f03f 0000 0000 0000 f03f
00000340: 0000 0000 0000 f03f 0000 0000 0000 f03f
00000350: 0000 0000 0000 f03f 0000 0000 0000 f03f
00000360: 0000 0000 0000 f03f 0000 0000 0000 f03f
00000370: 0000 0000 0000 f03f 0000 0000 0000 f03f
00000380: 0000 0000 0000 f03f 0000 0000 0000 f03f
00000390: 0000 0000 0000 f03f 0000 0000 0000 f03f
000003a0: 0000 0000 0000 f03f 0000 0000 0000 f03f
000003b0: 0000 0000 0000 f03f 0000 0000 0000 f03f
000003c0: 0000 0000 0000 f03f 0000 0000 0000 f03f
000003d0: 0000 0000 0000 f03f 0000 0000 0000 f03f
000003e0: 0000 0000 0000 f03f 0000 0000 0000 f03f
000003f0: 0000 0000 0000 f03f 0000 0000 0000 f03f
00000400: 0000 0000 0000 f03f 0000 0000 0000 f03f
00000410: 0000 0000 0000 f03f 0000 0000 0000 f03f
00000420: 0000 0000 0000 f03f 0000 0000 0000 f03f
00000430: 0000 0000 0000 f03f 0000 0000 0000 f03f
00000440: 0000 0000 0000 f03f 0000 0000 0000 f03f
00000450: 0000 0000 0000 f03f 0000 0000 0000 f03f
00000460: 0000 0000 0000 f03f 0000 0000 0000 f03f
00000470: 0000 0000 0000 f03f 0000 0000 0000 f03f
00000480: 0000 0000 0000 f03f 0000 0000 0000 f03f
00000490: 0000 0000 0000 f03f 0000 0000 0000 f03f
000004a0: 0000 0000 0000 f03f 0000 0000 0000 f03f
000004b0: 0000 0000 0000 f03f 0000 0000 0000 f03f
000004c0: 0000 0000 0000 f03f 0000 0000 0000 f03f
000004d0: 0000 0000 0000 f03f 0000 0000 0000 f03f
000004e0: 0000 0000 0000 f03f 0000 0000 0000 f03f
000004f0: 0000 0000 0000 f03f 0000 0000 0000 f03f
00000500: 0000 0000 0000 f03f 0000 0000 0000 f03f
00000510: 0000 0000 0000 f03f 0000 0000 0000 f03f
00000520: 0000 0000 0000 f03f 0000 0000 0000 f03f
00000530: 0000 0000 0000 f03f 0000 0000 0000 f03f
00000540: 0000 0000 0000 f03f 0000 0000 0000 f03f
00000550: 0000 0000 0000 f03f 0000 0000 0000 f03f
00000560: 0000 0000 0000 f03f 0000 0000 0000 f03f
00000570: 0000 0000 0000 f03f 0000 0000 0000 f03f
00000580: 0000 0000 0000 f03f 0000 0000 0000 f03f
00000590: 0000 0000 0000 f03f 0000 0000 0000 f03f
000005a0: 0000 0000 0000 f03f 0000 0000 0000 f03f
000005b0: 0000 0000 0000 f03f 0000 0000 0000 f03f
000005c0: 0000 0000 0000 f03f 0000 0000 0000 f03f
000005d0: 0000 0000 0000 f03f 0000 0000 0000 f03f
000005e0: 0000 0000 0000 f03f 0000 0000 0000 f03f
000005f0: 0000 0000 0000 f03f 0000 0000 0000 f03f
00000600: 0000 0000 0000 f03f 0000 0000 0000 f03f
00000610: 0000 0000 0000 f03f 0000 0000 0000 f03f
00000620: 0000 0000 0000 f03f 0000 0000 0000 f03f
00000630: 0000 0000 0000 f03f 0000 0000 0000 f03f
00000640: 0000 0000 0000 f03f 0000 0000 0000 f03f
00000650: 0000 0000 0000 f03f 0000 0000 0000 f03f
00000660: 0000 0000 0000 f03f 0000 0000 0000 f03f
00000670: 0000 0000 0000 f03f 0000 0000 0000 f03f
00000680: 0000 0000 0000 f03f 0000 0000 0000 f03f
00000690: 0000 0000 0000 f03f 0000 0000 0000 f03f
000006a0: 0000 0000 0000 f03f 0000 0000 0000 f03f
000006b0: 0000 0000 0000 f03f 0000 0000 0000 f03f
000006c0: 0000 0000 0000 f03f 0000 0000 0000 f03f
000006d0: 0000 0000 0000 f03f 0000 0000 0000 f03f
000006e0: 0000 0000 0000 f03f 0000 0000 0000 f03f
000006f0: 0000 0000 0000 f03f 0000 0000 0000 f03f
00000700: 0000 0000 0000 f03f 0000 0000 0000 f03f
00000710: 0000 0000 0000 f03f 0000 0000 0000 f03f
00000720: 0000 0000 0000 f03f 0000 0000 0000 f03f
00000730: 0000 0000 0000 f03f 0000 0000 0000 f03f
00000740: 0000 0000 0000 f03f 0000 0000 0000 f03f
00000750: 0000 0000 0000 f03f 0000 0000 0000 f03f
00000760: 0000 0000 0000 f03f 0000 0000 0000 f03f
00000770: 0000 0000 0000 f03f 0000 0000 0000 f03f
00000780: 0000 0000 0000 f03f 0000 0000 0000 f03f
00000790: 0000 0000 0000 f03f 0000 0000 0000 f03f
000007a0: 0000 0000 0000 f03f 0000 0000 0000 f03f
000007b0: 0000 0000 0000 f03f 0000 0000 0000 f03f
000007c0: 0000 0000 0000 f03f 0000 0000 0000 f03f
000007d0: 0000 0000 0000 f03f 0000 0000 0000 f03f
000007e0: 0000 0000 0000 f03f 0000 0000 0000 f03f
000007f0: 0000 0000 0000 f03f 0000 0000 0000 f03f

weight f8 [3, 64]
0.8722472608606626 0.11874974567561754 -0.8158233091359081 -1.0576102964281044 -1.9858351125382976 1.542474980707207 2.3930397078196277 -0.10472795111310962
0.9520692713703419 0.07290834615043382 0.09935849651324392 2.3224301388554642 -0.709114290069395 0.37252639845412755 0.29944828132534673 -1.4622672838660102
-0.6281047607717491 -0.3198411004796714 0.3894330312312671 -0.12424822493197807 0.5052161537559375 -2.1992773465486763 -0.12072804374706414 0.03313971246256531
0.32619360526427976 -1.784335216575877 1.4126294000799549 0.05111087186991383 0.9420046348262792 0.9957960953655406 0.3019488096661306 0.5547059038974723
-0.2811811465382193 -0.16105255268003218 -1.9634757433537613 -1.172168908822894 -0.7636852390453723 1.1907034237931147 0.3708703961720131 -0.08326472462305692
-3.1974558177465946 -1.4719384271246674 -0.8019543488337271 -0.8182144306907313 0.282278442393717 -0.5800827546399664 -1.667152147266603 -1.8647449824111244
-1.0142946775185837 -1.24834041564032 -2.081854612315509 0.790670739465642 -0.5863231591268973 -1.1862020258330286 0.2488634015966985 1.6441771915237755
0.7672569288717875 -0.1382958048996268 -0.10821784949928727 0.7723425995146105 -0.2369206292935088 -0.8294141509152355 1.1998127710836595 -1.1500532243289912
0.9084155952419037 0.2719062017634725 1.3226698668500723 -2.0445185883845935 0.5504591594383763 -1.8872232344036386 -0.8801892108430932 -0.949301759424208
-2.674419636869329 -0.09447672491950178 0.8827189320912785 0.448689856841853 -0.5039669388025779 0.18738663310315645 -1.1774962580024924 -0.3547935012362257
-2.24784160388385 -0.6310572847929168 0.5196043934766784 -0.6744942096105297 -0.5344012474147072 0.05352948183834388 -0.22197854114791057 -0.18457519342416445
-0.33883178344790743 0.4500006634095055 1.799869631968041 0.36986684926657626 0.127235800991563 -0.37887657105190925 -0.4340272413168217 -0.5003967213583581
-0.5904746334689662 -0.859343871687706 1.0201803743001527 -0.665724883192664 -2.0185726770331374 0.5361193228758205 -1.730445529747031 -0.18338393778020665
-0.3218140842852681 -1.192376394255299 1.1560822718935133 0.14211883933653674 0.8199640318228205 2.5137697399624286 1.657693227370434 -1.261967918182287
0.3022680705368158 -0.1635060323890066 1.88421454532829 -1.387351550931285 0.32375920052936485 1.2996286903010916 0.4965545442449867 -0.7597594137599916
0.06790434635101879 -0.5983604980818236 1.0814365722388477 -0.7016668645178274 1.0108725410967008 0.7419411477401756 0.033923072459072286 -2.1769553051679855
-2.978373511689465 1.2398139767921372 -0.591477437052153 -1.2149421140398131 0.3460306054617822 -1.3388804983912963 -0.38294503832079985 0.8471087649251522
-0.14837895929494543 1.0832086764227933 1.2617876262950756 -1.6539151924733566 0.7446212091028419 1.356716187355048 2.0442822927752626 0.8433667603879788
1.9746213794749257 1.0369635266445527 -0.5674107566317067 0.5191542273840108 0.19220539399434045 1.0477759037071943 0.2619364935859255 0.16907688148253613
0.0830324187702151 0.9809166029040756 -1.8906255715898437 -0.3010833943873384 0.5420274075278436 -0.09427725055327575 0.08659827551981494 0.20250989734861136
0.7828979738837212 2.2685535380519046 0.030289739939651204 2.268829941041919 2.4362537164002775 -1.0023171167881078 1.4395746226520716 0.1557348159464348
2.678238165178434 2.8153225629305436 -0.6035378076089348 0.3072701644923397 1.1218404722781223 1.6181084502770597 -0.6654452307567399 -0.849539910942315
0.22358308631030513 0.7272215930703178 -0.6048574392844503 0.7805142375761458 0.3406112212981389 -0.3806028480982363 -2.7683192174346054 -2.082294517819292
-2.323019822963407 0.5182764691645863 -0.8372607507520807 0.19787876722090675 -0.8214565924332098 -0.22068643388169984 -1.3288069201555597 2.375369225679659
00000000: 1082 6d16 73e9 eb3f c5c8 1522 6266 be3f
00000010: 01b4 017c 391b eabf 2b25 31c6 f8eb f0bf
00000020: 849b f909 fbc5 ffbf 2a92 d03e faad f83f
00000030: e6ea 9800 f224 0340 4005 0275 73cf babf
00000040: 47fd 01fa 5977 ee3f ce51 5212 1faa b23f
00000050: 21a7 1af5 8e6f b93f 1b08 ad40 5694 0240
00000060: 8a2d 9f73 10b1 e6bf 0775 90f6 78d7 d73f
00000070: 7cb0 c81f 292a d33f b771 2361 7265 f7bf
00000080: 0840 bf27 6f19 e4bf 8684 9ece 4678 d4bf
00000090: 45b5 4785 78ec d83f e03c ab4e bbce bfbf
000000a0: 775d 3911 bb2a e03f f014 b2b8 1e98 01c0
000000b0: f08b 9a77 08e8 bebf d07c 733a b0f7 a03f
000000c0: 0490 b124 5be0 d43f 25b6 8415 a38c fcbf
000000d0: 5462 2b49 219a f63f a37a 4d46 342b aa3f
000000e0: 1e4c 68e7 e624 ee3f 378b e2c5 8fdd ef3f
000000f0: 1a42 a519 2153 d33f 8d68 8498 26c0 e13f
00000100: 358a 2835 dffe d1bf e159 59bb 5e9d c4bf
00000110: 5f19 838a 656a ffbf 7284 8c2f 34c1 f2bf
00000120: fe68 c406 1c70 e8bf 95d3 8608 1f0d f33f
00000130: 4a41 a72f 57bc d73f 229e 2a45 d650 b5bf
00000140: 3203 3db7 6394 09c0 369e e34e 0f8d f7bf
00000150: d406 a42a 9ca9 e9bf 88d2 9d07 d02e eabf
00000160: f098 9c99 d910 d23f 37df 84b5 0990 e2bf
00000170: b475 dfba a7ac fabf be5f add5 fed5 fdbf
00000180: db2f 470e 8d3a f0bf 1b34 b7cc 33f9 f3bf
00000190: fd5f 1764 a3a7 00c0 1817 fdb8 2c4d e93f
000001a0: 35cc 2ac9 28c3 e2bf cb6d b6f9 aefa f2bf
000001b0: acba 8385 c1da cf3f a8c7 26be 8c4e fa3f
000001c0: 7b47 2467 5e8d e83f f1e3 9b4b adb3 c1bf
000001d0: 2961 713c 2ab4 bbbf d021 c7d3 07b7 e83f
000001e0: 2d1c 4849 6a53 cebf 4ea8 a08b 8f8a eabf
000001f0: 0b0a 52e0 6e32 f33f 1a70 b235 9e66 f2bf
00000200: f2b0 1795 bd11 ed3f 17d6 0945 e966 d13f
00000210: 6969 d8e0 a729 f53f 4668 c98f 2c5b 00c0
00000220: 8849 f286 5c9d e13f 513d 80fd 1032 febf
00000230: cb9e 5b90 822a ecbf 3764 5815 ae60 eebf
00000240: 5c12 611f 3665 05c0 d12f c36b a02f b8bf
00000250: f88b 1cc6 3b3f ec3f 09b1 4ba9 55b7 dc3f
00000260: 8783 0d46 7f20 e0bf 9a5b 7102 49fc c73f
00000270: 8287 f450 06d7 f2bf af25 29cd efb4 d6bf
00000280: 9227 fa60 94fb 01c0 02d2 020c 9f31 e4bf
00000290: 53e3 9a64 99a0 e03f 86cb 73e1 7495 e5bf
000002a0: 07cf 12a5 d019 e1bf a72a bc5b 3768 ab3f
000002b0: c370 52f7 ca69 ccbf c26f b4f1 28a0 c7bf
000002c0: 7243 3081 6baf d5bf 946a 2195 cfcc dc3f
000002d0: 55dc 6519 44cc fc3f 515e 5e01 e6ab d73f
000002e0: eece 1142 4349 c03f 57de 7884 833f d8bf
000002f0: aad8 c131 1ac7 dbbf 0f50 28fc 3f03 e0bf
00000300: cdbc fb0e 2be5 e2bf c055 1db8 be7f ebbf
00000310: 3d3e faa7 a852 f03f e944 2e45 9e4d e5bf
00000320: e7a6 836e 0926 00c0 882b d0b5 e327 e13f
00000330: c55d dca6 e7af fbbf 0758 b0f7 1f79 c7bf
00000340: 3b6f d919 9a98 d4bf 2495 1d45 f913 f3bf
00000350: cf49 d41f 507f f23f 9246 8c3b f330 c23f
00000360: 0069 9235 253d ea3f 2381 364f 331c 0440
00000370: 11b5 6555 e985 fa3f 241b 9345 0531 f4bf
00000380: 4a29 652d 5c58 d33f b39d e702 c4ed c4bf
00000390: fb51 ad26 be25 fe3f 3fe0 348a 9732 f6bf
000003a0: e55f 8382 78b8 d43f 8295 1c74 47cb f43f
000003b0: 0298 0db6 8cc7 df3f 69ac 5df9 f24f e8bf
000003c0: 5579 d5e2 2d62 b13f ba59 4fea c425 e3bf
000003d0: 556d 676f 904d f13f 504f 7911 0e74 e6bf
000003e0: b8f4 86af 882c f03f 6a39 a35c fbbd e73f
000003f0: 8946 956d 5d5e a13f ce66 048b 676a 01c0
00000400: d7d4 df7d b5d3 07c0 8a22 372e 47d6 f33f
00000410: a9bf 0e17 62ed e2bf 7958 6524 6770 f3bf
00000420: 56e6 778d 5d25 d63f 1a7c 1df5 0d6c f5bf
00000430: 1a36 f0e7 2b82 d8bf 7945 30d7 831b eb3f
00000440: 120c cbec 14fe c2bf 64ab ff9e d254 f13f
00000450: 05f5 d638 4830 f43f 637d e0c6 6f76 fabf
00000460: 5e26 a0db efd3 e73f c24c 6a08 1cb5 f53f
00000470: dc17 baac b05a 0040 77cb cc49 dcfc ea3f
00000480: 423c 6d96 0c98 ff3f b354 2111 6797 f03f
00000490: ab37 649a 3a28 e2bf 2239 8653 e99c e03f
000004a0: b805 a9b4 2f9a c83f 1159 7faa b0c3 f03f
000004b0: 5226 6548 91c3 d03f 9a13 3dae 4fa4 c53f
000004c0: bb37 20d3 9c41 b53f 0f72 3237 ab63 ef3f
000004d0: df5a 6f99 0040 febf 55c9 1049 f344 d3bf
000004e0: a1c4 9bdc 4958 e13f f913 e2cb 8d22 b8bf
000004f0: e262 3ff9 4d2b b63f dc42 1d25 d8eb c93f
00000500: 86ed 3d0d 800d e93f a143 b965 ff25 0240
00000510: 99d4 c709 4604 9f3f 69af e74f 9026 0240
00000520: ca94 a596 727d 0340 0837 4dac 7d09 f0bf
00000530: 3413 4766 7f08 f73f 8454 ab52 1eef c33f
00000540: 2eb9 9221 086d 0540 19d2 fbd5 c785 0640
00000550: aa8e 3285 2e50 e3bf 30fe e17a 50aa d33f
00000560: 3d38 bcfe 0ef3 f13f b123 b5af c5e3 f93f
00000570: cf23 eccb 534b e5bf 9c9b c452 6e2f ebbf
00000580: dd1c d2dd 5e9e cc3f 3bd3 e537 6645 e73f
00000590: 3602 0ffd fd5a e3bf 2276 8efe f8f9 e83f
000005a0: 7012 0802 93cc d53f 1a2b 560c cc5b d8bf
000005b0: d828 be8b 8425 06c0 3f64 3507 8aa8 00c0
000005c0: 4ab3 bc6a 8b95 02c0 de24 ab88 b895 e03f
000005d0: 098c d60e d7ca eabf 06af e468 1754 c93f
000005e0: 12b2 f255 5f49 eabf 98ac 18fc 733f ccbf
000005f0: 0b44 8c0b cb42 f5bf 78c0 a194 c100 0340

weight f8 [64, 64]
-0.06756936086521172 -0.4762027451244362 0.4751614727283947 1.2536868096471092 -1.5006498015278982 -2.7374282801554837 0.19592613865464023 0.37146067319445175
0.4740966723467458 0.3807528181157484 2.045238643229749 -0.43536401756421983 1.2353792175634644 -0.3668545998449772 0.4048985466963028 -0.5886040337300464
1.2745247910029636 1.5288822609083543 0.872245154806356 1.6961772257973704 -0.821403532819699 -0.3212315953666161 2.205137900997514 -0.6092655663240609
0.43437697867296293 -1.5309753629810419 0.46100976685993733 0.20064251584638107 -0.35865600385150853 0.49660619307394543 -0.9326132708937422 -1.3842245264912174
-1.2932444635240723 0.21823612557684813 -0.35188930255179957 -0.16390575295538254 0.8716338083530393 1.442102058430563 1.0475713357482181 -2.56906238202337
-0.0014719161737288989 0.0270300941770927 -1.4326335118545164 0.7850557132693086 -1.3199619884414646 1.0198440430207545 -0.7633614879524546 -1.1068348325178727
1.012809801284709 3.1456194668999595 -1.5822870014791806 -0.32164867540879544 0.7219186405615129 1.0161052719246049 -1.711189779513401 -0.16634115486760861
0.18175369697358987 1.8389711887037707 2.764227174418271 0.5384231065753524 -2.215406138189272 0.7702928133753004 -0.7744856483444587 -0.9961333496568688
-2.1952582936022997 -0.8051955205541704 0.8854154256790167 0.30549109152406745 1.3592746885886189 -1.1062831214046716 -0.9723952501769537 0.9473783092091076
-0.1245627130427064 -0.44850158307472016 0.10006895705086712 2.2509207829528948 1.1604174755595558 -0.6179722815653004 -1.0196471881081397 -0.5219505224361688
-0.9903615667730417 -0.31189557351839375 0.6005876036944557 -0.4488923798859347 -0.13645743609613054 0.2810526589454178 1.0265843425531365 1.8543076269954648
0.27287603175906755 -1.7586395081890476 -0.32492256926952795 1.1212664002918435 0.9674058114352156 1.7760938043797132 -1.8080617309459774 0.6702074840845093
1.654040282336655 1.500016344411655 -0.8986402708233676 1.3580356703067953 0.7695092453148191 0.62518787488207 -0.3776325112867938 0.08025665725132763
-0.6191682170605801 0.6574484627931848 -1.0531376597428175 1.1645046235626642 -1.7934759968107767 -0.13901017291100773 -0.6505958692238153 0.15352898514282615
0.9300793099549728 -0.22725930486355198 -0.4644613297425428 -0.882871996724702 -1.0064161043676394 0.02165630520839307 -0.05439042140703729 0.9544065341770728
-0.06015445001072358 1.2005293046402705 2.3521930565204565 0.515610981880453 0.6067918672536073 0.5593684465787218 1.5701885053008893 1.760895775259836
-0.5169946828963218 1.336666940808509 1.4201866858200636 0.1658247464645809 1.2091971880379926 0.06839521703650589 1.9349173978158782 0.38621987652639794
-0.031967740863537486 -0.004426767133680192 -0.5456562245406477 1.551669442749594 1.5192820340349362 1.4679349594114095 -1.2914279815586927 1.3767592962855695
-1.7888338081021213 -0.07745269105018615 -1.8861459812088766 -0.5128743046867588 1.603906809967764 2.2830898526647236 -1.0588077795269226 0.48335892212145803
1.1350453585660438 -0.06227063374442325 -1.9243923724231864 -0.5766862154116098 0.1664667987204862 -0.8916186926942892 0.9923349186934505 -0.9177809661638177
-2.0731408356920618 0.19889414055670607 0.665245010372283 2.101341917995346 -2.167796244851992 1.381735039665185 -0.42351305641398607 -0.5023000082053874
0.0841497799672217 0.22112777039373246 -1.3273926628813626 -1.1911790673314742 1.2028505660041295 -0.8463956485306163 0.28152836030229544 -0.35569317112222393
1.7497456066323922 -0.27339128226942816 0.07232416383668529 0.14990555690196883 0.1235216453029487 -2.142675744029375 -1.4786330852737537 -0.9903693214864259
0.30283258421058645 -0.6184849744895434 -0.1008498034097725 -1.072509141541687 1.5815301397876975 -0.7302390138413025 -1.2883415185412994 1.872536044824746
-0.26556207087667716 -0.062207306079743264 1.303140987850898 0.6565396086953726 -1.4065627936775538 0.39530986909925636 -0.9125548089667688 0.188608776712709
0.5228491441752571 -0.4473159758970295 1.117529691093107 -0.3472724072375374 -1.1386986485323771 1.9967438359020657 -0.104294277632989 -1.8063978617606224
0.6741675385012522 -1.2333989839734871 -0.589984541787842 1.2626154755921488 -0.056098417174518106 0.4463644930327722 1.29188626287265 0.11414286435285431
-0.3146562777108973 -0.8472517594475792 0.8076107044336798 0.4825946772470388 1.9982814442081587 -0.838176639914749 0.7005300835489158 0.8569534621978442
0.5487525152273137 2.6323430973692576 -0.13779470701560587 -1.4242546779898853 -0.37296797106825436 -0.17927196466697173 1.2901292721316457 -0.8545064694154878
-0.5303786833705797 0.4049005320996704 0.49990465822617147 2.7853420199273358 0.16250310741094615 0.4039149364514809 2.0029285696795767 -0.7482553833165357
-0.9495853696298324 -1.721883773233563 -0.4693590602160477 -0.6827095880066791 -0.057464254486009905 -0.2621275374967382 -1.2999166160713997 -0.6383243448147964
-0.07690536482392374 1.2654715932826277 0.3365214723557717 -0.4157508263647803 -1.0207024123595017 0.6016298780174254 1.3456135823376933 0.45434347646629936
00000000: 61b1 20c3 394c b1bf c9ca 2414 1b7a debf
00000010: 7a02 6caa 0b69 de3f 4bc6 6de6 190f f43f
00000020: bbfa c45d a902 f8bf 7f4e 53cc 40e6 05c0
00000030: cf03 fa92 1b14 c93f 3ab3 c7fc 02c6 d73f
00000040: f2c9 b791 9957 de3f bbaf 6a11 415e d83f
00000050: 5a7f e913 a65c 0040 9ac8 520a 01dd dbbf
00000060: 897d 99ff 1cc4 f33f 7f2a 2eb7 8b7a d7bf
00000070: 138c 1098 dbe9 d93f 6041 6520 d8d5 e2bf
00000080: 8ec8 741b 7464 f43f 2293 e03e 4d76 f83f
00000090: b39b bfab 6ee9 eb3f bf50 10bb 8a23 fb3f
000000a0: 6bf1 c80f f048 eabf 49a8 22f7 0e8f d4bf
000000b0: a1a2 ff56 1fa4 0140 b61a 3e80 1a7f e3bf
000000c0: 5748 6219 d5cc db3f cec3 af05 e07e f8bf
000000d0: 7433 f31b 2f81 dd3f c5a9 df69 a7ae c93f
000000e0: 149a c34f 38f4 d6bf 1598 8f57 65c8 df3f
000000f0: 1abc 49c9 f7d7 edbf 249d f99d c825 f6bf
00000100: 711a 491b 21b1 f4bf 9043 144f 29ef cb3f
00000110: 316c 91b5 5a85 d6bf 6be9 481c ddfa c4bf
00000120: 04db 9e95 6ce4 eb3f bd41 a79b d912 f73f
00000130: 0840 3429 dac2 f03f d464 0194 708d 04c0
00000140: 4d18 08f5 a91d 58bf 0660 fee9 c6ad 9b3f
00000150: b519 091e 11ec f6bf c2f2 c028 2d1f e93f
00000160: 871b 4576 901e f5bf 82b6 bcfc 4751 f03f
00000170: 9c03 3912 756d e8bf 71ce fb70 98b5 f1bf
00000180: 9a60 d90c 7834 f03f 62f8 ff89 3a2a 0940
00000190: e1d2 c32c 0c51 f9bf 03ae 6b53 e495 d4bf
000001a0: 09b4 f21e f519 e73f 8f59 039a f741 f03f
000001b0: f226 c488 0861 fbbf e14f 11be aa4a c5bf
000001c0: 6bde 3684 b443 c73f 944d 9c0d 6d6c fd3f
000001d0: 4aba 0623 231d 0640 0cdc 4418 c33a e13f
000001e0: 6d0b 77da 26b9 01c0 cc4d 391d 3da6 e83f
000001f0: ba8b 5b20 96c8 e8bf dd65 e70b 53e0 efbf
00000200: 6e5b 8a94 e38f 01c0 b54e 7565 29c4 e9bf
00000210: 194a 15bb 5255 ec3f 712c d481 2a8d d33f
00000220: 9b4c dcd0 96bf f53f 3ccc 28ee 55b3 f1bf
00000230: d276 c9a4 dc1d efbf c7c5 df50 ec50 ee3f
00000240: e9c7 d18a 57e3 bfbf 4da6 e0fb 3fb4 dcbf
00000250: 75d8 e081 1e9e b93f ed5a 65c1 e201 0240
00000260: 43c3 33ea 1191 f23f fc09 65ce 6dc6 e3bf
00000270: 0820 e691 7950 f0bf 6bca ff94 d1b3 e0bf
00000280: 562d 90bd 0ab1 efbf a5d5 01da 18f6 d3bf
00000290: b405 887e 0338 e33f 1b28 c21a a7ba dcbf
000002a0: 1619 aaf0 6f77 c1bf 5bf6 a74a c4fc d13f
000002b0: 439f 1db4 e36c f03f c4b3 6a79 3eab fd3f
000002c0: f11d 1108 cd76 d13f fb01 522e 6323 fcbf
000002d0: b9ac 2f08 88cb d4bf bcb6 7509 b5f0 f13f
000002e0: 1363 4208 fdf4 ee3f 8306 4756 e16a fc3f
000002f0: 76fe 3823 d2ed fcbf 53ad 35f7 5672 e53f
00000300: cd70 6ef1 f276 fa3f 9f6a 6b23 1100 f83f
00000310: 20c2 c13d a9c1 ecbf 554e 6c9c 83ba f53f
00000320: e618 53da d19f e83f e52c 8f00 8a01 e43f
00000330: 3585 788d 212b d8bf 8c44 2e46 b38b b43f
00000340: 26ee 5fdd 39d0 e3bf 0912 d05b d109 e53f
00000350: 8580 ecdf a6d9 f0bf 02e1 a399 cfa1 f23f
00000360: 9f69 07e3 13b2 fcbf 1567 3bd9 15cb c1bf
00000370: cd53 a76d aed1 e4bf d297 1679 d6a6 c33f
00000380: df2b 5eaf 35c3 ed3f 15e2 0c39 d516 cdbf
00000390: a30e 6003 bcb9 ddbf fb93 0fc6 7c40 ecbf
000003a0: e7d3 e6c5 471a f0bf 312d 7d0a 122d 963f
000003b0: 2c59 51b2 0fd9 abbf af22 6c92 7f8a ee3f
000003c0: 7b85 0267 90cc aebf 031d 5537 5e35 f33f
000003d0: b211 dd97 4ad1 0240 df51 149a e27f e03f
000003e0: 13a8 2ac7 d66a e33f b109 0fa8 58e6 e13f
000003f0: b928 6dfb 7d1f f93f 2e7d 660c a12c fc3f
00000400: e5db e76e 388b e0bf aeab c6df fc62 f53f
00000410: 22fd 9cac 15b9 f63f 2c68 77cb be39 c53f
00000420: 0b9d 9026 df58 f33f c2e6 5f54 5982 b13f
00000430: 374a 01f2 6bf5 fe3f 13bf af92 d3b7 d83f
00000440: 0061 1263 135e a0bf 1202 0f41 cd21 72bf
00000450: 6959 e80a 0476 e1bf 29fe 6c56 a3d3 f83f
00000460: 5c49 99ad fa4e f83f c43b 355e a97c f73f
00000470: 28f1 1e63 b0a9 f4bf fd2a 80c1 3407 f63f
00000480: ab71 fc32 109f fcbf c838 0c87 f0d3 b3bf
00000490: 1f62 8c68 a72d febf ead3 b25f 7769 e0bf
000004a0: af4a ea2f 9aa9 f93f 1132 d89c c443 0240
000004b0: 9f18 1d6d e0f0 f0bf 4c74 af42 5aef de3f
000004c0: b648 6852 2529 f23f a6f2 ddbe efe1 afbf
000004d0: c7ab 03a8 4fca febf 67e6 67a6 3674 e2bf
000004e0: 28e9 2fb8 c84e c53f d3f9 b3ec 2388 ecbf
000004f0: 36f3 ce28 35c1 ef3f 7e13 5230 765e edbf
00000500: 6865 cadc ca95 00c0 644e 87fa 5c75 c93f
00000510: 4f09 6ce7 af49 e53f 0a08 fc59 8ccf 0040
00000520: 503f c08e a557 01c0 7596 7133 961b f63f
00000530: 5e88 ae81 d61a dbbf b8b9 8077 d712 e0bf
00000540: 8ec0 ec08 d78a b53f 910b 0a2f ea4d cc3f
00000550: b369 c016 003d f5bf 3ae5 1dc8 110f f3bf
00000560: bc67 2f3c e03e f33f 7a4d bd53 ac15 ebbf
00000570: 7245 1987 8f04 d23f d759 584a adc3 d6bf
00000580: 94e4 cc3f f5fe fb3f ebf4 1626 3e7f d1bf
00000590: a99c 631e d683 b23f ccf9 30f4 1a30 c33f
000005a0: 659d ec52 1d9f bf3f 1f4f 342e 3324 01c0
000005b0: b48c 802a 7ba8 f7bf 7dde d700 1bb1 efbf
000005c0: a63f 56eb 9b61 d33f ddff 4f00 a1ca e3bf
000005d0: f3f7 73ef 4ad1 b9bf 4052 7958 ff28 f1bf
000005e0: 6b6c 408c f24d f93f 21c6 5635 1e5e e7bf
000005f0: f76b 03ff 0b9d f4bf d4a7 115b e8f5 fd3f
00000600: 924b 5e0e f8fe d0bf c598 5ed2 a2d9 afbf
00000610: 0c59 4e5d aad9 f43f 2702 7c5a 5f02 e53f
00000620: 0bd9 e9fc 4781 f6bf 6a4f e4c3 c14c d93f
00000630: cc3b 8a24 a633 edbf 8b1d dc17 5524 c83f
00000640: 9d2d df20 2ebb e03f 2f30 dd2f d3a0 dcbf
00000650: aedc 38d0 66e1 f13f d2db f80b b639 d6bf
00000660: a522 f712 1c38 f2bf fe05 1baa a9f2 ff3f
00000670: 45f8 979f 07b3 babf 2038 bd71 01e7 fcbf
00000680: 0868 3ccd c792 e53f 415f b192 00bc f3bf
00000690: 7cfa 0343 27e1 e2bf df77 f148 ac33 f43f
000006a0: 4c6c 3e86 eeb8 acbf d5f7 ea60 3c91 dc3f
000006b0: f908 13ee 90ab f43f 3c9f 777d 7738 bd3f
000006c0: 22f6 8f15 5423 d4bf 36c9 c9b8 af1c ebbf
000006d0: 5026 6e67 f2d7 e93f 33fb ffc8 d4e2 de3f
000006e0: 383e b1f6 f5f8 ff3f 7c8f 16d1 57d2 eabf
000006f0: 9f9d d610 be6a e63f c7ad caaa 296c eb3f
00000700: 41f8 4f6f 618f e13f 1f6b d8e5 090f 0540
00000710: aad2 18c8 41a3 c1bf dd43 f245 bfc9 f6bf
00000720: 6164 8c0d b5de d7bf b5ca aa3c 62f2 c6bf
00000730: e9ae 7697 5ea4 f43f aa84 8bf3 1d58 ebbf
00000740: 4a4f 72b7 dcf8 e0bf bd11 e0eb e3e9 d93f
00000750: 04c4 8c1b 70fe df3f 9319 9e65 6148 0640
00000760: a608 eadd e6cc c43f ac33 9b08 bed9 d93f
00000770: 93fb f769 ff05 0040 9cd0 0c46 b5f1 e7bf
00000780: 183f 6adb 0063 eebf dad1 d8ff d58c fbbf
00000790: da63 6d95 fa09 debf 32f0 24c7 c1d8 e5bf
000007a0: b2b1 696b f46b adbf 007d 3b94 b2c6 d0bf
000007b0: c0db 985d 75cc f4bf b20b 272d 276d e4bf
000007c0: 7042 ceea 11b0 b3bf 86a7 3224 5f3f f43f
000007d0: 20de 8a5b 9189 d53f a163 a15a a99b dabf
000007e0: 9284 800d cc54 f0bf b433 4c4d 8d40 e33f
000007f0: ca19 931b a287 f53f 86b7 24a9 f613 dd3f
