px915_reproducible/f/MACE_model_f1.model (torch, 961474 bytes, 78 tensors)

r_max f8 []
4.0
00000000: 0000 0000 0000 1040

weight f8 [32]
-0.19642807364767087 -0.116410131679993 2.096298011159944 0.35644406742982754 0.17393305918387741 -1.406564573124521 0.01646808400507919 -0.6796560913477234
0.6658531935929003 0.32624928843818873 0.09731989749853598 -0.1358439833489256 -0.719916902169671 -0.10058358940792593 -0.7263277917466943 2.100311206231201
-1.2616189833943294 0.23754717761001287 -0.7549001180170647 0.2699898888292521 -2.9114844234917525 0.3460611195244067 -0.0335094131523087 0.9254633854213168
-0.01174898581087938 0.3795458906379885 -1.809573409321921 -0.002971338319700007 0.2375462782875018 0.49125754857559145 -0.10754403149111467 0.9567499888936295
00000000: 97a0 2a1c 8e24 c9bf 6e16 7dec 0dcd bdbf
00000010: 7ed0 44e4 37c5 0040 8db7 1dc7 facf d63f
00000020: 86a9 7140 7043 c63f 2683 94da 4981 f6bf
00000030: 2b1b eb68 02dd 903f 7eb3 9b21 bebf e5bf
00000040: b165 4d5b ab4e e53f d1db 0bb2 44e1 d43f
00000050: d89b 01f1 f4e9 b83f cac6 ebec 5563 c1bf
00000060: f800 d52b 8f09 e7bf 2376 059b d8bf b9bf
00000070: 5f4b f7c7 133e e7bf 897b 31f6 6fcd 0040
00000080: 0610 1b63 972f f4bf 38ca 8b27 f267 ce3f
00000090: 9827 d44a 2428 e8bf 966d b1ab 8347 d13f
000000a0: 16af 6d58 b84a 07c0 fb90 b189 dd25 d63f
000000b0: afd3 3153 2528 a1bf c0f5 c063 659d ed3f
000000c0: cf18 8d2e da0f 88bf 40c4 e7d8 7a4a d83f
000000d0: 61fb 4b3f 03f4 fcbf 4121 121d 5957 68bf
000000e0: ca02 449c ea67 ce3f 24e6 4280 c370 df3f
000000f0: 8f63 2272 0188 bbbf 58e3 1727 b29d ee3f

output_mask f8 [16]
1.0 1.0 1.0 1.0 1.0 1.0 1.0 1.0
1.0 1.0 1.0 1.0 1.0 1.0 1.0 1.0
00000000: 0000 0000 0000 f03f 0000 0000 0000 f03f
00000010: 0000 0000 0000 f03f 0000 0000 0000 f03f
00000020: 0000 0000 0000 f03f 0000 0000 0000 f03f
00000030: 0000 0000 0000 f03f 0000 0000 0000 f03f
00000040: 0000 0000 0000 f03f 0000 0000 0000 f03f
00000050: 0000 0000 0000 f03f 0000 0000 0000 f03f
00000060: 0000 0000 0000 f03f 0000 0000 0000 f03f
00000070: 0000 0000 0000 f03f 0000 0000 0000 f03f

bessel_weights f8 [3]
0.7853981633974483 1.5707963267948966 2.356194490192345
00000000: 182d 4454 fb21 e93f 182d 4454 fb21 f93f
00000010: d221 337f 7cd9 0240

r_max f8 []
4.0
00000000: 0000 0000 0000 1040

prefactor f8 []
0.7071067811865476
00000000: cd3b 7f66 9ea0 e63f

p f8 []
4.0
00000000: 0000 0000 0000 1040

r_max f8 []
4.0
00000000: 0000 0000 0000 1040

atomic_energies f8 [2]
-13.67403805 -45245.39788497
00000000: ec04 ea83 1b59 2bc0 b742 79bb ac17 e6c0

weight f8 [256]
-1.8971887003267174 -0.328651051669025 0.4912357748285692 -0.130988602300713 -0.08479483900377968 -0.03682943714660831 0.24538924412927066 0.43744865642129316
-0.22774609077696165 2.6935663729176516 -0.6481421531699536 -0.6867333109991036 -0.17067549580183092 -1.174614149331837 1.5897147408360741 -0.013028579644822362
0.03771253799241983 1.5009755093592665 0.31643738514361136 -0.1388195890902726 0.6680836768613774 -1.0610412022941897 0.5437996779809274 -0.08907516744645338
-0.2353048460223554 0.4758656846257367 0.4286747230950088 -0.8857547365346287 0.84528044070447 -0.22397212407946857 1.0612521436919826 -1.4511996658807853
0.6800137528443666 -1.4913008165910677 -0.9253108742402025 0.5574665065842147 -0.0099021207698314 0.8742194489516373 -0.9316344709425965 0.5988538986583893
0.422078498094948 0.012293107985228252 -0.8628425416097159 -0.4609641369621476 -0.7330581665634126 -0.9072554481192339 -0.5111704067287071 -1.556875888239401
0.4092814449217213 0.3915352880114279 0.6633269359079103 -0.562769636937927 0.3524161491862588 0.6630203287343562 -1.46904347966455 0.18954943597492097
-0.46272214001632234 -0.421518595683044 -1.085293225743419 0.6646680029895196 -2.38932171681507 0.8727704425074466 -1.6491235867656917 0.3375994888690415
0.7928561860265047 0.2643154057638458 -0.5736141232149611 -1.2001568205267208 -0.9986187975745937 2.7946748926708587 -1.1776049815133398 1.762547362130443
-1.7118911071299054 0.9626592727483291 0.7544863698217474 -0.5316383670741244 1.4379576283844044 1.2389807595137228 -1.5550861486489589 0.49329985741500365
0.29883878843147277 -0.563107461978598 2.003226297574456 -0.6650472294824878 1.3852944047064872 -0.4257995860743407 0.7502088225404292 0.5934166888311286
-1.0172198534897952 -0.9134137444628817 -1.7374649020132422 -0.5337938615894375 -0.34061949194613456 0.342036411128701 1.0343568719477656 0.5301052111713981
-0.3147276567833053 -0.22908831797147444 -0.5185871916355256 -0.018153533160195703 -0.5883626537138411 -1.3718822576214817 -0.1640874560765153 0.0022544609987087474
-0.8309634094375898 -0.14767106968290028 -0.160054052938582 -0.8295114687590044 -0.5509777170254425 -0.5084959468752761 0.07285686649146132 -0.3652727724545697
0.2869025035389782 0.648546564346773 -1.8876690937111376 -1.0188972650280421 0.38887838753966575 -0.381154003508748 1.0390527836936172 0.18245193847085212
-1.0659861359011658 -0.6528277494934038 0.07342502285516053 0.060898844463864024 -0.93542700280341 1.4816736250364155 -0.3979421272811894 -0.2670439433569882
0.41300777009145967 -0.4529030273694291 -2.4696800181183383 -0.17059574384273465 -0.08392210341997017 0.6749889764777375 -0.9228002473267185 1.0821499288322536
1.1141039621967255 1.1130137772219846 -0.8184494641602941 -0.3112799440802171 -1.2388926679645078 -1.0330309253050043 1.3456037391458244 1.5281651675245553
0.5355362618563518 -0.7168452663266073 -1.8107046639792708 -0.22620624521535906 -0.01362752987754605 -0.06728575455392849 0.17002321697911532 -1.2636773644734476
0.2651332577951567 -1.9147398179931079 0.544894673586717 1.2212093795640366 0.8655753814555455 1.564140864275191 -2.476179089153421 -0.4841406251239684
-1.0280772001881457 -0.1818863027631865 -0.8904833843153547 -0.8941208491787603 -1.1733756056541214 -1.1350537505367602 -1.5463469242624803 -1.5914926026679104
-0.627766381160842 -0.0649945216781932 0.6361874693852145 -0.16542417261931677 0.255420783507875 0.3613827302993755 -1.0772831886113003 -2.2527906454831594
-0.9848621859565247 1.340794709051735 0.902706757845315 -0.8927866583516665 0.03637514237669958 0.2846841544698554 1.3008279906336477 0.9929648802609737
1.0927232055732474 1.866103626608139 0.7781386534794593 -0.06316763461435004 0.07291939952448565 0.3244501009538658 0.6611111246649032 -0.10544876220506846
-1.038150743624149 -0.7877443692255063 0.9057040817160599 1.2686896414182176 -0.8387317919608066 0.9648342414651455 -0.7972152911707517 0.5559503614284186
-0.9565212459941501 -2.577796473553953 0.09831362243676334 1.6407552723828518 -0.13722479834785223 0.1446308194482896 0.9780126566152165 -0.8064997405107047
-0.5821830282188408 -0.17176738953367718 -0.5781682164137569 0.3399191142596185 0.5797254521900497 0.4198542607758798 0.5740854459013086 0.35922849509408433
0.050325890437998316 1.3054819904451074 -1.470645948857815 0.9426446010655605 -0.6966770577296361 0.6963817773561198 1.6610105141412281 1.3553718507116963
-0.6618159159182089 0.09681436206958012 -0.09079652467437893 -0.3638179425390808 -1.1858647615860891 0.8760999329181973 -0.7706535169800792 -0.2380881032469288
0.41449115950942045 0.4252448317540206 0.12371119515029515 -0.24372072853586035 -0.05608252732268556 1.1774926496967109 0.8357447197319698 0.8349619422968054
1.8121919474621482 0.18278209284040137 0.6779951449837159 0.11712940478099564 0.7620563385200787 -0.7974539148100391 0.6011671057893492 0.8131712989113801
0.8362580646379788 2.5333765595232665 -1.585181726111329 0.02921325423147115 0.16995026687767095 -0.444162073747713 0.3822858507699472 0.1117412588222621
00000000: 68e7 e389 e25a febf dab9 ad6b 9e08 d5bf
00000010: 25e4 e02c 6870 df3f 49e1 8309 3cc4 c0bf
00000020: b60c 6454 1db5 b5bf 4948 26d8 4edb a2bf
00000030: f8a5 292d ea68 cf3f d08c 40a6 28ff db3f
00000040: 1de6 d6ad c826 cdbf 114b ca86 6c8c 0540
00000050: 64c4 e09c 94bd e4bf 0c14 fa22 b8f9 e5bf
00000060: 0346 59d4 b1d8 c5bf 1dc9 cc34 38cb f2bf
00000070: c8c2 5db9 786f f93f 691a e75b baae 8abf
00000080: 3438 a7ca 0e4f a33f 49b8 4ce5 fe03 f83f
00000090: b91b 1b97 8240 d43f a8eb 971d d7c4 c1bf
000000a0: b48d e304 f160 e53f 38fe f856 06fa f0bf
000000b0: f91b 1095 ce66 e13f 4078 1153 a1cd b6bf
000000c0: 7ecf 201d 781e cebf 6765 3058 9574 de3f
000000d0: a127 141b 686f db3f bb2f 3651 1a58 ecbf
000000e0: f7c5 1891 890c eb3f 4988 115a 1eab ccbf
000000f0: a978 1f87 e3fa f03f 1dc9 0e24 1d38 f7bf
00000100: 3c7f a933 acc2 e53f 911b bc3e 5edc f7bf
00000110: b8d5 ef8c 259c edbf 53a0 ccff c3d6 e13f
00000120: 2c93 f026 9047 84bf 14c8 d810 9bf9 eb3f
00000130: 76ca 1018 f3cf edbf 763c baa6 cf29 e33f
00000140: 0a68 6a88 5503 db3f 9d1d 1a06 212d 893f
00000150: c0f5 39f6 679c ebbf 0967 38b9 6f80 ddbf
00000160: 1894 6e66 3675 e7bf 2447 d993 3c08 edbf
00000170: 6ca6 720a 825b e0bf f4b4 feb0 f6e8 f8bf
00000180: 4919 33cd aa31 da3f 2a4c 4f06 ea0e d93f
00000190: bbf8 0869 f939 e53f eb90 3a78 3502 e2bf
000001a0: 5195 d576 fc8d d63f 4de9 8f68 7637 e53f
000001b0: 04fb 58bc 3381 f7bf 6e67 3eea 2743 c83f
000001c0: cf55 a052 3d9d ddbf 4f54 c721 29fa dabf
000001d0: 9936 f26d 5c5d f1bf 2834 f1d4 f544 e53f
000001e0: 14bf 4ab4 541d 03c0 8f84 6f47 bced eb3f
000001f0: a988 036a cf62 fabf b5af f5e2 3a9b d53f
00000200: be48 adef 135f e93f 866b e529 8bea d03f
00000210: 516c 7701 0c5b e2bf dbbc 63a3 d733 f3bf
00000220: 821e 9868 aff4 efbf 08ca 9782 7e5b 0640
00000230: bd4d 3352 78d7 f2bf 6a05 e0dc 6433 fc3f
00000240: 94fa f6ed e763 fbbf 9fa5 b4d1 1ace ee3f
00000250: 7830 7599 c024 e83f 0b3b fc76 2e03 e1bf
00000260: a61d afdb df01 f73f 40c1 277d ddd2 f33f
00000270: d78e 6e03 a2e1 f8bf 8502 ae90 3992 df3f
00000280: 5db9 c5b9 2c20 d33f cf9c aaf0 f904 e2bf
00000290: 3d8e 5482 9b06 0040 b286 9d20 1148 e5bf
000002a0: 09bd 3877 2a2a f63f 81bc 35e8 4c40 dbbf
000002b0: ff6a bfee b501 e83f 11c5 edfe 44fd e23f
000002c0: 104a 3953 8846 f0bf 57eb 0576 af3a edbf
000002d0: f983 41ff a7cc fbbf 42a1 4add d614 e1bf
000002e0: 6d7b 92b2 b5cc d5bf deb1 f5af ece3 d53f
000002f0: 4589 96ca b98c f03f 5573 2d34 9ff6 e03f
00000300: 0cfc 4178 7f24 d4bf 10a4 ca18 c452 cdbf
00000310: c25e 862a 4498 e0bf d468 ebfc d696 92bf
00000320: 6670 7cea ddd3 e2bf 8c26 67cf 3af3 f5bf
00000330: f727 c458 d100 c5bf 1054 4e88 f277 623f
00000340: 9da0 7693 4097 eabf 023c 6db7 e2e6 c2bf
00000350: bc52 7bb5 a67c c4bf 5a42 bfa2 5b8b eabf
00000360: 5b5e 6e05 9ca1 e1bf aa4a bf4a 9945 e0bf
00000370: 73af de62 bfa6 b23f b0f1 f30c a160 d7bf
00000380: b3c9 7551 9c5c d23f 7dae 79b9 e4c0 e43f
00000390: 798c f281 e433 febf f477 f437 674d f0bf
000003a0: 38a9 262d 62e3 d83f 89cf f3c2 d364 d8bf
000003b0: 7382 cccf f59f f03f 927c 69ca 955a c73f
000003c0: 6df5 7a7a 470e f1bf bada 3f05 f7e3 e4bf
000003d0: b2f7 de77 fbcb b23f fa47 ac22 222e af3f
000003e0: 12c0 1a9c 04ef edbf e508 2e67 efb4 f73f
000003f0: 6ce5 9741 e277 d9bf 800a d47a 3f17 d1bf
00000400: 6559 6224 b86e da3f eae8 b3fa 5cfc dcbf
00000410: 3e39 eb98 e7c1 03c0 6317 52d2 14d6 c5bf
00000420: 5ead 9941 eb7b b5bf 963c 647b 8299 e53f
00000430: 7649 6062 9487 edbf 8a40 9b71 7c50 f13f
00000440: cea9 1fad 5ed3 f13f 56a7 d288 e7ce f13f
00000450: f5e8 3fee bc30 eabf 5a6a eeb6 02ec d3bf
00000460: 8596 421e 81d2 f3bf d810 7f6f 4b87 f0bf
00000470: 291b 50c9 9787 f53f 1f78 9651 5d73 f83f
00000480: 0dd8 4ff1 1c23 e13f 3949 e57b 65f0 e6bf
00000490: 1717 2874 a5f8 fcbf 11eb ac84 53f4 ccbf
000004a0: 59d0 3119 c0e8 8bbf f0b9 4ba3 a339 b1bf
000004b0: a635 3e1e 52c3 c53f 2dbe 91c1 0538 f4bf
000004c0: 05fa d37b f1f7 d03f fc11 2a38 c6a2 febf
000004d0: b539 5af4 c66f e13f 5ebc acd8 128a f33f
000004e0: 9b60 7224 cbb2 eb3f cc62 2692 b806 f93f
000004f0: c59f 77fb 36cf 03c0 dca2 e4f5 28fc debf
00000500: 2c24 0914 0173 f0bf a0a7 fae4 0c48 c7bf
00000510: d381 a802 d77e ecbf f19f bc53 a39c ecbf
00000520: 9b56 c37f 25c6 f2bf d51e 1c1f 2e29 f2bf
00000530: 03a4 bf45 d6bd f8bf b68d 84f2 c076 f9bf
00000540: 9aa6 9385 a916 e4bf a8e9 0621 7ba3 b0bf
00000550: ce4d e4d2 a55b e43f dd14 af89 9e2c c5bf
00000560: 28a4 f869 d058 d03f 8066 fe07 e520 d73f
00000570: b0db f94b 8d3c f1bf e0ad 181a b705 02c0
00000580: d202 f8b3 fd83 efbf be6e 2027 e573 f53f
00000590: ba5c 5a48 f9e2 ec3f f79d 7d53 b591 ecbf
000005a0: 9f60 ca3d c39f a23f d6cb 48e3 4338 d23f
000005b0: f7e2 d702 31d0 f43f 9d84 d948 5ec6 ef3f
000005c0: 3347 f853 cb7b f13f caa9 f379 8fdb fd3f
000005d0: 0154 8e08 83e6 e83f 6895 d50c c12b b0bf
000005e0: 9e9d 3384 d8aa b23f d7f7 315b cac3 d43f
000005f0: 27a4 6e84 d227 e53f 260f 13a9 b0fe babf
00000600: d9f0 42f4 439c f0bf 79d0 edad 3335 e9bf
00000610: c15f 5a20 87fb ec3f b5a4 6a82 8d4c f43f
00000620: dac9 120e e4d6 eabf a9eb 240f ecdf ee3f
00000630: 4662 6ea4 c982 e9bf 1d1a 9169 58ca e13f
00000640: 622b af71 d29b eebf 5144 edc1 539f 04c0
00000650: 3000 1ee1 142b b93f 94fb b999 8840 fa3f
00000660: 1657 8d0a 9590 c1bf 3415 c33f 4383 c23f
00000670: dc90 e732 e14b ef3f 173b 378b d8ce e9bf
00000680: ad8e 4f4d 3ea1 e2bf fb80 484c 79fc c5bf
00000690: f8ad a2a1 5a80 e2bf 3cf1 c119 3cc1 d53f
000006a0: 1815 3a64 1c8d e23f 1d98 c767 e4de da3f
000006b0: ad2e e870 e85e e23f d91a 8e83 99fd d63f
000006c0: 3485 25ab 50c4 a93f d7a8 6715 41e3 f43f
000006d0: 616d e50b c487 f7bf 487b aa02 252a ee3f
000006e0: 3550 5aaf 2d4b e6bf e2cb e86f c248 e63f
000006f0: 8fc7 c8c2 7f93 fa3f 979c cb64 9aaf f53f
00000700: 6ae9 5a92 982d e5bf 1538 df76 d3c8 b83f
00000710: 5021 11e8 703e b7bf a3d0 390d cb48 d7bf
00000720: 81db 0754 4df9 f2bf 9c2a fdb9 0209 ec3f
00000730: 1e42 7f90 31a9 e8bf c690 81c4 ab79 cebf
00000740: bbbd a4ed 0587 da3f 724c 4b19 3637 db3f
00000750: bfd0 5171 89ab bf3f b49b 35a7 3d32 cfbf
00000760: 4bb7 7459 d9b6 acbf e5a4 5b88 02d7 f23f
00000770: 3eb6 e1b5 6bbe ea3f ad38 721b 02b8 ea3f
00000780: a8ca c6fb bcfe fc3f 78a0 8553 6765 c73f
00000790: a9a8 d1df 22b2 e53f bf2f ef52 31fc bd3f
000007a0: 5ee7 74f9 c362 e83f 27a4 8512 be84 e9bf
000007b0: b17a 59cc c23c e33f d3d8 dbd0 7f05 ea3f
000007c0: 2b5d d445 a0c2 ea3f ead7 fced 5a44 0440
000007d0: fdd6 7d83 e75c f9bf 42b7 224e 14ea 9d3f
000007e0: 1ad1 172b eec0 c53f 8cad 37c3 266d dcbf
000007f0: 0df3 b112 5f77 d83f 9c67 413c 139b bc3f

output_mask f8 [16]
1.0 1.0 1.0 1.0 1.0 1.0 1.0 1.0
1.0 1.0 1.0 1.0 1.0 1.0 1.0 1.0
00000000: 0000 0000 0000 f03f 0000 0000 0000 f03f
00000010: 0000 0000 0000 f03f 0000 0000 0000 f03f
00000020: 0000 0000 0000 f03f 0000 0000 0000 f03f
00000030: 0000 0000 0000 f03f 0000 0000 0000 f03f
00000040: 0000 0000 0000 f03f 0000 0000 0000 f03f
00000050: 0000 0000 0000 f03f 0000 0000 0000 f03f
00000060: 0000 0000 0000 f03f 0000 0000 0000 f03f
00000070: 0000 0000 0000 f03f 0000 0000 0000 f03f

output_mask f8 [256]
1.0 1.0 1.0 1.0 1.0 1.0 1.0 1.0
1.0 1.0 1.0 1.0 1.0 1.0 1.0 1.0
1.0 1.0 1.0 1.0 1.0 1.0 1.0 1.0
1.0 1.0 1.0 1.0 1.0 1.0 1.0 1.0
1.0 1.0 1.0 1.0 1.0 1.0 1.0 1.0
1.0 1.0 1.0 1.0 1.0 1.0 1.0 1.0
1.0 1.0 1.0 1.0 1.0 1.0 1.0 1.0
1.0 1.0 1.0 1.0 1.0 1.0 1.0 1.0
1.0 1.0 1.0 1.0 1.0 1.0 1.0 1.0
1.0 1.0 1.0 1.0 1.0 1.0 1.0 1.0
1.0 1.0 1.0 1.0 1.0 1.0 1.0 1.0
1.0 1.0 1.0 1.0 1.0 1.0 1.0 1.0
1.0 1.0 1.0 1.0 1.0 1.0 1.0 1.0
1.0 1.0 1.0 1.0 1.0 1.0 1.0 1.0
1.0 1.0 1.0 1.0 1.0 1.0 1.0 1.0
1.0 1.0 1.0 1.0 1.0 1.0 1.0 1.0
1.0 1.0 1.0 1.0 1.0 1.0 1.0 1.0
1.0 1.0 1.0 1.0 1.0 1.0 1.0 1.0
1.0 1.0 1.0 1.0 1.0 1.0 1.0 1.0
1.0 1.0 1.0 1.0 1.0 1.0 1.0 1.0
1.0 1.0 1.0 1.0 1.0 1.0 1.0 1.0
1.0 1.0 1.0 1.0 1.0 1.0 1.0 1.0
1.0 1.0 1.0 1.0 1.0 1.0 1.0 1.0
1.0 1.0 1.0 1.0 1.0 1.0 1.0 1.0
1.0 1.0 1.0 1.0 1.0 1.0 1.0 1.0
1.0 1.0 1.0 1.0 1.0 1.0 1.0 1.0
1.0 1.0 1.0 1.0 1.0 1.0 1.0 1.0
1.0 1.0 1.0 1.0 1.0 1.0 1.0 1.0
1.0 1.0 1.0 1.0 1.0 1.0 1.0 1.0
1.0 1.0 1.0 1.0 1.0 1.0 1.0 1.0
1.0 1.0 1.0 1.0 1.0 1.0 1.0 1.0
1.0 1.0 1.0 1.0 1.0 1.0 1.0 1.0
00000000: 0000 0000 0000 f03f 0000 0000 0000 f03f
00000010: 0000 0000 0000 f03f 0000 0000 0000 f03f
00000020: 0000 0000 0000 f03f 0000 0000 0000 f03f
00000030: 0000 0000 0000 f03f 0000 0000 0000 f03f
00000040: 0000 0000 0000 f03f 0000 0000 0000 f03f
00000050: 0000 0000 0000 f03f 0000 0000 0000 f03f
00000060: 0000 0000 0000 f03f 0000 0000 0000 f03f
00000070: 0000 0000 0000 f03f 0000 0000 0000 f03f
00000080: 0000 0000 0000 f03f 0000 0000 0000 f03f
00000090: 0000 0000 0000 f03f 0000 0000 0000 f03f
000000a0: 0000 0000 0000 f03f 0000 0000 0000 f03f
000000b0: 0000 0000 0000 f03f 0000 0000 0000 f03f
000000c0: 0000 0000 0000 f03f 0000 0000 0000 f03f
000000d0: 0000 0000 0000 f03f 0000 0000 0000 f03f
000000e0: 0000 0000 0000 f03f 0000 0000 0000 f03f
000000f0: 0000 0000 0000 f03f 0000 0000 0000 f03f
00000100: 0000 0000 0000 f03f 0000 0000 0000 f03f
00000110: 0000 0000 0000 f03f 0000 0000 0000 f03f
00000120: 0000 0000 0000 f03f 0000 0000 0000 f03f
00000130: 0000 0000 0000 f03f 0000 0000 0000 f03f
00000140: 0000 0000 0000 f03f 0000 0000 0000 f03f
00000150: 0000 0000 0000 f03f 0000 0000 0000 f03f
00000160: 0000 0000 0000 f03f 0000 0000 0000 f03f
00000170: 0000 0000 0000 f03f 0000 0000 0000 f03f
00000180: 0000 0000 0000 f03f 0000 0000 0000 f03f
00000190: 0000 0000 0000 f03f 0000 0000 0000 f03f
000001a0: 0000 0000 0000 f03f 0000 0000 0000 f03f
000001b0: 0000 0000 0000 f03f 0000 0000 0000 f03f
000001c0: 0000 0000 0000 f03f 0000 0000 0000 f03f
000001d0: 0000 0000 0000 f03f 0000 0000 0000 f03f
000001e0: 0000 0000 0000 f03f 0000 0000 0000 f03f
000001f0: 0000 0000 0000 f03f 0000 0000 0000 f03f
00000200: 0000 0000 0000 f03f 0000 0000 0000 f03f
00000210: 0000 0000 0000 f03f 0000 0000 0000 f03f
00000220: 0000 0000 0000 f03f 0000 0000 0000 f03f
00000230: 0000 0000 0000 f03f 0000 0000 0000 f03f
00000240: 0000 0000 0000 f03f 0000 0000 0000 f03f
00000250: 0000 0000 0000 f03f 0000 0000 0000 f03f
00000260: 0000 0000 0000 f03f 0000 0000 0000 f03f
00000270: 0000 0000 0000 f03f 0000 0000 0000 f03f
00000280: 0000 0000 0000 f03f 0000 0000 0000 f03f
00000290: 0000 0000 0000 f03f 0000 0000 0000 f03f
000002a0: 0000 0000 0000 f03f 0000 0000 0000 f03f
000002b0: 0000 0000 0000 f03f 0000 0000 0000 f03f
000002c0: 0000 0000 0000 f03f 0000 0000 0000 f03f
000002d0: 0000 0000 0000 f03f 0000 0000 0000 f03f
000002e0: 0000 0000 0000 f03f 0000 0000 0000 f03f
000002f0: 0000 0000 0000 f03f 0000 0000 0000 f03f
00000300: 0000 0000 0000 f03f 0000 0000 0000 f03f
00000310: 0000 0000 0000 f03f 0000 0000 0000 f03f
00000320: 0000 0000 0000 f03f 0000 0000 0000 f03f
00000330: 0000 0000 0000 f03f 0000 0000 0000 f03f
00000340: 0000 0000 0000 f03f 0000 0000 0000 f03f
00000350: 0000 0000 0000 f03f 0000 0000 0000 f03f
00000360: 0000 0000 0000 f03f 0000 0000 0000 f03f
00000370: 0000 0000 0000 f03f 0000 0000 0000 f03f
00000380: 0000 0000 0000 f03f 0000 0000 0000 f03f
00000390: 0000 0000 0000 f03f 0000 0000 0000 f03f
000003a0: 0000 0000 0000 f03f 0000 0000 0000 f03f
000003b0: 0000 0000 0000 f03f 0000 0000 0000 f03f
000003c0: 0000 0000 0000 f03f 0000 0000 0000 f03f
000003d0: 0000 0000 0000 f03f 0000 0000 0000 f03f
000003e0: 0000 0000 0000 f03f 0000 0000 0000 f03f
000003f0: 0000 0000 0000 f03f 0000 0000 0000 f03f
00000400: 0000 0000 0000 f03f 0000 0000 0000 f03f
00000410: 0000 0000 0000 f03f 0000 0000 0000 f03f
00000420: 0000 0000 0000 f03f 0000 0000 0000 f03f
00000430: 0000 0000 0000 f03f 0000 0000 0000 f03f
00000440: 0000 0000 0000 f03f 0000 0000 0000 f03f
00000450: 0000 0000 0000 f03f 0000 0000 0000 f03f
00000460: 0000 0000 0000 f03f 0000 0000 0000 f03f
00000470: 0000 0000 0000 f03f 0000 0000 0000 f03f
00000480: 0000 0000 0000 f03f 0000 0000 0000 f03f
00000490: 0000 0000 0000 f03f 0000 0000 0000 f03f
000004a0: 0000 0000 0000 f03f 0000 0000 0000 f03f
000004b0: 0000 0000 0000 f03f 0000 0000 0000 f03f
000004c0: 0000 0000 0000 f03f 0000 0000 0000 f03f
000004d0: 0000 0000 0000 f03f 0000 0000 0000 f03f
000004e0: 0000 0000 0000 f03f 0000 0000 0000 f03f
000004f0: 0000 0000 0000 f03f 0000 0000 0000 f03f
00000500: 0000 0000 0000 f03f 0000 0000 0000 f03f
00000510: 0000 0000 0000 f03f 0000 0000 0000 f03f
00000520: 0000 0000 0000 f03f 0000 0000 0000 f03f
00000530: 0000 0000 0000 f03f 0000 0000 0000 f03f
00000540: 0000 0000 0000 f03f 0000 0000 0000 f03f
00000550: 0000 0000 0000 f03f 0000 0000 0000 f03f
00000560: 0000 0000 0000 f03f 0000 0000 0000 f03f
00000570: 0000 0000 0000 f03f 0000 0000 0000 f03f
00000580: 0000 0000 0000 f03f 0000 0000 0000 f03f
00000590: 0000 0000 0000 f03f 0000 0000 0000 f03f
000005a0: 0000 0000 0000 f03f 0000 0000 0000 f03f
000005b0: 0000 0000 0000 f03f 0000 0000 0000 f03f
000005c0: 0000 0000 0000 f03f 0000 0000 0000 f03f
000005d0: 0000 0000 0000 f03f 0000 0000 0000 f03f
000005e0: 0000 0000 0000 f03f 0000 0000 0000 f03f
000005f0: 0000 0000 0000 f03f 0000 0000 0000 f03f
00000600: 0000 0000 0000 f03f 0000 0000 0000 f03f
00000610: 0000 0000 0000 f03f 0000 0000 0000 f03f
00000620: 0000 0000 0000 f03f 0000 0000 0000 f03f
00000630: 0000 0000 0000 f03f 0000 0000 0000 f03f
00000640: 0000 0000 0000 f03f 0000 0000 0000 f03f
00000650: 0000 0000 0000 f03f 0000 0000 0000 f03f
00000660: 0000 0000 0000 f03f 0000 0000 0000 f03f
00000670: 0000 0000 0000 f03f 0000 0000 0000 f03f
00000680: 0000 0000 0000 f03f 0000 0000 0000 f03f
00000690: 0000 0000 0000 f03f 0000 0000 0000 f03f
000006a0: 0000 0000 0000 f03f 0000 0000 0000 f03f
000006b0: 0000 0000 0000 f03f 0000 0000 0000 f03f
000006c0: 0000 0000 0000 f03f 0000 0000 0000 f03f
000006d0: 0000 0000 0000 f03f 0000 0000 0000 f03f
000006e0: 0000 0000 0000 f03f 0000 0000 0000 f03f
000006f0: 0000 0000 0000 f03f 0000 0000 0000 f03f
00000700: 0000 0000 0000 f03f 0000 0000 0000 f03f
00000710: 0000 0000 0000 f03f 0000 0000 0000 f03f
00000720: 0000 0000 0000 f03f 0000 0000 0000 f03f
00000730: 0000 0000 0000 f03f 0000 0000 0000 f03f
00000740: 0000 0000 0000 f03f 0000 0000 0000 f03f
00000750: 0000 0000 0000 f03f 0000 0000 0000 f03f
00000760: 0000 0000 0000 f03f 0000 0000 0000 f03f
00000770: 0000 0000 0000 f03f 0000 0000 0000 f03f
00000780: 0000 0000 0000 f03f 0000 0000 0000 f03f
00000790: 0000 0000 0000 f03f 0000 0000 0000 f03f
000007a0: 0000 0000 0000 f03f 0000 0000 0000 f03f
000007b0: 0000 0000 0000 f03f 0000 0000 0000 f03f
000007c0: 0000 0000 0000 f03f 0000 0000 0000 f03f
000007d0: 0000 0000 0000 f03f 0000 0000 0000 f03f
000007e0: 0000 0000 0000 f03f 0000 0000 0000 f03f
000007f0: 0000 0000 0000 f03f 0000 0000 0000 f03f

weight f8 [3, 64]
1.2693412314816683 0.39756022190848755 0.8048179693143194 -0.9613522967964155 0.7704751525533847 -0.33216152390584186 0.8435059313966526 1.8032549323198344
-0.13721920556563474 -1.360472132800559 -0.33897617214051506 -0.7627647273955772 -0.15183733327424329 0.6322604458477207 -3.2179837022057143 -0.8071571863042492
-0.22985028042119268 -1.1086972231636212 0.04939711161957061 -0.5752841923632287 -2.0587009624080745 0.43568967990500534 -1.6230410010077159 -0.2890920218496382
1.2468960889646516 0.3775346853510579 0.7333816730174273 -0.5793123342165039 0.4495692285659516 0.42596388024452203 -2.655219546515877 1.2759720492985616
0.4784647773726001 -1.7804851828932016 -0.24122936419976745 0.20658926872725492 -2.8973691660922642 0.9840264117296211 -0.7455453589366484 -2.195407740764135
-2.810861135648687 -0.8359841495025645 -1.4799368563269286 -0.5268703715907973 1.727897468710464 -1.993083327192193 -1.6941991653835013 1.7137870581710382
0.4547618461018283 1.6588115855659586 0.3583687675240175 0.6737037478460755 -0.8079699615253125 -0.9954628346761767 1.116502133621817 0.6300505241282737
-0.9715285701251115 -1.594793754585145 0.4324848179940574 0.4906798930648424 0.30161412437375373 0.5244504713043449 -0.3629564850351994 0.3261182470920321
-0.19704018685750616 0.7261207630447946 -0.7414696787437629 -2.9461738050931054 0.41393183994353155 1.0024443562332592 0.1524253352688945 -0.8433250669154864
0.3278079584355921 2.4525570515208717 0.6605645971923857 -0.12032120653241446 0.0983412776542103 -0.13560356720670874 0.9840475295346589 -1.9130751659513965
-1.4473665195341667 -0.011715426525394153 0.48583643847189273 -1.310680385321057 -2.8625953341863033 1.415172948267898 0.995558496129923 0.7888109391589697
1.2941181759355709 0.11253903842976895 -0.956729674226945 -2.0219584763295093 0.9776354204072754 0.58436181257926 -1.1112023931263533 -1.044198003380693
-1.5949488423546778 -2.5173243815549227 0.5914386491893368 -0.10829391854587099 0.2733670948878583 -1.0420397489391588 1.3762748173539523 0.13955012008287923
0.7257432157290918 -0.08036055772853896 -1.1379725556831632 1.0909419103201048 0.3764013054210495 -0.4592825344677026 -1.2259446646283179 0.3626364007859809
-2.1534005091942703 -0.8208101181496233 -1.6579140091322555 0.5549056388164494 0.6895313247709366 -1.071135459158985 -0.34372026800447897 0.5889346792586541
-0.7548593800695422 1.1970332160118995 -0.4763831909630963 0.15021475900953607 0.08407951084446015 0.5397992169835527 -0.6308886034807283 0.6034621325324535
-0.3686038526788167 -3.5552776171190277 0.22024284581975664 -1.3503185495505738 -0.6417468131253602 -0.6322447618438223 -0.43753287396730817 -0.1654355404891995
-0.20383312229120873 -1.323991358391681 -0.34517080273172934 0.48286751977684267 0.01024251211101922 -0.1515570641140234 1.4258652268195133 -1.8182859218751937
-2.216450322188662 1.09587711230396 -0.4301306006013717 -1.8464385319611933 -1.4471700249751094 -1.3169694426626302 -0.15142785343777762 -0.5118985341410504
-4.035013594587719 -0.27844018951979616 0.4293297425146327 -1.927541068815578 -0.9079841582034265 -0.656260601732436 -1.721075635898412 0.24255384689692983
1.057812018359583 -1.6395125744730268 -0.3611002436931578 -0.07123969607978443 1.0569285678566938 0.39840276283301274 -0.8233268187499052 1.8169658848563157
2.366274998532142 -2.779440059075859 1.5018180965341883 -0.605854558440072 -1.099857639906165 2.0441606925592612 -1.5998600293334877 -1.09785494402522
-2.02194872940301 -0.08905867493873472 -2.1651965465677256 -0.7759739286801142 2.325356691237417 1.5085774125220144 0.8430557228143655 1.791472162284672
-2.6015394317464633 -0.3014941693038681 0.18724988145632698 -0.2790924187003074 -0.18357822450943395 -3.390702228795602 -2.79363580995072 -0.621566285727938
00000000: a0d9 4ac0 384f f43f b165 d26d a071 d93f
00000010: 3005 2e9d 11c1 e93f 579a 55e4 65c3 eebf
00000020: e31d d381 bba7 e83f 3691 8a68 2242 d5bf
00000030: a094 aa26 00fe ea3f 4fa1 0ad8 21da fc3f
00000040: e1cc 2420 6690 c1bf ddf6 576d 7ec4 f5bf
00000050: b3df 5d1d c9b1 d5bf 7f9a d692 9168 e8bf
00000060: dfc3 5cde 676f c3bf 050d 2f42 7a3b e43f
00000070: c046 403d 6ebe 09c0 650f bd4e 3bd4 e9bf
00000080: 7b56 b1e6 bb6b cdbf d475 aa4c 39bd f1bf
00000090: a088 d805 944a a93f 0b63 0365 ba68 e2bf
000000a0: 8f4a ce35 3878 00c0 a363 99f7 56e2 db3f
000000b0: ea52 36d7 f9f7 f9bf d83c d8d2 7b80 d2bf
000000c0: d6d0 3950 49f3 f33f 770f ac3d 8729 d83f
000000d0: 490f a3d7 dc77 e73f 4623 3405 ba89 e2bf
000000e0: 34a3 7e03 bec5 dc3f e05b bb01 fe42 db3f
000000f0: 99e2 dfbe e33d 05c0 0a8f e5aa 616a f43f
00000100: 759b c6ba 2a9f de3f 409f f807 de7c fcbf
00000110: f353 0993 9ae0 cebf c4ad 7164 8471 ca3f
00000120: c770 a6e2 cf2d 07c0 30ed 18f5 247d ef3f
00000130: d928 caf0 81db e7bf d6bc ffee 3190 01c0
00000140: 12ab 59c3 a47c 06c0 fdcf c2d4 61c0 eabf
00000150: 7b1b e144 d2ad f7bf cbd7 e640 1fdc e0bf
00000160: f53d efd0 77a5 fb3f b5e4 c757 abe3 ffbf
00000170: deb8 8395 701b fbbf 4a71 72fa ab6b fb3f
00000180: c375 1e6e d11a dd3f 09b5 6304 7e8a fa3f
00000190: 541a 1b8e 83ef d63f f820 8629 fb8e e53f
000001a0: dfd9 1cd2 e3da e9bf 0e2a eadf d4da efbf
000001b0: 6b1e 5d57 31dd f13f ceac 7eb7 5f29 e43f
000001c0: d624 7a15 c316 efbf 95ee bc74 4684 f9bf
000001d0: 6743 53cd d4ad db3f 6c2b 61a3 4c67 df3f
000001e0: cf9a 0c54 a54d d33f 61f7 d35a 4cc8 e03f
000001f0: 143a 46d6 ad3a d7bf 6ce7 7811 1fdf d43f
00000200: ed7d 46e3 9c38 c9bf aa2a 479c 613c e73f
00000210: 48c3 a59e 1eba e7bf 75a7 6992 c391 07c0
00000220: 2228 d5f8 db7d da3f 534e e117 030a f03f
00000230: 02e7 0763 ac82 c33f 9e91 c9d9 84fc eabf
00000240: 7e5c 363b cefa d43f c4d9 3e3b d69e 0340
00000250: 54c6 ba5d 5823 e53f 646d 12df 5ecd bebf
00000260: 0027 5fdb e42c b93f 1cd7 2f2b 755b c1bf
00000270: 56f3 a13e 517d ef3f fbd0 88b4 f49b febf
00000280: ed97 abcb 6928 f7bf c435 48ee 41fe 87bf
00000290: 0448 9cb7 f117 df3f e266 e7fe 8bf8 f4bf
000002a0: 5219 f061 98e6 06c0 90e9 af63 8ca4 f63f
000002b0: 3941 c47d 9ddb ef3f 3646 4d70 f03d e93f
000002c0: d7d6 ac42 b5b4 f43f d642 94c1 5bcf bc3f
000002d0: db5b bd8c 879d eebf 51a4 cd90 f82c 00c0
000002e0: 47ef c113 ca48 ef3f fee4 418b 17b3 e23f
000002f0: 186f 1b29 7cc7 f1bf e118 31f7 08b5 f0bf
00000300: 6b4d cb13 e984 f9bf 539d 21f7 7a23 04c0
00000310: cd79 fbbe 10ed e23f b79c 8276 26b9 bbbf
00000320: e722 16b3 d87e d13f 3936 2ddf 31ac f0bf
00000330: 617f 2dbe 3805 f63f d754 f440 c7dc c13f
00000340: d735 1bd6 4939 e73f d517 556f 8292 b4bf
00000350: c179 e6b5 2235 f2bf e191 2a81 7f74 f13f
00000360: 9b20 3d80 f516 d83f ea6a 4a92 e264 ddbf
00000370: 8c8c 1427 789d f3bf 86c1 6d4e 6f35 d73f
00000380: e06e d10b 2a3a 01c0 81b6 b594 1344 eabf
00000390: 3fda 0cd7 d086 fabf f9a4 6278 c9c1 e13f
000003a0: e5ad 2eff a310 e63f d2c7 6aef 5e23 f1bf
000003b0: 4a4d 834b 83ff d5bf 6aad 5c8a 8dd8 e23f
000003c0: d447 cfdb ce27 e8bf f1f2 2f4d 0c27 f33f
000003d0: 613d 63ec 0f7d debf fc46 a9ba 3c3a c33f
000003e0: c533 571d 3c86 b53f 7b39 eb01 0946 e13f
000003f0: 89cd eb4b 3d30 e4bf e53d 73d1 8f4f e33f
00000400: 00d9 1b9d 3497 d7bf f7d0 2d64 3571 0cc0
00000410: 4da6 fce5 ea30 cc3f a907 989f e79a f5bf
00000420: cff0 d59c 3089 e4bf 04f8 e55d 593b e4bf
00000430: 9d53 27e2 8900 dcbf 1ca4 ffe5 fd2c c5bf
00000440: 2389 0a29 3417 cabf 83a9 0790 112f f5bf
00000450: fd13 5147 4717 d6bf c17f 6f2b 4de7 de3f
00000460: fa9d 5db4 06fa 843f 117b eccc 3866 c3bf
00000470: 4c18 5b0e 58d0 f63f ddb2 93fa b217 fdbf
00000480: 5d12 784e 4abb 01c0 a17c 5c70 b688 f13f
00000490: e5de a57f 4287 dbbf ac8f 4d21 038b fdbf
000004a0: 4650 90c1 9b27 f7bf d713 e18c 4e12 f5bf
000004b0: 8bff 1be7 fc61 c3bf 6332 e008 7961 e0bf
000004c0: baad 8e9a da23 10c0 d14a f8cc f6d1 d1bf
000004d0: 8b3a d374 237a db3f 1d28 c44d 35d7 febf
000004e0: 42a2 18cb 340e edbf d102 c33b 1600 e5bf
000004f0: 7004 229b 8689 fbbf ac7c f823 010c cf3f
00000500: fab8 824b ccec f03f eee0 8b89 713b fabf
00000510: f357 4f32 441c d7bf 89f3 d6c4 c33c b2bf
00000520: 1e71 12ee 2de9 f03f d13e 404d 6e7f d93f
00000530: 026b 0e7c b158 eabf 3f7d d6d1 4a12 fd3f
00000540: d24d 2096 21ee 0240 8e62 d711 4b3c 06c0
00000550: 267c 9269 7207 f83f 813e 5419 2963 e3bf
00000560: 8e71 1a53 0499 f1bf 647c d2eb 705a 0040
00000570: 8ea3 82d4 0699 f9bf 9671 8558 d090 f1bf
00000580: 26cc 9774 f32c 00c0 3d76 49a0 8ccc b6bf
00000590: 3b5d 2791 5252 01c0 ec59 c746 c7d4 e8bf
000005a0: 2032 e39b 549a 0240 fb42 a411 2223 f83f
000005b0: d92f c6fe 4ffa ea3f 2a50 cbb6 dea9 fc3f
000005c0: 08d8 d4e7 f3cf 04c0 3611 4633 ae4b d3bf
000005d0: 5e74 84da cdf7 c73f 6b47 b872 a6dc d1bf
000005e0: 404c 43c3 7d7f c7bf 1c36 797d 2820 0bc0
000005f0: ec61 45bb 5d59 06c0 0aed affa dee3 e3bf

weight f8 [64, 64]
-2.8807340706474274 -1.1543766238535924 -0.13013256953676763 -1.1975957650266007 -0.767787713132337 -0.03069350301328017 -1.1466932826772773 0.23430410328687057
0.011956130513487507 0.14683339619009725 -0.46616593848793625 1.2225274640763695 -0.9328751494091232 0.7142759312429587 -1.307076899465945 -0.4392139073383692
-1.8311802957543835 -0.52010645265474 -1.7748495084112712 1.0079132353984952 -0.8725582863372119 -1.305866638596703 -1.2486839705569805 -0.22444093869261542
0.412867128937741 -0.39892655100421587 -1.131062618969737 -0.8512071697871858 -2.08154814161041 -0.7952649388463121 -1.5185562184655848 0.004220898834419951
0.6403008523951786 -0.6866156854694379 0.004587411548389333 0.9743389305243905 -0.7890366128815951 -0.8521113904400838 0.6758962914570961 -2.818094233588427
-1.9823695450617977 -1.8185273283657082 -0.9465543367485395 -0.5659564932715584 2.6548268029630875 1.5703128371271553 1.5528506646741314 0.011850826010957546
-0.7360386801695465 -0.0071569811003096 0.7590851026826472 -1.4522348953546378 0.22920440619666183 -0.4323150949067788 -1.290107887747744 0.45345630206815785
-0.04255068321431344 0.6534477440044428 -0.3170906588693361 0.035732714608675435 -1.4166811685602565 1.6496718621122024 -1.273806959474275 0.11959806435694477
-3.1507906305604747 1.490537935477493 0.6695943414642425 1.229667473881209 0.12160316248195557 1.4623168105249271 -0.16836865173198576 -0.04984464314622505
-1.3851400705232844 -2.2426255659920193 0.9507753934617548 0.7659763556491661 0.02977635765979616 1.308560926604363 0.8321335144473928 1.4620228648991331
-1.6360782860109384 0.7924484267864602 2.0007653519744957 -1.61755939483581 -0.47123394816288017 -0.35392020063282426 -0.11956762580555907 1.5953364165546808
-0.25701591976552535 -1.571660587519677 -0.6639678555768294 -0.06720345800977849 -0.5532939138744124 1.6638362668456343 -0.5093897334716402 0.8126316326163723
-1.128239550914554 -1.2650469584876463 1.3007959602980552 0.507732858293649 1.7767708388003327 -1.5429085973764507 2.575111713604374 0.691806357131465
0.4422501000110314 2.1844686522595085 0.39166667560642876 1.606774273751565 -1.9527402559683842 -0.5050737349802087 0.25629380090833453 -0.22332349049670533
1.90762723611247 -1.8769371266351769 0.41281151900642304 -2.1157021459466274 1.255785333910906 -0.735186066328765 0.7155537807520044 -0.8833522054710716
-0.0008741788438704666 0.012536315243063024 0.8284025002439594 -0.7160797559669556 3.6430745234419835 0.5106750939160681 0.5841321530302644 0.670528903314327
-1.947421711820101 0.09247280782585522 -1.2488435842432621 -0.447835262175423 -1.0057753649667647 -0.3978477309519415 -0.5420488620989757 1.8802580012450494
0.08424806070451377 -0.03471172036485635 0.8984475726058526 0.7220674212735926 -1.713768206025398 -1.8035510278192362 -0.04007310901507392 0.7444104252142343
-0.31994415157188594 0.002781563950167363 0.3682680923489214 0.33686077383917384 0.2137531439556944 -1.236235847393213 1.7246544158275579 -0.5803980552748615
-0.912631254618472 1.2228594844318879 0.11413536366325981 -0.1671113665134934 0.007069184216814431 -0.3813129445966173 -0.3758653415532779 0.9279609727143617
-2.6742336304104777 0.6865362848967169 -0.5406298185564204 -0.9514632505056898 -0.9749671987795798 -2.138336032004476 -0.9755131314532789 -0.03252484734780151
-1.1061579084736655 0.7247045819756306 -1.7425469706429926 -0.6175931186993967 0.12965392914836865 -1.1130622017016065 1.1611238124085055 -1.7835125081194618
-0.278166205279389 0.18058870914496533 -0.8062732081135139 -1.806955785821258 1.3456465200000844 -0.6672046957302844 -0.3815265655015936 0.5780698815197978
-0.6692276106303444 -0.6655892288478514 -0.06080080580922586 -1.7381237066962851 0.12632424631021452 0.9897794135767172 -2.2033794239380438 -0.43316289982988126
-0.7650078735470411 -0.791232551328075 0.8471792999503087 2.0556722765594455 -0.018619759178024203 0.04922936512953252 -0.01954432851305935 1.494454795433512
-0.24471056285571544 0.23726490737738204 -0.5286518362530226 0.19167063085059924 -1.0967092855845575 1.5124688020411279 -1.401905205594011 -0.6166435571525349
-0.3661864154525793 0.43211562467707426 -0.20229200496449876 0.12669050998029255 -0.7708108872425745 0.16061679054624214 -1.915869226354798 -0.16912082113283974
-1.024688576786771 1.9634661775150595 0.447333475317632 0.2627871734298643 0.302758473391192 -0.23724822018439967 0.8142033230990122 2.0868788698757004
-2.856747411673353 -2.0185997469228747 0.9540870389731791 -1.2168555410191542 -0.4829975998654298 -1.5455148189045973 1.1166101313644015 -0.2514049561635235
0.9853391308295082 0.7712128024404942 -0.2374870400397828 -0.014330673942699074 0.2492148575476781 0.2566765664889148 0.5189861009236914 1.6648810253211432
-0.9489272096469403 0.7549329475131559 0.9466092930357899 -1.9161628078800568 1.3679448290528688 0.07892765006870786 0.05836815614215053 1.7353366062416484
-0.36660727895156586 -0.26632721230021456 0.9171121981324537 -0.583685483656555 0.5483796281751532 -0.4095451399227183 -0.7506651177593016 1.4577389582086087
00000000: af3a ef4d be0b 07c0 3a7d 6b9f 5378 f2bf
00000010: bf05 271d 2fa8 c0bf abe0 492d 5a29 f3bf
00000020: 8c91 c589 b791 e8bf f11d 911e 1e6e 9fbf
00000030: c544 3a0e db58 f2bf 84c5 7746 adfd cd3f
00000040: ad4b 56ac 747c 883f 136d 4ccd 6fcb c23f
00000050: 3d26 14a9 a9d5 ddbf 97b7 4af5 788f f33f
00000060: 56d3 3efc 1cda edbf 3e45 a032 59db e63f
00000070: 5503 8977 c9e9 f4bf ecdd fda5 141c dcbf
00000080: d483 b5b5 834c fdbf dbe6 9249 b6a4 e0bf
00000090: 5d2b 1f99 c865 fcbf 96df f3a0 6920 f03f
000000a0: 1482 f55a ffeb ebbf 5a5d 9b6a d4e4 f4bf
000000b0: 794e 090b 9cfa f3bf d9be c80d 7bba ccbf
000000c0: 8462 1840 6a6c da3f 7f6d 843a 0388 d9bf
000000d0: 0540 e31d d518 f2bf f169 8bd1 163d ebbf
000000e0: 5b21 4ab6 02a7 00c0 df02 0075 cf72 e9bf
000000f0: 6527 f79a 014c f8bf 41c6 41e7 ee49 713f
00000100: 436c 9436 587d e43f 2461 4075 c1f8 e5bf
00000110: 4f91 2de9 3fca 723f c94c 3ad6 c82d ef3f
00000120: bc89 f5b5 c93f e9bf e9a7 4f1b 7f44 ebbf
00000130: 1c78 6942 f1a0 e53f c477 52fd 748b 06c0
00000140: 7407 ca20 c9b7 ffbf 5368 a31c b018 fdbf
00000150: 331a 0752 2c4a eebf 0eed b1ca 501c e2bf
00000160: 632a bad5 153d 0540 a333 7f5a 0020 f93f
00000170: 5d8e 45f0 79d8 f83f 7e62 2ef1 3e45 883f
00000180: 236a 7dfd a08d e7bf ff03 397c a350 7dbf
00000190: 81e3 5cd7 6c4a e83f ca87 5aa8 5a3c f7bf
000001a0: 905c 5bea 9156 cd3f a645 8cee 0cab dbbf
000001b0: de02 232b 48a4 f4bf bb0f e394 6d05 dd3f
000001c0: c1e6 a701 34c9 a5bf 289c 443e 0be9 e43f
000001d0: 3c7f 6d9e 364b d4bf df7a 48f1 8e4b a23f
000001e0: b234 7ddf b9aa f6bf 0b74 8e52 0e65 fa3f
000001f0: 51bf 0568 8361 f4bf 91f6 138f fa9d be3f
00000200: 5667 d6b7 d134 09c0 ca2b 654e 3ed9 f73f
00000210: 569e c51c 516d e53f 4865 14cd b7ac f33f
00000220: 903e f385 6221 bf3f 8a87 d94f a665 f73f
00000230: 9f24 6e9e 1a8d c5bf 4f3d 63b0 3c85 a9bf
00000240: 1e6d 74a2 8829 f6bf abdf 38ac e5f0 01c0
00000250: 0750 9884 c06c ee3f c6b7 a0d8 e082 e83f
00000260: 260d 5f89 b17d 9e3f 586d 0995 ddef f43f
00000270: 87a0 ce76 d6a0 ea3f a1ef 6b16 7264 f73f
00000280: aecd c16c 602d fabf 5c10 9acd bc5b e93f
00000290: 659a cd43 9101 0040 8784 c2f5 85e1 f9bf
000002a0: 4bf8 076f b228 debf ba26 c7e9 a0a6 d6bf
000002b0: 2cc8 7ee2 fb9b bebf e385 737a 7f86 f93f
000002c0: 456f 7ce6 f272 d0bf 50f2 7c92 8525 f9bf
000002d0: 0887 2984 393f e5bf f381 54ee 3e34 b1bf
000002e0: 7e53 2570 95b4 e1bf fc02 00c7 129f fa3f
000002f0: 26b9 c5b2 eb4c e0bf 7809 b90d 1401 ea3f
00000300: 31b5 53ea 440d f2bf 47bd 29e1 a13d f4bf
00000310: 28fc c36c 0fd0 f43f f539 affa 583f e03f
00000320: 8624 5242 a76d fc3f 762f e7ec c0af f8bf
00000330: 85d1 8b2b d499 0440 dc6c e115 4723 e63f
00000340: 96ce 0c5d d34d dc3f fabb 64b3 ca79 0140
00000350: e668 aa1a 1111 d93f ef12 ddf0 58b5 f93f
00000360: 5678 0f91 6c3e ffbf c9df b964 9029 e0bf
00000370: be67 441d 1e67 d03f 4553 0e38 dd95 ccbf
00000380: a9fd 0023 a485 fe3f a0bd 7839 ef07 febf
00000390: dddb 6201 816b da3f 9f57 273f f5ec 00c0
000003a0: ba19 bf5c b217 f43f fe6b ebed a486 e7bf
000003b0: 097d db0a d1e5 e63f 9020 2bd8 6b44 ecbf
000003c0: a3b1 cbc5 24a5 4cbf dab4 d9bf a3ac 893f
000003d0: 361e cff5 4582 ea3f 6295 a617 20ea e6bf
000003e0: c497 7841 0425 0d40 2b0a 684b 7357 e03f
000003f0: 61d3 b9e9 35b1 e23f bd3f d807 f974 e53f
00000400: 4c9a 3cab a328 ffbf 919f 6145 4cac b73f
00000410: c64e 0269 43fb f3bf 6e7f 423b 55a9 dcbf
00000420: ba79 bae8 a717 f0bf 447d 4e54 5676 d9bf
00000430: 5992 f1da 7658 e1bf ae3c f669 8915 fe3f
00000440: f230 7ae9 4791 b53f 7d89 820f bcc5 a1bf
00000450: 3968 b01f 15c0 ec3f 7d11 fc22 2d1b e73f
00000460: dadb dc35 986b fbbf b369 9252 58db fcbf
00000470: 056b 5669 7684 a4bf 4417 e3cf 35d2 e73f
00000480: cc0d e308 f779 d4bf e291 53c6 5cc9 663f
00000490: 9721 3355 b491 d73f c172 bc7d 208f d53f
000004a0: 4a7b 5a55 435c cb3f ab25 6b3d 9fc7 f3bf
000004b0: fe19 8e3a 2f98 fb3f 3629 42f1 9e92 e2bf
000004c0: e699 fc75 4634 edbf 67d0 531b d590 f33f
000004d0: 4f32 40a6 f937 bd3f ba8f fbbe e763 c5bf
000004e0: dd72 54b0 93f4 7c3f 215f a568 6e67 d8bf
000004f0: eaf4 6a81 2d0e d8bf 95b8 b835 dbb1 ed3f
00000500: 92cf 039a d464 05c0 76c2 64f1 1af8 e53f
00000510: d426 bee7 d64c e1bf c391 080f 6372 eebf
00000520: f8ca 2d69 ee32 efbf 848a eaeb 4f1b 01c0
00000530: d921 8d50 6737 efbf 2518 55c7 18a7 a0bf
00000540: cfb2 91a2 d2b2 f1bf 0a18 dba9 c730 e73f
00000550: 087d aaee 78e1 fbbf c38d e1a4 52c3 e3bf
00000560: 0ebd befc 7f98 c03f f38d ab4f 1acf f1bf
00000570: 036c 0e90 f693 f23f 9314 6669 4489 fcbf
00000580: e5c0 a1a0 79cd d1bf 46f9 e6e3 871d c73f
00000590: 27a2 8f78 fdcc e9bf 7bb9 5678 4ae9 fcbf
000005a0: 7106 36a5 c487 f53f 44c6 7ca9 bd59 e5bf
000005b0: 689c 5866 ee6a d8bf 98c3 7d68 8c7f e23f
000005c0: 059a a705 506a e5bf 8f15 4fc8 814c e5bf
000005d0: efc9 0a81 4821 afbf ff9a cacd 5acf fbbf
000005e0: 670f 4c95 642b c03f 271d 72e0 45ac ef3f
000005f0: 1cf2 3364 85a0 01c0 0308 27e2 f0b8 dbbf
00000600: 3c25 c2ca f17a e8bf db82 6fed c651 e9bf
00000610: e04f 64c3 171c eb3f f9ee 784e 0472 0040
00000620: 8b81 eae2 0e11 93bf 18e7 7762 9734 a93f
00000630: 2abb 24af 6d03 94bf ffcb 7b6e 49e9 f73f
00000640: 03bc 39fc ac52 cfbf 4850 d64c b25e ce3f
00000650: a2aa 7541 b7ea e0bf 95b2 8dc9 a988 c83f
00000660: 18e2 2c09 1f8c f1bf 84ca 8f7c 1233 f83f
00000670: 1be5 2127 346e f6bf bb4b e844 8bbb e3bf
00000680: 57ee a625 996f d7bf 8308 054b c8a7 db3f
00000690: 194b c854 b4e4 c9bf fd19 8a06 6537 c03f
000006a0: 7871 0398 7baa e8bf e9d3 4a4b 178f c43f
000006b0: f5b4 697d 66a7 febf 8b4a eb45 c0a5 c5bf
000006c0: ba24 5ed9 1f65 f0bf 42ab b382 5b6a ff3f
000006d0: d24b b995 1ca1 dc3f 8b21 ec4a 81d1 d03f
000006e0: e254 7313 6560 d33f 3ef4 5c51 265e cebf
000006f0: 2627 a020 f40d ea3f f7a2 868c edb1 0040
00000700: bf8e 1063 9eda 06c0 22fb c59f 1726 00c0
00000710: 4bac bd8a e187 ee3f 7223 0a84 3d78 f3bf
00000720: 26fc ddc3 6ee9 debf 94db 2abf 6dba f8bf
00000730: 577a c995 a2dd f13f d193 31d0 0417 d0bf
00000740: bb37 cced e587 ef3f 3ba1 9778 c6ad e83f
00000750: 3fec 18af f965 cebf d0e9 4e7f 6659 8dbf
00000760: 131b 6cbf 45e6 cf3f 9c0b ae8c 636d d03f
00000770: 4677 51bd 889b e03f 9ec3 3749 5aa3 fa3f
00000780: 0afb 7698 9c5d eebf 8ebd 0724 6928 e83f
00000790: 70b5 7592 9f4a ee3f 8380 1a55 9aa8 febf
000007a0: e93a f81d 1ae3 f53f 5a94 cb3b 9a34 b43f
000007b0: 8247 8453 6ee2 ad3f 8dc0 3551 f0c3 fb3f
000007c0: 3ea4 6460 7e76 d7bf 3550 b74a 810b d1bf
000007d0: deba 37ae fb58 ed3f 1a8e ee2d 8dad e2bf
000007e0: eec1 196f 538c e13f 5f0b 8dd1 fc35 dabf
000007f0: 28c6 60da 7205 e8bf 01c7 f915 e652 f73f
