px915_reproducible/f/MACE_model_f3.model (torch, 961474 bytes, 78 tensors)

r_max f8 []
000000 00 00 00 00 00 00 10 40
       4.0

weight f8 [32]
000000 fb 8a b3 b5 76 5e f1 3f ac c3 6a 45 b0 42 f1 bf
       1.085562429209573 -1.0787813865283438
000010 1c 55 3f 0f 9a 44 85 bf 3f bf 5e a4 ff 55 d4 bf
       -0.0103847537902007 -0.3177489381005109
000020 ac 5a c9 1e 27 a6 a5 bf ed e8 86 51 64 b1 f0 bf
       -0.04228327036678556 -1.0433085617683517
000030 6a 6f 58 b3 81 0a 00 40 66 6f 10 60 aa eb ee 3f
       2.005130196701363 0.9662677646879103
000040 71 3d 26 02 b0 f9 de 3f 16 94 d3 f3 34 fd c0 3f
       0.48398971757793335 0.13272725968923343
000050 f2 8c 5b f5 a0 e7 85 bf 45 8a 11 0d fc 78 ab bf
       -0.010695703017921752 -0.053657414050367204
000060 e0 5c aa 18 13 6b b4 3f f5 52 c6 fd 75 24 f0 3f
       0.07975882866081774 1.0089015877794598
000070 ea 07 07 7d 37 c8 d5 3f c2 f1 cf 3b d2 84 d9 bf
       0.34034526071275073 -0.39873176423114043
000080 65 c1 a3 2a 5f 0d ca bf ef 32 f7 d7 28 8c e2 3f
       -0.20353307325377581 0.5796093195036444
000090 7b a3 33 49 2c 05 d6 bf a3 da 6f 88 b4 e2 f7 bf
       -0.34406573437313853 -1.4928479508941244
0000a0 1b cf 36 65 a8 98 01 40 30 71 ed 11 6b 5d d1 bf
       2.199539938674105 -0.2713267970155071
0000b0 f4 40 c5 81 40 0e fd bf 3e a8 95 ce 02 3f e0 3f
       -1.815979487339118 0.5076917681556166
0000c0 a7 aa 3c 47 a3 5c f6 3f 90 74 9c 4a a3 1d f3 3f
       1.3976166517920008 1.194735804986781
0000d0 01 1c 76 96 ca 25 ab 3f d3 49 27 9b 82 3b ca 3f
       0.05302270018278677 0.20494110656598127
0000e0 f0 cb 46 c6 18 df 9b 3f a3 c8 d0 8e 67 1a f6 3f
       0.02721823415931718 1.3814464167340155
0000f0 b2 80 cc 6d 0c 0c fd 3f 2c 10 e4 0d 07 03 ce bf
       1.8154415406243456 -0.23446739366784308

output_mask f8 [16]
000000 00 00 00 00 00 00 f0 3f 00 00 00 00 00 00 f0 3f
       1.0 1.0
000010 00 00 00 00 00 00 f0 3f 00 00 00 00 00 00 f0 3f
       1.0 1.0
000020 00 00 00 00 00 00 f0 3f 00 00 00 00 00 00 f0 3f
       1.0 1.0
000030 00 00 00 00 00 00 f0 3f 00 00 00 00 00 00 f0 3f
       1.0 1.0
000040 00 00 00 00 00 00 f0 3f 00 00 00 00 00 00 f0 3f
       1.0 1.0
000050 00 00 00 00 00 00 f0 3f 00 00 00 00 00 00 f0 3f
       1.0 1.0
000060 00 00 00 00 00 00 f0 3f 00 00 00 00 00 00 f0 3f
       1.0 1.0
000070 00 00 00 00 00 00 f0 3f 00 00 00 00 00 00 f0 3f
       1.0 1.0

bessel_weights f8 [3]
000000 18 2d 44 54 fb 21 e9 3f 18 2d 44 54 fb 21 f9 3f
       0.7853981633974483 1.5707963267948966
000010 d2 21 33 7f 7c d9 02 40
       2.356194490192345

r_max f8 []
000000 00 00 00 00 00 00 10 40
       4.0

prefactor f8 []
000000 cd 3b 7f 66 9e a0 e6 3f
       0.7071067811865476

p f8 []
000000 00 00 00 00 00 00 10 40
       4.0

r_max f8 []
000000 00 00 00 00 00 00 10 40
       4.0

atomic_energies f8 [2]
000000 ec 04 ea 83 1b 59 2b c0 b7 42 79 bb ac 17 e6 c0
       -13.67403805 -45245.39788497

weight f8 [256]
000000 d2 85 84 ff 30 62 a7 3f 97 28 af d0 c8 e4 f2 bf
       0.04567101592170854 -1.1808555747725558
000010 c8 23 0f c6 1e 80 e8 bf f4 cf 73 b3 d6 95 bc 3f
       -0.765639674028642 0.11166135674631034
000020 70 27 c4 52 af f6 e5 3f e6 98 ea cc 7d 2a f0 3f
       0.6863628975417964 1.010373878912611
000030 76 c0 25 bb 62 ad d8 3f 83 a4 fe 2c 47 07 fc bf
       0.38558262134666366 -1.7517768628697759
000040 a7 ae a6 c0 0d 59 07 c0 29 24 3e 73 65 e2 f4 3f
       -2.9184832621447927 1.3052725316686156
000050 85 0b 81 d8 fa 6b b1 3f 12 a1 2c e9 73 30 f6 bf
       0.06805389199966612 -1.3868292911884663
000060 62 8f 97 55 60 ee fd 3f 04 57 5c d0 23 71 f7 bf
       1.87069734033954 -1.4651220454301788
000070 fa e1 37 f1 17 33 f0 bf 2f 14 03 2a 15 07 c2 bf
       -1.01247400499244 -0.14084114600533001
000080 e0 cc 52 b2 d1 6a dd 3f b8 c0 96 39 ff 3b ed 3f
       0.4596447221221762 0.9135738491804863
000090 30 10 fa 6d d5 67 e2 bf 2a c5 f9 48 f4 d3 f6 bf
       -0.575175013349968 -1.426746640263739
0000a0 ec 77 b0 a4 42 70 f3 bf b9 e8 30 8f 58 0d ea bf
       -1.2149073060204456 -0.8141291424465386
0000b0 93 a8 5f 00 19 f9 e2 3f fb dc 68 f0 00 ed e7 bf
       0.5929074294374622 -0.747681111860316
0000c0 d8 98 84 6d bd 12 ca 3f 0b 0f 08 d5 0e c3 e1 bf
       0.20369689796024804 -0.5550607834597668
0000d0 36 12 c1 d2 67 2c fe bf 36 cb 9f 10 00 c0 e0 bf
       -1.8858412010751073 -0.5234375309649753
0000e0 e6 3b 6a 90 55 cc e0 3f 84 89 54 06 99 d0 db bf
       0.5249431439023027 -0.4346067964380824
0000f0 e1 60 8a 5d d3 a9 e6 bf 84 ea ca f9 2f 89 07 40
       -0.7082306696857154 2.941986037735946
000100 6f 3a 76 6b 9f 0c e0 bf 1a 80 c8 6e cd b1 e0 3f
       -0.501540861021409 0.5217044032797304
000110 34 5e 97 08 08 bd ec bf 5b 08 18 50 cd 9d d7 bf
       -0.8980751197622738 -0.369006469933202
000120 55 9e a3 ec 58 a6 f0 bf d9 88 f5 6d 51 54 f2 3f
       -1.0406121486393165 1.1455854697492696
000130 29 6b ae 4b 5c 92 ef bf 06 ec b1 0f e6 69 e7 bf
       -0.9866162756110032 -0.7316770845931166
000140 aa 8d 0b 6d cf eb d1 bf 7e 47 51 4b 73 33 ef bf
       -0.2800177159208156 -0.975030562500464
000150 a0 89 84 a3 ec 28 b2 3f 80 59 69 31 51 58 f0 bf
       0.07093695633060415 -1.0215618066918921
000160 db 02 2e d1 e6 7e e0 3f 93 02 cf fe 18 96 ff 3f
       0.5154909215489981 1.9741449311697223
000170 8d 37 cc ab ea 08 f5 3f 61 40 3a 78 1c fb d3 3f
       1.3146769247864285 0.31220161190959145
000180 6a db 1c a3 38 da f7 bf 22 37 59 ab 3c 40 b8 3f
       -1.4907766696539633 0.09473017867386749
000190 e4 18 89 0d cf 7b a6 bf f5 16 17 f7 5e d1 e6 3f
       -0.04391333618382179 0.7130579782467225
0001a0 9f 28 0a 8d 1b 0f df bf b6 85 4e b4 8e 95 f0 bf
       -0.4852970959988258 -1.0365130465728334
0001b0 fa 01 99 28 7e 62 de 3f 73 01 c8 2e 89 1f f3 bf
       0.4747615238630086 -1.1951991870301668
0001c0 b7 36 04 9f bb de e7 3f 82 67 2f b5 86 e7 f9 3f
       0.7459390741148216 1.6190249517007662
0001d0 6a 8a bc 55 a0 4c f5 3f c9 c9 20 07 73 05 f1 3f
       1.3312075947839284 1.0638304022255503
0001e0 e9 bf 1f 77 e8 d6 ef 3f 5a 37 16 70 cf be fa 3f
       0.994983894981485 1.671584546889298
0001f0 16 36 bd da a6 4f ce bf a3 48 79 03 e7 e5 c8 bf
       -0.23680577927227436 -0.19451606435410893
000200 37 7b 4e 07 c1 29 d2 3f 09 5d 59 79 4d bf ed bf
       0.28379846299678796 -0.9296023721789491
000210 72 3a ff 1c df 8a f4 3f e2 7c 26 75 8e 1c f1 bf
       1.2839041836447476 -1.0694717956719662
000220 d5 59 40 68 cd 03 db bf b0 8a 12 23 39 b9 d3 bf
       -0.4221070783691208 -0.3081801264290034
000230 8e 82 1a f9 a4 9b de bf f0 5b 13 11 33 42 e4 3f
       -0.4782497818614865 0.6330809911258921
000240 56 2d 21 9b d1 75 fa bf 9d 04 cb 19 e4 76 f4 3f
       -1.6537643489599154 1.2790261275806991
000250 b5 03 1a ce 04 a9 ac 3f 91 eb c5 3c 8f 80 ea 3f
       0.05597701087845711 0.8281933009123909
000260 46 eb 5a 87 7b 71 e0 3f 3f 9e 6c e7 0f d5 e4 bf
       0.5138528484015772 -0.6510085601812036
000270 3a b4 4a db 5c e6 da 3f 6e e9 61 21 fa 7c e1 3f
       0.4203102246781928 0.5465059902192431
000280 31 68 09 31 76 e2 e3 3f ba 6a c1 a0 39 18 fc 3f
       0.6213942487477252 1.7559143332970693
000290 b2 19 5d 74 ef 09 ff 3f 8d 4f 8f ac da ea f3 bf
       1.9399256272750844 -1.2448374500863537
0002a0 cf e5 57 8e 2d f8 77 bf 64 30 6e 9b 2a 3b db bf
       -0.005851915314900548 -0.42548623255493667
0002b0 69 54 9b e0 fc d7 ed bf c2 5f 6f 56 ab e0 cb 3f
       -0.9326156985140531 0.21779386253797212
0002c0 1d 91 70 d8 7d 61 dc 3f 52 e7 e8 d8 2e 24 b5 bf
       0.4434504140538296 -0.08258335872315328
0002d0 9b af cf df f4 38 e0 3f cc 74 44 ed 23 78 ec bf
       0.5069527026475841 -0.8896655687455222
0002e0 72 13 65 0d c9 71 f6 3f fc 18 74 73 1c cb e8 3f
       1.4027796290622203 0.774793839926843
0002f0 85 36 fc e3 59 5d f3 bf 8e 16 12 5a e9 35 e2 3f
       -1.2102908044502396 0.569080997390033
000300 74 6e 5b 90 e0 c7 9d bf e8 a9 f5 f5 33 6d d9 3f
       -0.029082783518659075 0.3972902204465343
000310 5a 95 68 ec ac 0f b3 bf 15 54 c9 4e 41 44 f1 3f
       -0.07445793887798882 1.0791638448329242
000320 55 8d 1c 96 b5 62 e5 3f ce 93 3f 5b c7 3b e9 bf
       0.6682994777551509 -0.7885472089952772
000330 dd e0 c1 d7 13 08 e6 3f 84 b3 fe 69 d4 f9 ef bf
       0.6884860242853638 -0.9992467947209751
000340 98 27 2b 64 72 cc f0 3f 21 36 72 fc 2f f1 f9 bf
       1.0499137795290832 -1.6213836537530215
000350 f8 07 c3 37 f6 ac f0 3f ec 59 af fa ea 89 e9 bf
       1.0422269991108788 -0.7980856796446552
000360 11 03 c2 9c e8 48 ef bf 5d 6b 52 fb 55 96 f4 bf
       -0.9776499807049693 -1.2867030923141194
000370 66 07 b8 3d f3 5e ff 3f 3d a5 b7 6c 3d 41 eb bf
       1.9606811915295679 -0.8517138598810231
000380 73 b0 6c 2d b1 0b c4 3f f2 ef c2 c1 c8 44 fb bf
       0.15660681455608802 -1.7042930191810197
000390 4b cf 35 16 3e 95 c8 bf 5a 0e 67 7c 52 1c e5 3f
       -0.1920545204590048 0.6597073011148027
0003a0 5f cd 8e c1 26 6b af 3f c6 27 15 d8 47 34 e4 3f
       0.06136437523619053 0.6313819141735102
0003b0 a4 31 65 cd c9 0f e0 bf 2b fa e1 eb 3a 7d cd 3f
       -0.501927281534837 0.23038422124587163
0003c0 ad 1b 89 11 ca 42 df 3f 62 12 5a cc c5 17 fa 3f
       0.4884514971967587 1.6308038694852702
0003d0 23 3b 35 87 46 e9 b2 bf 4b 1e 21 a2 58 d5 d5 bf
       -0.07387200165724699 -0.3411466201109518
0003e0 18 85 22 57 6a 6b eb 3f 9f 20 c9 29 42 64 d5 3f
       0.8568622304775628 0.3342442901671436
0003f0 91 f5 cc b9 d9 f8 f6 3f 0b 58 b2 17 b0 11 c0 3f
       1.435754514487915 0.12553979069770124
000400 20 dd 8b 6a 5a 6d e1 bf 81 c3 61 06 12 ac f2 bf
       -0.544598777864767 -1.167009377412086
000410 d7 40 f7 c0 e2 86 d2 bf 0a 50 48 18 a1 76 e1 bf
       -0.2894827732498135 -0.5457311128870981
000420 5d 3e 17 04 d9 e2 ec bf db fa 48 d1 91 62 f4 bf
       -0.9026913719080302 -1.2740648436735487
000430 61 ce 3d 90 ee c7 ce 3f c7 ea 16 7d ca 0b e0 bf
       0.24047643702543822 -0.5014393275408445
000440 e3 5a d5 9a c0 13 e4 bf c6 03 86 fe 12 25 f5 3f
       -0.6274111770715901 1.3215513174366023
000450 2f 33 9e c2 25 3c e7 bf 68 6c ae 7b 45 37 cf bf
       -0.7260922242290685 -0.24387424983146677
000460 d9 9e b7 71 6d 6a e0 bf a7 1e 2c 01 83 c0 e1 3f
       -0.512991640190161 0.5547499678513831
000470 5a 68 71 4b 58 d3 ee 3f 87 bc 55 70 46 a9 ca 3f
       0.9632989381309571 0.2082908676634114
000480 bf 63 2d e6 d1 5a e1 3f 2a 12 32 85 62 91 f8 bf
       0.5423364158297018 -1.5354943469002458
000490 76 c0 dd 15 b0 ab e2 3f 48 e5 37 4d cd c9 d7 bf
       0.5834579875063486 -0.3716920141301512
0004a0 8b 13 65 df ce 72 e3 3f ce f0 5e e1 bb 8b e5 bf
       0.6077646601848853 -0.6733073617720267
0004b0 7e 37 c5 d8 39 af e2 bf ef de 60 ec c3 8d f1 bf
       -0.5838898881718106 -1.0971106751948658
0004c0 ca 65 34 b8 0b 96 f2 bf 11 37 ab 76 4b 90 d1 3f
       -1.161632270383381 0.27443205441237334
0004d0 b4 21 42 20 22 c8 d7 bf e1 93 25 1c a6 ad fb bf
       -0.3715901675245974 -1.7298947429164786
0004e0 99 a9 31 34 20 28 f0 bf 57 84 9b 97 8b 96 cc bf
       -1.0097963370159049 -0.22334427740773563
0004f0 88 6c 90 40 7e 94 d1 bf 42 44 d0 38 73 ef 06 40
       -0.27468830399602284 2.8669189871366436
000500 d5 1f 60 95 b0 b8 d0 bf 23 62 ac 38 72 7f d8 3f
       -0.2612725695366838 0.3827786973429587
000510 67 18 98 42 a3 14 02 40 54 d0 7a 4e 32 4c d2 bf
       2.2600770189920243 -0.28590066589390983
000520 76 90 93 88 25 ef c5 bf ae 6a b4 e8 4a e2 d3 bf
       -0.17136067551394135 -0.310686805010543
000530 c2 39 c0 ec e1 c8 f8 bf 70 5d 75 b7 93 56 e2 bf
       -1.5490435836869527 -0.5730684836552609
000540 d5 73 0e a9 2d 72 f5 bf 2f bc 1a e3 90 6f ff bf
       -1.3403755763786098 -1.964737784506507
000550 e1 eb d4 3f 57 1c e5 bf ae 38 f4 3f a3 92 c8 bf
       -0.6597095724786152 -0.19197502730134403
000560 20 d4 27 84 65 8c b2 bf 1d 86 54 8b 77 a7 cc bf
       -0.07245478130774119 -0.22386068633299852
000570 55 fd 45 8c e6 d7 d7 3f 49 74 65 77 71 0c d9 3f
       0.3725525255067244 0.3913844743709132
000580 5b 7c c7 3b 59 78 e8 bf ca 8f 83 a6 a6 3d ef bf
       -0.7646909873545938 -0.9762757541870937
000590 eb 3b cb 7d c0 03 e6 3f 4d 0d 77 8c 7a ea e9 bf
       0.687957997981241 -0.8098728888948387
0005a0 6f cc 15 d0 91 6e d0 bf 34 05 bc 2f 8a 2b f3 bf
       -0.256748631675868 -1.198129831755364
0005b0 f4 4f a4 ff bf 43 b5 bf 14 ed e2 67 f8 80 db bf
       -0.08306503287559491 -0.42974672455939467
0005c0 85 24 b9 7f e6 b0 e5 bf de 56 8f d7 79 3d e8 bf
       -0.6778442854494108 -0.7575043878702805
0005d0 65 08 a0 bb 24 0a 93 bf 3b db 5e f8 fc 9b f5 3f
       -0.018593381835679063 1.3505830480550702
0005e0 fe db 48 83 84 2b f8 3f 05 51 2f f0 25 38 ec bf
       1.5106244209580377 -0.881854027853962
0005f0 0f 7f 00 b0 83 95 a3 bf cf c6 47 6a d5 fc dc 3f
       -0.03825007937871138 0.4529317415136633
000600 e1 65 c5 64 6a 33 e2 bf 5b ff c9 2c 17 c6 da 3f
       -0.5687763183770437 0.4183404862778752
000610 69 61 f2 0a 72 33 d9 bf 2e c9 11 99 6d a7 c5 3f
       -0.3937649828817685 0.16917200063796528
000620 14 50 b9 da e3 ab e9 3f 82 5d 40 f5 6b 3b e8 3f
       0.8022326728773828 0.7572536268298082
000630 3e 08 b3 4c d9 ba b6 bf b8 b7 ee e2 60 c5 f0 3f
       -0.08878858683149901 1.0481881012487815
000640 57 39 2d ba cc 0e d2 3f b8 a2 36 06 78 b4 c1 bf
       0.2821533029681595 -0.13831997207059543
000650 ef 03 cf d2 5f 77 b3 3f f8 81 48 61 96 0e ed bf
       0.07604025742240571 -0.9080306911528728
000660 07 a4 85 7f 3c e5 f1 3f 28 83 d6 c8 a6 5f cb 3f
       1.1184658986405809 0.21385655218639354
000670 ed 61 73 d7 61 3c d3 3f fe 46 cd 1e c3 a5 e6 3f
       0.30056043663128557 0.7077346421812931
000680 ff 97 c6 5e fe e1 c8 bf 77 aa c8 3b 31 dd e3 bf
       -0.1943967783710718 -0.6207510154393522
000690 1a ef a7 65 4b 79 f2 bf 2e 41 fa 30 e1 22 d8 3f
       -1.1546129198968118 0.3771288851067024
0006a0 10 3b 68 3b b2 e9 da 3f a5 7f 87 cc 21 b3 f6 bf
       0.4205136852405511 -1.4187334050584266
0006b0 a6 a8 9f de 46 ef f6 bf c0 2c bd ef fe 90 fc bf
       -1.4334171959149358 -1.7853993763736042
0006c0 18 88 ab 16 c4 15 cf bf 23 aa 80 8a 20 90 c4 3f
       -0.24285174471793947 0.1606484104425628
0006d0 68 55 2e 75 16 c9 f8 bf 43 f1 8f 72 a9 a9 f6 3f
       -1.5490936829931687 1.4164213633622047
0006e0 c8 ca 56 73 1c 4f e9 bf 26 7e 1d b6 6e b1 ee 3f
       -0.7909071209636176 0.9591592366159076
0006f0 81 47 5d cf c5 a2 f2 3f ed 1e 9c ab 0b 91 f3 3f
       1.1647394275828165 1.2229115203389782
000700 54 22 f6 13 d8 66 bb bf 7f 96 03 a9 19 32 dd 3f
       -0.10703802573528637 0.45618287568354526
000710 5e 6d 8a 06 14 3a e4 bf 9d 11 6a 5c ee 2c c3 bf
       -0.6320896270512255 -0.14980868828218954
000720 9a 00 3e 5f e6 eb df 3f 4c 1d 3e b1 c7 c0 e9 3f
       0.4987731866931512 0.8047827207346159
000730 b0 99 54 6c d3 aa ee 3f 86 a4 12 89 36 e2 db 3f
       0.9583527675466055 0.43568194757478584
000740 23 33 63 e4 e5 56 f6 bf 39 23 7d ea a9 07 cd 3f
       -1.3962153359781915 0.22679637860917426
000750 1d 71 a9 c6 df 8f db bf 42 72 c4 d1 a9 90 f3 bf
       -0.4306563797051853 -1.2228182024038152
000760 3d ab 93 06 b5 df f8 bf 5a e3 f7 c8 de 0d e5 3f
       -1.5546159989268766 0.6579431462442742
000770 03 d4 ff 3e 6a e8 f4 3f 74 57 2d bc 45 ad f1 3f
       1.3067419491683274 1.1048028326672155
000780 6f 04 d1 9c a9 c3 f9 bf 64 b2 23 9d 64 2f f7 bf
       -1.6102691770213615 -1.4490705621966748
000790 0a 68 05 f2 00 56 e2 3f 71 04 de ae 9e bf f0 bf
       0.5729984976744629 -1.0467821913482818
0007a0 d1 8b ac a3 76 e9 f4 bf b2 a2 5f 9e 50 6b e5 3f
       -1.3069979089275316 0.6693499654039299
0007b0 6d f7 69 7f 1b d2 d0 bf 59 18 e9 6e ac 7f e5 3f
       -0.2628239387776066 0.6718351522656675
0007c0 21 17 2f cf 06 0b d7 3f db a7 3f 1d 8f 65 72 bf
       0.36004801018531124 -0.00449138549809366
0007d0 f5 10 ce ce 71 dc e9 3f b9 51 a9 52 4a 3b f6 bf
       0.8081597365531069 -1.3894751767121376
0007e0 86 9d e4 34 3b a1 ee bf 74 77 71 41 c9 c8 f5 3f
       -0.9571815522257772 1.3615200573326236
0007f0 19 94 07 03 f9 53 d7 bf 61 cf 40 d3 99 04 f6 bf
       -0.36450028701648446 -1.3761232616497738

output_mask f8 [16]
000000 00 00 00 00 00 00 f0 3f 00 00 00 00 00 00 f0 3f
       1.0 1.0
000010 00 00 00 00 00 00 f0 3f 00 00 00 00 00 00 f0 3f
       1.0 1.0
000020 00 00 00 00 00 00 f0 3f 00 00 00 00 00 00 f0 3f
       1.0 1.0
000030 00 00 00 00 00 00 f0 3f 00 00 00 00 00 00 f0 3f
       1.0 1.0
000040 00 00 00 00 00 00 f0 3f 00 00 00 00 00 00 f0 3f
       1.0 1.0
000050 00 00 00 00 00 00 f0 3f 00 00 00 00 00 00 f0 3f
       1.0 1.0
000060 00 00 00 00 00 00 f0 3f 00 00 00 00 00 00 f0 3f
       1.0 1.0
000070 00 00 00 00 00 00 f0 3f 00 00 00 00 00 00 f0 3f
       1.0 1.0

output_mask f8 [256]
000000 00 00 00 00 00 00 f0 3f 00 00 00 00 00 00 f0 3f
       1.0 1.0
000010 00 00 00 00 00 00 f0 3f 00 00 00 00 00 00 f0 3f
       1.0 1.0
000020 00 00 00 00 00 00 f0 3f 00 00 00 00 00 00 f0 3f
       1.0 1.0
000030 00 00 00 00 00 00 f0 3f 00 00 00 00 00 00 f0 3f
       1.0 1.0
000040 00 00 00 00 00 00 f0 3f 00 00 00 00 00 00 f0 3f
       1.0 1.0
000050 00 00 00 00 00 00 f0 3f 00 00 00 00 00 00 f0 3f
       1.0 1.0
000060 00 00 00 00 00 00 f0 3f 00 00 00 00 00 00 f0 3f
       1.0 1.0
000070 00 00 00 00 00 00 f0 3f 00 00 00 00 00 00 f0 3f
       1.0 1.0
000080 00 00 00 00 00 00 f0 3f 00 00 00 00 00 00 f0 3f
       1.0 1.0
000090 00 00 00 00 00 00 f0 3f 00 00 00 00 00 00 f0 3f
       1.0 1.0
0000a0 00 00 00 00 00 00 f0 3f 00 00 00 00 00 00 f0 3f
       1.0 1.0
0000b0 00 00 00 00 00 00 f0 3f 00 00 00 00 00 00 f0 3f
       1.0 1.0
0000c0 00 00 00 00 00 00 f0 3f 00 00 00 00 00 00 f0 3f
       1.0 1.0
0000d0 00 00 00 00 00 00 f0 3f 00 00 00 00 00 00 f0 3f
       1.0 1.0
0000e0 00 00 00 00 00 00 f0 3f 00 00 00 00 00 00 f0 3f
       1.0 1.0
0000f0 00 00 00 00 00 00 f0 3f 00 00 00 00 00 00 f0 3f
       1.0 1.0
000100 00 00 00 00 00 00 f0 3f 00 00 00 00 00 00 f0 3f
       1.0 1.0
000110 00 00 00 00 00 00 f0 3f 00 00 00 00 00 00 f0 3f
       1.0 1.0
000120 00 00 00 00 00 00 f0 3f 00 00 00 00 00 00 f0 3f
       1.0 1.0
000130 00 00 00 00 00 00 f0 3f 00 00 00 00 00 00 f0 3f
       1.0 1.0
000140 00 00 00 00 00 00 f0 3f 00 00 00 00 00 00 f0 3f
       1.0 1.0
000150 00 00 00 00 00 00 f0 3f 00 00 00 00 00 00 f0 3f
       1.0 1.0
000160 00 00 00 00 00 00 f0 3f 00 00 00 00 00 00 f0 3f
       1.0 1.0
000170 00 00 00 00 00 00 f0 3f 00 00 00 00 00 00 f0 3f
       1.0 1.0
000180 00 00 00 00 00 00 f0 3f 00 00 00 00 00 00 f0 3f
       1.0 1.0
000190 00 00 00 00 00 00 f0 3f 00 00 00 00 00 00 f0 3f
       1.0 1.0
0001a0 00 00 00 00 00 00 f0 3f 00 00 00 00 00 00 f0 3f
       1.0 1.0
0001b0 00 00 00 00 00 00 f0 3f 00 00 00 00 00 00 f0 3f
       1.0 1.0
0001c0 00 00 00 00 00 00 f0 3f 00 00 00 00 00 00 f0 3f
       1.0 1.0
0001d0 00 00 00 00 00 00 f0 3f 00 00 00 00 00 00 f0 3f
       1.0 1.0
0001e0 00 00 00 00 00 00 f0 3f 00 00 00 00 00 00 f0 3f
       1.0 1.0
0001f0 00 00 00 00 00 00 f0 3f 00 00 00 00 00 00 f0 3f
       1.0 1.0
000200 00 00 00 00 00 00 f0 3f 00 00 00 00 00 00 f0 3f
       1.0 1.0
000210 00 00 00 00 00 00 f0 3f 00 00 00 00 00 00 f0 3f
       1.0 1.0
000220 00 00 00 00 00 00 f0 3f 00 00 00 00 00 00 f0 3f
       1.0 1.0
000230 00 00 00 00 00 00 f0 3f 00 00 00 00 00 00 f0 3f
       1.0 1.0
000240 00 00 00 00 00 00 f0 3f 00 00 00 00 00 00 f0 3f
       1.0 1.0
000250 00 00 00 00 00 00 f0 3f 00 00 00 00 00 00 f0 3f
       1.0 1.0
000260 00 00 00 00 00 00 f0 3f 00 00 00 00 00 00 f0 3f
       1.0 1.0
000270 00 00 00 00 00 00 f0 3f 00 00 00 00 00 00 f0 3f
       1.0 1.0
000280 00 00 00 00 00 00 f0 3f 00 00 00 00 00 00 f0 3f
       1.0 1.0
000290 00 00 00 00 00 00 f0 3f 00 00 00 00 00 00 f0 3f
       1.0 1.0
0002a0 00 00 00 00 00 00 f0 3f 00 00 00 00 00 00 f0 3f
       1.0 1.0
0002b0 00 00 00 00 00 00 f0 3f 00 00 00 00 00 00 f0 3f
       1.0 1.0
0002c0 00 00 00 00 00 00 f0 3f 00 00 00 00 00 00 f0 3f
       1.0 1.0
0002d0 00 00 00 00 00 00 f0 3f 00 00 00 00 00 00 f0 3f
       1.0 1.0
0002e0 00 00 00 00 00 00 f0 3f 00 00 00 00 00 00 f0 3f
       1.0 1.0
0002f0 00 00 00 00 00 00 f0 3f 00 00 00 00 00 00 f0 3f
       1.0 1.0
000300 00 00 00 00 00 00 f0 3f 00 00 00 00 00 00 f0 3f
       1.0 1.0
000310 00 00 00 00 00 00 f0 3f 00 00 00 00 00 00 f0 3f
       1.0 1.0
000320 00 00 00 00 00 00 f0 3f 00 00 00 00 00 00 f0 3f
       1.0 1.0
000330 00 00 00 00 00 00 f0 3f 00 00 00 00 00 00 f0 3f
       1.0 1.0
000340 00 00 00 00 00 00 f0 3f 00 00 00 00 00 00 f0 3f
       1.0 1.0
000350 00 00 00 00 00 00 f0 3f 00 00 00 00 00 00 f0 3f
       1.0 1.0
000360 00 00 00 00 00 00 f0 3f 00 00 00 00 00 00 f0 3f
       1.0 1.0
000370 00 00 00 00 00 00 f0 3f 00 00 00 00 00 00 f0 3f
       1.0 1.0
000380 00 00 00 00 00 00 f0 3f 00 00 00 00 00 00 f0 3f
       1.0 1.0
000390 00 00 00 00 00 00 f0 3f 00 00 00 00 00 00 f0 3f
       1.0 1.0
0003a0 00 00 00 00 00 00 f0 3f 00 00 00 00 00 00 f0 3f
       1.0 1.0
0003b0 00 00 00 00 00 00 f0 3f 00 00 00 00 00 00 f0 3f
       1.0 1.0
0003c0 00 00 00 00 00 00 f0 3f 00 00 00 00 00 00 f0 3f
       1.0 1.0
0003d0 00 00 00 00 00 00 f0 3f 00 00 00 00 00 00 f0 3f
       1.0 1.0
0003e0 00 00 00 00 00 00 f0 3f 00 00 00 00 00 00 f0 3f
       1.0 1.0
0003f0 00 00 00 00 00 00 f0 3f 00 00 00 00 00 00 f0 3f
       1.0 1.0
000400 00 00 00 00 00 00 f0 3f 00 00 00 00 00 00 f0 3f
       1.0 1.0
000410 00 00 00 00 00 00 f0 3f 00 00 00 00 00 00 f0 3f
       1.0 1.0
000420 00 00 00 00 00 00 f0 3f 00 00 00 00 00 00 f0 3f
       1.0 1.0
000430 00 00 00 00 00 00 f0 3f 00 00 00 00 00 00 f0 3f
       1.0 1.0
000440 00 00 00 00 00 00 f0 3f 00 00 00 00 00 00 f0 3f
       1.0 1.0
000450 00 00 00 00 00 00 f0 3f 00 00 00 00 00 00 f0 3f
       1.0 1.0
000460 00 00 00 00 00 00 f0 3f 00 00 00 00 00 00 f0 3f
       1.0 1.0
000470 00 00 00 00 00 00 f0 3f 00 00 00 00 00 00 f0 3f
       1.0 1.0
000480 00 00 00 00 00 00 f0 3f 00 00 00 00 00 00 f0 3f
       1.0 1.0
000490 00 00 00 00 00 00 f0 3f 00 00 00 00 00 00 f0 3f
       1.0 1.0
0004a0 00 00 00 00 00 00 f0 3f 00 00 00 00 00 00 f0 3f
       1.0 1.0
0004b0 00 00 00 00 00 00 f0 3f 00 00 00 00 00 00 f0 3f
       1.0 1.0
0004c0 00 00 00 00 00 00 f0 3f 00 00 00 00 00 00 f0 3f
       1.0 1.0
0004d0 00 00 00 00 00 00 f0 3f 00 00 00 00 00 00 f0 3f
       1.0 1.0
0004e0 00 00 00 00 00 00 f0 3f 00 00 00 00 00 00 f0 3f
       1.0 1.0
0004f0 00 00 00 00 00 00 f0 3f 00 00 00 00 00 00 f0 3f
       1.0 1.0
000500 00 00 00 00 00 00 f0 3f 00 00 00 00 00 00 f0 3f
       1.0 1.0
000510 00 00 00 00 00 00 f0 3f 00 00 00 00 00 00 f0 3f
       1.0 1.0
000520 00 00 00 00 00 00 f0 3f 00 00 00 00 00 00 f0 3f
       1.0 1.0
000530 00 00 00 00 00 00 f0 3f 00 00 00 00 00 00 f0 3f
       1.0 1.0
000540 00 00 00 00 00 00 f0 3f 00 00 00 00 00 00 f0 3f
       1.0 1.0
000550 00 00 00 00 00 00 f0 3f 00 00 00 00 00 00 f0 3f
       1.0 1.0
000560 00 00 00 00 00 00 f0 3f 00 00 00 00 00 00 f0 3f
       1.0 1.0
000570 00 00 00 00 00 00 f0 3f 00 00 00 00 00 00 f0 3f
       1.0 1.0
000580 00 00 00 00 00 00 f0 3f 00 00 00 00 00 00 f0 3f
       1.0 1.0
000590 00 00 00 00 00 00 f0 3f 00 00 00 00 00 00 f0 3f
       1.0 1.0
0005a0 00 00 00 00 00 00 f0 3f 00 00 00 00 00 00 f0 3f
       1.0 1.0
0005b0 00 00 00 00 00 00 f0 3f 00 00 00 00 00 00 f0 3f
       1.0 1.0
0005c0 00 00 00 00 00 00 f0 3f 00 00 00 00 00 00 f0 3f
       1.0 1.0
0005d0 00 00 00 00 00 00 f0 3f 00 00 00 00 00 00 f0 3f
       1.0 1.0
0005e0 00 00 00 00 00 00 f0 3f 00 00 00 00 00 00 f0 3f
       1.0 1.0
0005f0 00 00 00 00 00 00 f0 3f 00 00 00 00 00 00 f0 3f
       1.0 1.0
000600 00 00 00 00 00 00 f0 3f 00 00 00 00 00 00 f0 3f
       1.0 1.0
000610 00 00 00 00 00 00 f0 3f 00 00 00 00 00 00 f0 3f
       1.0 1.0
000620 00 00 00 00 00 00 f0 3f 00 00 00 00 00 00 f0 3f
       1.0 1.0
000630 00 00 00 00 00 00 f0 3f 00 00 00 00 00 00 f0 3f
       1.0 1.0
000640 00 00 00 00 00 00 f0 3f 00 00 00 00 00 00 f0 3f
       1.0 1.0
000650 00 00 00 00 00 00 f0 3f 00 00 00 00 00 00 f0 3f
       1.0 1.0
000660 00 00 00 00 00 00 f0 3f 00 00 00 00 00 00 f0 3f
       1.0 1.0
000670 00 00 00 00 00 00 f0 3f 00 00 00 00 00 00 f0 3f
       1.0 1.0
000680 00 00 00 00 00 00 f0 3f 00 00 00 00 00 00 f0 3f
       1.0 1.0
000690 00 00 00 00 00 00 f0 3f 00 00 00 00 00 00 f0 3f
       1.0 1.0
0006a0 00 00 00 00 00 00 f0 3f 00 00 00 00 00 00 f0 3f
       1.0 1.0
0006b0 00 00 00 00 00 00 f0 3f 00 00 00 00 00 00 f0 3f
       1.0 1.0
0006c0 00 00 00 00 00 00 f0 3f 00 00 00 00 00 00 f0 3f
       1.0 1.0
0006d0 00 00 00 00 00 00 f0 3f 00 00 00 00 00 00 f0 3f
       1.0 1.0
0006e0 00 00 00 00 00 00 f0 3f 00 00 00 00 00 00 f0 3f
       1.0 1.0
0006f0 00 00 00 00 00 00 f0 3f 00 00 00 00 00 00 f0 3f
       1.0 1.0
000700 00 00 00 00 00 00 f0 3f 00 00 00 00 00 00 f0 3f
       1.0 1.0
000710 00 00 00 00 00 00 f0 3f 00 00 00 00 00 00 f0 3f
       1.0 1.0
000720 00 00 00 00 00 00 f0 3f 00 00 00 00 00 00 f0 3f
       1.0 1.0
000730 00 00 00 00 00 00 f0 3f 00 00 00 00 00 00 f0 3f
       1.0 1.0
000740 00 00 00 00 00 00 f0 3f 00 00 00 00 00 00 f0 3f
       1.0 1.0
000750 00 00 00 00 00 00 f0 3f 00 00 00 00 00 00 f0 3f
       1.0 1.0
000760 00 00 00 00 00 00 f0 3f 00 00 00 00 00 00 f0 3f
       1.0 1.0
000770 00 00 00 00 00 00 f0 3f 00 00 00 00 00 00 f0 3f
       1.0 1.0
000780 00 00 00 00 00 00 f0 3f 00 00 00 00 00 00 f0 3f
       1.0 1.0
000790 00 00 00 00 00 00 f0 3f 00 00 00 00 00 00 f0 3f
       1.0 1.0
0007a0 00 00 00 00 00 00 f0 3f 00 00 00 00 00 00 f0 3f
       1.0 1.0
0007b0 00 00 00 00 00 00 f0 3f 00 00 00 00 00 00 f0 3f
       1.0 1.0
0007c0 00 00 00 00 00 00 f0 3f 00 00 00 00 00 00 f0 3f
       1.0 1.0
0007d0 00 00 00 00 00 00 f0 3f 00 00 00 00 00 00 f0 3f
       1.0 1.0
0007e0 00 00 00 00 00 00 f0 3f 00 00 00 00 00 00 f0 3f
       1.0 1.0
0007f0 00 00 00 00 00 00 f0 3f 00 00 00 00 00 00 f0 3f
       1.0 1.0

weight f8 [3, 64]
000000 b4 95 36 35 1c 6b df 3f eb 0b d0 5f da 69 f4 bf
       0.49091248699763956 -1.2758430235560307
000010 b0 4b 4d fe 1e 8e d5 bf 38 93 40 da 74 30 c0 bf
       -0.33679938158200695 -0.1264787736592099
000020 8c 91 75 69 8c 96 f3 3f 5c 8c ea cd c7 c4 f5 bf
       1.2242550010206257 -1.3605421107866027
000030 14 b6 ab 8c 16 da f6 bf 53 50 ba 28 af 19 ff bf
       -1.4282441611243302 -1.9437705603532052
000040 77 37 b5 a3 d3 4d fb bf 76 a8 ec 0f a1 f5 e2 bf
       -1.7065006632651298 -0.5924840270065619
000050 64 e4 02 86 22 6a d7 3f 0e 78 88 82 3f e2 e2 3f
       0.36585295760193604 0.5901181745027786
000060 61 09 52 6c 7f 58 f2 bf 97 d1 de 56 56 ab e6 3f
       -1.146605895163326 0.7084151932418078
000070 d3 fb 11 e5 e3 1c f8 3f b6 94 8d 33 c9 ee da 3f
       1.5070532749229997 0.42082433733441904
000080 57 85 b8 88 b5 86 e5 bf 59 df d1 e6 43 4a db bf
       -0.672693984062941 -0.4264077905750035
000090 3d 52 d9 b0 2c 4b d3 3f d1 a6 49 2f 3b 88 fa bf
       0.3014632918396137 -1.6582595679450842
0000a0 38 b3 3b 1c 2f 2f de 3f 74 95 20 8b 4f 5e 01 c0
       0.47162988431118746 -2.1710501546210086
0000b0 32 0f 3e c8 19 4e d4 3f b5 dc c1 f7 d0 73 cd 3f
       0.3172668891422631 0.2300969323875727
0000c0 14 51 39 6a b3 26 c2 bf af 69 0f 2e 60 00 ac bf
       -0.14180605589593454 -0.054690366385062965
0000d0 ea 61 a5 f7 69 05 eb 3f c9 9f d4 71 ac 4b e0 bf
       0.8444108807407791 -0.5092375014546572
0000e0 d0 83 e6 d9 3e 7e f2 3f d1 04 0b 02 9e 94 f1 bf
       1.1558216583000451 -1.0987835006529176
0000f0 43 fd cd 89 08 f9 f7 3f 55 8d d1 ea c8 c9 d3 bf
       1.498299158381841 -0.3091909688138988
000100 2b 5c 48 5d 61 73 f1 3f 5e d0 be 23 8e a1 fe bf
       1.0906690257886662 -1.9144421955397983
000110 56 f9 12 bc 9a 74 c1 bf 48 72 68 1f 29 01 cd 3f
       -0.13637098487192628 0.2265979197844834
000120 fc fc 00 f0 94 05 fe bf ba 09 71 c6 3c 4c 0d c0
       -1.8763627410078803 -3.6622252944227656
000130 6a f9 16 20 bb b0 f4 bf 7d fe f6 51 62 2c f0 3f
       -1.2931472066407772 1.0108359529257591
000140 43 c4 33 b1 f9 3d bb bf 9e 3f e8 a9 c9 84 b9 3f
       -0.10641441894746699 0.09968243024945742
000150 58 3c cb 6e fc 9b e8 bf fc c0 c2 7a 8a cf 83 bf
       -0.7690412677710681 -0.009673196669922828
000160 42 74 9d 26 44 19 e8 3f c4 85 c2 e3 23 4f 03 40
       0.7530842546654031 2.4136426728952944
000170 f0 40 d6 c6 50 93 f8 bf 32 fc 60 1e 3a f6 cb bf
       -1.5359657065455927 -0.2184517525037975
000180 bb d9 67 5c 36 a6 e5 bf 20 64 6b 82 5f 2c f2 3f
       -0.6765395932005086 1.1358332724105438
000190 f9 4d b8 34 84 f8 fa bf a4 94 07 04 05 26 c2 3f
       -1.6856729564068458 0.14178526589163198
0001a0 a3 2f 63 b7 60 28 00 c0 92 e5 6b db 2f 46 f8 bf
       -2.019715721811694 -1.517135483851551
0001b0 22 51 3c 2d 39 b6 ec bf 61 c1 a6 18 9f 7f ec 3f
       -0.8972440608509127 0.890578792712443
0001c0 28 d5 c9 af 1e 9a ea 3f 42 c5 cd ed 09 fc fc 3f
       0.831313460671173 1.8115329064570038
0001d0 26 b2 4c c5 9b 03 d6 3f db f3 cb 63 8a 35 f4 bf
       0.343970244098076 -1.263071431952304
0001e0 6c e9 72 be 07 df c0 3f 57 3a f6 19 ab de da 3f
       0.1318063430715698 0.4198405984433626
0001f0 e3 b6 2a 21 be 74 e0 bf 78 28 35 1d df 49 8f 3f
       -0.5142508170881367 0.015277617529722884
000200 36 64 43 aa 97 a8 d0 bf b1 1e 50 c2 9f e6 03 40
       -0.2602900660254507 2.4876094036770486
000210 42 0b e0 60 b4 05 e4 3f 8d 61 35 5d fe 5d f6 3f
       0.6256963626950454 1.3979476586301616
000220 cc 11 1c 20 55 42 ed bf 29 66 4c 3d ea 3f e3 bf
       -0.9143472315923247 -0.60155212375975
000230 c1 91 ba 2c ff 89 00 40 42 c9 e1 67 cb 2a f3 bf
       2.067381238406796 -1.1979478891267523
000240 54 91 11 40 f5 1f f5 3f f3 e7 9f 5e c2 d8 e0 3f
       1.3203022482567421 0.5264598701608051
000250 ad 87 1e a3 fe 74 ce 3f f2 62 09 34 37 7b df bf
       0.23794539418036945 -0.4918954857035224
000260 40 1a 1f bd ed 50 c2 bf 9c 26 a2 da 04 a3 db bf
       -0.14309474691818203 -0.4318248877612889
000270 7f 72 2f 00 5e 9b e2 3f eb d9 6e e8 90 87 ee 3f
       0.5814657214755953 0.9540485896785048
000280 70 63 00 31 ee 1b da 3f 69 67 b2 53 b0 ce c2 3f
       0.4079547384767954 0.14693264090311267
000290 84 38 77 fe f0 d6 d2 bf 42 ec 99 dd f3 5e f8 3f
       -0.29436898088614094 1.5231817871379154
0002a0 c4 bd e4 69 27 f0 db 3f 51 13 5e fc d7 e1 c9 3f
       0.4365328344456112 0.20220470259314507
0002b0 2c 90 86 b8 b5 32 fa bf c3 bf cb 06 84 40 e0 bf
       -1.6373803337128363 -0.5078754551632233
0002c0 a7 a6 e3 8b 39 d1 e4 bf 12 46 85 2d d2 ea ac 3f
       -0.6505401355945722 0.056479042107309266
0002d0 1c 08 91 86 70 82 ee bf 6d bf de e3 1d 50 02 40
       -0.9534227970364131 2.28911951087496
0002e0 3e 3f 3d 54 d5 ed e4 bf 6a 51 5c 72 c6 93 e2 bf
       -0.6540323872850207 -0.5805389627080733
0002f0 47 d9 4d fd ec 65 f1 bf a7 c0 30 1a 4e b2 f1 3f
       -1.0873842138949656 1.1060315154136704
000300 30 3b ba 56 95 68 f1 bf cf b2 2e 71 c2 86 e9 3f
       -1.0880330455581309 0.7977001391023694
000310 46 ad d3 28 01 6c e3 3f c8 99 e0 28 d5 c9 eb 3f
       0.606934146633116 0.8683877752671885
000320 38 58 3d 3f ba 07 f1 3f b0 d4 b7 ab b1 c5 dc bf
       1.0643866033838218 -0.44956628579468383
000330 46 18 91 61 65 06 f0 bf 97 e7 00 bd b7 4c cf bf
       -1.0015615283205235 -0.24452873924911664
000340 77 42 c7 fa a1 c6 e0 3f df cb 45 64 33 4d e7 3f
       0.5242471597685626 0.7281739195299187
000350 56 d0 dc 57 77 fe da bf b2 5d 5d c1 84 f8 d8 3f
       -0.42178138332679305 0.3901683700873618
000360 f6 85 1a 62 69 eb de bf e8 2b 24 7c 10 1e a1 bf
       -0.4831183870356591 -0.03343249812504451
000370 5f 4c 41 4a ee 79 e3 bf 50 41 0e 1a 74 69 d1 3f
       -0.6086341333670012 0.27206137222767257
000380 b3 82 97 5d b4 d3 c0 3f 6c 42 09 99 72 0b f5 bf
       0.13146071023858993 -1.3152948358512289
000390 6e a4 2e 87 8c eb e2 3f 41 76 d0 96 9f 90 fe 3f
       0.591253532436111 1.9103084460433737
0003a0 70 c1 40 08 4b 1b f1 3f 6b 9e e1 f4 44 35 70 3f
       1.069163353193371 0.0039570516220020875
0003b0 39 44 df 90 ea 2a dd bf 21 83 a1 b7 0e c2 dd bf
       -0.4557444014326993 -0.4649693291922166
0003c0 88 02 1e ef 63 9d fa bf e2 59 51 b4 2b 04 db 3f
       -1.663425382663407 0.4221295605579184
0003d0 34 7d 89 25 b7 e9 e5 bf 9c 19 46 7d c6 41 da 3f
       -0.6847797139306864 0.4102646087052564
0003e0 56 d0 b5 20 ba 3b eb bf bd e9 cd 76 97 86 cf bf
       -0.8510409010764401 -0.2462949113940577
0003f0 0b 4c 3c ba 83 2b fe 3f b6 b2 b6 fa 6f 60 98 3f
       1.8856236719918822 0.02380537955984848
000400 c7 64 4c b2 32 6f 9b 3f e3 7c 38 47 3a 46 e2 3f
       0.026791374332877618 0.5710727110889845
000410 27 44 2b 21 8d 70 d7 bf 57 a4 2e ab 70 15 07 c0
       -0.3662445854106999 -2.8854688047036166
000420 05 5b 67 29 80 56 c9 3f 23 e0 ec 2e b1 56 f8 3f
       0.19795228978792792 1.5211650689143503
000430 6f cb 4a c6 ac 46 f1 bf e2 5d 1f 48 64 13 06 40
       -1.0797546144283066 2.759468615967976
000440 37 5a 2c ca 4b 7e d4 3f 5a bb ce d1 af 65 c2 bf
       0.3202084993694458 -0.14372823471554846
000450 f6 a0 42 da ee 56 d8 bf 90 05 4b 20 80 ad e1 bf
       -0.38030597033004143 -0.5524292593692497
000460 d1 9a 2e 3c 95 2e fb bf 3c 4d ac 0f 75 2a ef bf
       -1.6988727904187508 -0.9739327722658468
000470 dc 29 53 4a 99 99 01 c0 bb 69 4b 34 61 cb f0 bf
       -2.1999994093541613 -1.0496532480961906
000480 cb 31 87 1e be 77 a8 bf 68 c2 2b e5 58 83 bd 3f
       -0.04778856394441141 0.11528544993394407
000490 25 db 86 17 c0 62 a9 3f 53 e2 22 de df ae e2 3f
       0.04958153044883876 0.5838469828223175
0004a0 88 94 12 8a b0 44 e3 bf 86 15 00 85 c8 fa f0 bf
       -0.6021349617700631 -1.0612263865781144
0004b0 8e 30 a8 20 e3 3c f3 3f da c3 8b b2 1d 14 f3 3f
       1.2023650432265955 1.192411134190698
0004c0 e6 4b 64 b4 02 33 ff 3f 18 9b 0b d1 ef a1 91 bf
       1.9499537512353924 -0.017219302305330947
0004d0 18 51 58 17 4b cb f7 bf 9b 1b d1 57 e9 f6 f9 bf
       -1.4871321594155855 -1.622781127008898
0004e0 e0 10 55 ba dd ea e2 3f cd 06 ec b7 cd bd 01 c0
       0.5911701812078967 -2.217677533045253
0004f0 04 75 07 6f 9b 02 c3 3f c7 b5 d1 5e 3a 5b f4 3f
       0.14851706429809763 1.2722724632143227
000500 7d ba 54 e1 8e a9 d6 3f 6a 78 95 2d 41 0d fc 3f
       0.3540990067003021 1.75323598676871
000510 ce 52 f2 41 6d a8 dc bf 03 fd ea 9a 02 c1 ec bf
       -0.447779955292657 -0.8985608125439345
000520 6b 95 c9 36 67 28 f7 3f fe 77 03 09 a3 a6 05 c0
       1.4473640575536943 -2.706365652483327
000530 f7 9c f6 dc 56 94 fc bf 8a 00 3a c9 f7 a6 ec bf
       -1.7862156516437702 -0.895381825466772
000540 f3 14 65 22 9b a1 e2 bf e0 94 5c 09 2c 3f e7 bf
       -0.5822272941374237 -0.7264614279598867
000550 5d e9 d6 69 8e 64 01 40 24 ac 0c 84 bd 12 d3 bf
       2.174099757071572 -0.29801881690463206
000560 83 ce cf d5 97 92 9c 3f 3d 56 02 f8 ff 8c 03 c0
       0.027902958321603066 -2.443847596713367
000570 e9 68 69 1d 1e af b2 3f f8 cc 27 7d 2d 26 cc bf
       0.07298458307323909 -0.21991509066683768
000580 7a c7 08 db 34 72 cc 3f 85 91 c0 69 0c 83 e2 3f
       0.22223530478509784 0.5784971299622589
000590 27 b9 7d 16 1e 96 d7 3f 65 cf 0e c0 87 10 e4 3f
       0.3685374469413482 0.627017855751984
0005a0 1f db e2 33 eb da 04 c0 d6 6a 17 76 11 06 ea 3f
       -2.6068939260106982 0.8132407480692005
0005b0 12 4c 04 e2 b2 93 ed 3f a0 9d a2 bb db 0b a1 bf
       0.9242796339407298 -0.033293596892060906
0005c0 7d c2 a8 0a bd 9a f2 3f 67 95 07 24 76 28 f5 bf
       1.162777940404481 -1.3223782927901426
0005d0 cb c7 4e 45 64 57 d5 3f f6 64 c0 a1 98 ec c3 bf
       0.3334589649995194 -0.1556578435709423
0005e0 2b 18 ac 37 6c 46 04 40 2c f6 4e 71 8a 1b c7 bf
       2.534386095942883 -0.1805279782546888
0005f0 73 1e 39 62 c5 d1 f2 bf c1 5d 76 e5 fa db 93 3f
       -1.1762136303749713 0.01939384484793805

weight f8 [64, 64]
000000 22 2d 5c ed b4 ed e8 3f 0a 67 fc 9d 6f aa cd 3f
       0.7790169368685478 0.2317637940803297
000010 d3 9f f4 41 ec 98 ef bf d8 d5 b8 87 44 3e e5 bf
       -0.9874173439211468 -0.663851037103707
000020 12 8b 06 fa c3 f8 f4 bf 92 1f 7a 38 96 41 be 3f
       -1.3107337729094906 0.11818827513536537
000030 03 7c 38 ef 5e ac ec bf 52 67 8c 06 5f e0 d3 3f
       -0.89604136202604 0.3105695308637354
000040 c0 ff 62 a0 02 b0 f7 bf 38 e2 4b 3e 89 5c fc 3f
       -1.480471254835706 1.7725918229535989
000050 92 a7 c0 7f d1 34 e9 3f a0 b3 fe 38 95 64 df 3f
       0.7876975531737449 0.49051409307394955
000060 eb 38 e8 da fe 56 cb 3f a0 d9 92 a6 32 3d a5 bf
       0.2135923928148665 -0.04148252757424875
000070 1e 4c 74 73 d0 97 fe bf 6c 5d 12 ed df 8a ec 3f
       -1.9120640287335458 0.8919524793918021
000080 75 15 cc 1c 76 13 ac bf 81 94 17 c9 c1 e6 f3 3f
       -0.054835978522571084 1.243837152019552
000090 20 6b 9f 90 97 b0 f5 bf ce 69 7e d3 26 82 f6 3f
       -1.3556132935834242 1.406775308749832
0000a0 b7 bd 0c d7 d3 8b de bf dc 48 ba 14 52 0f ce 3f
       -0.47728439331964573 0.23484254848569364
0000b0 34 eb 25 32 9f cc 06 c0 88 fc 7b 26 b9 4a e7 bf
       -2.8499130170652283 -0.7278714896819034
0000c0 7a f9 d3 29 2f f6 fe 3f ca 6c 60 80 f1 f3 ea 3f
       1.9351035722644085 0.84227824281279
0000d0 36 21 9c 07 5d 2b bf bf b6 9d bb e2 dc 55 f4 3f
       -0.12175542293346528 1.2709626061203898
0000e0 c9 33 7f fb 14 fe e2 3f 59 63 c3 bc d6 77 e5 bf
       0.593515864567615 -0.6708787619382789
0000f0 99 76 3e 2c 7e 57 ca bf fa e7 d3 b0 f1 38 e3 3f
       -0.20579507027007507 0.6007011846224934
000100 ec ef 20 7a 3f 62 ff bf a0 a1 0f 17 96 cd b1 bf
       -1.9614863176966493 -0.06954324782385024
000110 59 85 dc 3a da 45 e0 3f 56 35 d5 41 93 21 fa 3f
       0.5085269117009076 1.6331970759959709
000120 90 df c8 e9 9e bb fd 3f df 2d ef 3f 2c 6b e2 3f
       1.8583058483327228 0.5755826233593629
000130 26 82 5c 69 ee 13 ef 3f 77 ae 62 89 1c bc f9 3f
       0.9711830194319802 1.6084256521816351
000140 fe 47 76 0b 6c 98 e7 bf 32 46 1e 0a 73 f6 e7 bf
       -0.7373562072627917 -0.7488341519949187
000150 71 1c b2 fb a8 9e e9 bf 0c 20 36 41 cd 21 e1 bf
       -0.8006176868374394 -0.5353761933956789
000160 6f 90 4d e4 a8 48 f4 bf b5 74 92 9a f4 be df 3f
       -1.2677391927800519 0.4960299977772807
000170 2d 30 21 23 c8 30 da 3f f3 80 d7 43 24 2d f1 bf
       0.40922740393284834 -1.0735209131308323
000180 1f 2f 3d 5f b9 29 e2 bf 7c e9 05 24 34 94 e4 bf
       -0.5675932750832294 -0.6430912688804677
000190 9e ed 82 c0 1d 12 ee bf da a4 95 38 51 7c f9 3f
       -0.9397114524830845 1.5928508959134917
0001a0 c3 71 f8 26 29 20 f0 3f ae 2e 22 80 65 da e4 bf
       1.0078517458233456 -0.6516597273452669
0001b0 d5 eb da 67 6f 47 d8 3f 01 23 94 3f da 6f af bf
       0.3793600572786862 -0.06140024210077933
0001c0 aa dc b0 aa 04 f8 ea 3f f0 0d 8f f3 79 db e2 3f
       0.8427756627851484 0.5892915493972719
0001d0 30 54 73 e4 32 e0 dd bf a4 fb 83 22 2b fa c4 3f
       -0.46680900869006603 0.16388453660326008
0001e0 36 d7 d2 33 1c 2f e0 3f 72 9f 88 e4 91 c2 bd bf
       0.5057507526569001 -0.11625015096126193
0001f0 6f 6f 65 3a ec fd c7 bf fb e1 25 18 21 fe d2 bf
       -0.18743660785082336 -0.29676081999016873
000200 b3 79 42 0d ea d4 d3 bf 3a 60 a4 07 ae 66 f1 bf
       -0.3098702554215393 -1.0875683115500707
000210 d7 41 a0 66 c7 67 fa bf 1d 6c 7c 4f 05 06 f5 3f
       -1.6503366478756243 1.3139699082300986
000220 bc c6 ac 34 52 d4 f1 bf 04 b9 61 24 4c d8 c1 bf
       -1.114336210023267 -0.1394133737225688
000230 55 a0 6c e9 eb b5 f2 bf 0f c6 63 b8 86 bf e2 3f
       -1.1694144361627157 0.5858796693193556
000240 44 c2 5b b0 42 2b eb bf 78 d9 f3 1f 40 14 a2 3f
       -0.8490308231831212 0.0353107489590227
000250 bd 13 e0 9e b3 f3 e5 3f 20 75 6c ff 76 64 df bf
       0.6859987357171274 -0.49050688689915667
000260 82 c9 ff a5 d1 8b e0 bf dc fe 49 8c 2f 36 f1 3f
       -0.5170677416011105 1.0757289390602898
000270 8d 60 3b 1f 4c 47 d0 bf 4e 48 a2 67 cf 6d e7 3f
       -0.25435164499277435 0.7321545623874586
000280 2a 28 58 9b 30 71 fd bf b3 de 72 c6 5a cf e9 3f
       -1.8401342456950354 0.8065618396712665
000290 65 3e 0c ef 57 69 af bf fc a7 3d fa 81 bd da 3f
       -0.0613505820566587 0.41781663358290166
0002a0 45 ea e3 58 e4 79 b2 3f 52 54 03 6a 23 be f3 3f
       0.07217242403195552 1.2339204922802947
0002b0 d6 1e 15 11 99 9b c2 3f 91 17 a2 eb dd 92 ec bf
       0.14537347158533603 -0.8929280855379479
0002c0 39 a5 1e b3 1d 6d 00 c0 92 9e b0 c3 6d f8 f3 bf
       -2.053279303906177 -1.2481515545022472
0002d0 11 e3 68 ec 37 ad e9 bf a2 91 c9 00 98 00 ed 3f
       -0.8023948304536096 0.9063224807146535
0002e0 b8 df dc 59 b6 97 00 40 dc a0 45 a1 48 1d cd 3f
       2.0740782757311216 0.22745616793259316
0002f0 bb e5 b3 a4 4c 9e cf 3f 21 05 75 dd 61 aa cd 3f
       0.24701841394543841 0.23176215470633912
000300 1b 61 81 40 3a 51 db bf 1c 0f d0 ab b0 d4 d2 3f
       -0.4268327360091619 0.29423157480799644
000310 79 dc 9e fc a7 73 07 c0 c4 48 0b f6 41 77 eb bf
       -2.93147275314146 -0.8583078198955936
000320 ef c9 e4 70 11 20 d5 bf fe 46 e7 2f 11 76 c0 3f
       -0.3300822832563019 0.12860312308344385
000330 1c d6 ec 01 94 11 eb 3f 83 d6 40 09 35 05 a7 3f
       0.8458957707977706 0.044961602572965574
000340 f6 95 27 a9 f2 69 f0 3f aa 3c 6b 41 bd 8f f6 3f
       1.0258661849596797 1.4100925975251735
000350 d6 fe ab d2 6f 9e d5 bf 23 45 9f 2b 72 01 db bf
       -0.33779521535323676 -0.4219632555005594
000360 89 a9 dd c7 df 56 01 40 4a 6d b9 45 10 0b e3 bf
       2.1674190153618764 -0.5951005327037049
000370 6c 9c a9 13 be 90 df 3f 8e d1 3f 78 fd 86 02 c0
       0.4932093803421995 -2.315913142631138
000380 2c 57 54 c7 49 e5 bb bf 2b e3 c5 f5 f5 0c e3 bf
       -0.10896741024438644 -0.5953321266416415
000390 50 e1 b4 32 8a c4 bc 3f dc 1f 6c af 48 36 ee bf
       0.1123739599032707 -0.9441264559000007
0003a0 50 df e6 36 22 bc 02 c0 82 6e 3a 45 5e 99 ee 3f
       -2.3418621339041366 0.9562217094530328
0003b0 78 dd cc 44 68 ce e3 3f d1 54 8e 17 c6 e1 fa bf
       0.6189462035899131 -1.6801205558925185
0003c0 ef b4 59 bf 4b 8e ee 3f dd c3 b6 78 69 27 e6 bf
       0.9548701035797914 -0.6923110349363203
0003d0 20 31 e2 66 3c 34 f5 bf 1d 1a 31 1f 75 b4 df bf
       -1.32525291623012 -0.49538925214838675
0003e0 3c b1 2d 02 89 c9 cb bf e4 79 7c e1 ab 6b f6 3f
       -0.21708786589022988 1.4012869651847888
0003f0 6a 63 14 a6 fa 9d d8 3f 5a 45 2c e6 97 42 ef 3f
       0.3846422788497451 0.9768790717663862
000400 44 e6 a4 e7 ef 81 e8 bf 14 03 b1 96 25 e4 ea bf
       -0.7658614658641416 -0.8403499549095579
000410 57 31 f1 a9 34 ee e3 3f de f2 d2 2d 2b 3c cc 3f
       0.6228278464491649 0.22058620202542206
000420 6c c6 e1 5e f7 ea 60 3f 93 7d ef b3 15 18 d9 bf
       0.002065165658728321 -0.39209501811816344
000430 d9 9e ea af 65 46 f3 3f 68 40 eb b6 13 05 c0 bf
       1.2046868201959369 -0.1251549380454009
000440 a0 cd 44 48 87 0b df bf 66 7f 7e e3 56 b9 c8 3f
       -0.48507864053245875 0.19315610988723647
000450 d8 62 eb 77 4b 46 f1 bf 53 f2 70 f3 3b 2e d0 bf
       -1.0796618160585947 -0.2528219106059499
000460 4d 43 90 6d c2 8f ee bf cf 7a 46 51 e5 82 e3 3f
       -0.9550487651741634 0.6097284877212931
000470 85 73 dc 1f a2 4b e9 3f 4d 83 c9 bf 61 47 e4 bf
       0.7904825804031225 -0.6337136026232685
000480 d3 44 00 cd c2 d2 ec 3f de aa d2 8d a6 c2 dc 3f
       0.9007276538779031 0.4493805298795176
000490 10 f2 57 3c 6c 30 fa 3f ad 1a 67 29 39 73 ef 3f
       1.636821971623366 0.9828153427741505
0004a0 30 66 93 fc d6 a6 ee 3f 6c cf 1b da e6 fb da bf
       0.9578661854859032 -0.4216248636214377
0004b0 84 31 a4 6d a7 50 ed 3f e6 93 24 0f 6e 01 e9 bf
       0.9160954610284056 -0.7814245506057176
0004c0 59 b4 46 bd fb 40 e9 3f ce ab a9 a3 f1 a7 ea bf
       0.789182538681085 -0.8330009647883061
0004d0 37 ca 06 17 91 8a d5 3f af d3 e8 78 f7 19 d1 bf
       0.33658244370159046 -0.26720988090101633
0004e0 6b 22 1b bb 4e e4 e4 3f a2 c2 66 70 81 a9 d3 bf
       0.6528695730604118 -0.3072208020849222
0004f0 2b d6 bb 28 56 8f bb bf cf c4 b1 f5 dc 76 06 40
       -0.10765589231945032 2.8080386347652175
000500 f3 a3 95 33 9c 5a ea 3f 71 13 2c 52 fb da a8 bf
       0.8235608108053597 -0.04854569795683162
000510 a9 ab 9a 0e b8 ba 01 40 0a 37 84 0f 58 e0 d1 bf
       2.2161713734580712 -0.2793178702857949
000520 ca 85 e8 f7 67 7b cd 3f 35 58 a4 74 93 4d e7 3f
       0.23032855610749287 0.7282197263873572
000530 cf 40 25 8e 0c 87 ee 3f b8 48 e2 e6 83 d4 c1 3f
       0.953985479000062 0.13929795049313554
000540 11 8c c7 8e c4 b7 00 c0 cb 49 d1 ee 7e 4a df 3f
       -2.089730372872062 0.4889218647196258
000550 db 7e 36 fb 5b 27 e3 3f c3 4c 9a eb d1 b0 f5 bf
       0.5985546022893361 -1.3556689456207074
000560 b0 d3 35 17 55 71 f7 bf c7 2a 3d 6c 4c 56 e2 3f
       -1.465169039406856 0.5730344881097488
000570 1c 1d 87 3a c9 f8 01 c0 44 87 f6 d1 f3 3c c5 3f
       -2.2464775631411964 0.1659226203165024
000580 12 12 44 59 6c a0 80 bf af c8 a6 af d9 9a ef 3f
       -0.008118483041934108 0.9876526289647439
000590 ee 7a b1 15 09 af e1 3f ce 99 d5 97 f7 cc 4a 3f
       0.5526166366288103 0.0008178910208414493
0005a0 b2 c8 c3 dd 59 0d e8 3f 15 53 c4 06 af 90 d9 3f
       0.7516297656386739 0.39945579205350273
0005b0 06 84 97 60 c6 59 c0 bf 3d 89 6d 91 bb 3e d3 3f
       -0.12773971287154512 0.3007038994020553
0005c0 6b 3c 49 3d 50 92 e9 bf 49 df 86 47 14 1e bd 3f
       -0.7991105267518724 0.11374022241841177
0005d0 51 b7 2e ca b4 d4 e7 bf 97 53 8f 18 33 8a e7 bf
       -0.7447151135327009 -0.7356200675663896
0005e0 42 37 8d a7 3f 60 d6 bf 9b d3 a0 85 9d 5b eb bf
       -0.34962455141509363 -0.8549335107733101
0005f0 80 d1 e1 35 cf 58 e0 bf 8e 9e 22 c1 59 62 f6 bf
       -0.5108409931549858 -1.3990113777489657
000600 ca 19 dd 82 ad d1 ff bf 84 cc 9d de 32 ba f5 3f
       -1.9886908637869163 1.3579586692765426
000610 6b 46 cf 13 82 34 c1 3f 0b 00 ee 63 7d 71 f6 3f
       0.13441492049473722 1.4027074721816486
000620 77 20 73 c9 bb ea 00 40 87 84 cc 8f e0 0f ca 3f
       2.1146159876116672 0.20360953351431396
000630 01 f8 6d 4c b9 78 e2 bf d6 d6 1f 7e 45 dc f2 3f
       -0.577236794735427 1.178777210877731
000640 5a 5c 28 6d 9f 4c ec 3f ea a3 6d d1 62 e9 e6 bf
       0.8843533641801387 -0.7159895029445782
000650 9c 18 6a 79 25 15 fc 3f 3e 52 96 16 c2 49 f6 bf
       1.755162691378735 -1.3930073625862316
000660 68 ab 97 1e 70 52 01 c0 56 45 58 db aa 9a e3 3f
       -2.165252913478458 0.6126302990034371
000670 1d a1 25 da c5 bd db 3f 2c a6 ba e3 8c 86 11 40
       0.43345781615654905 4.3813968260451865
000680 e8 59 a0 db c7 78 e1 bf f4 24 a3 d0 32 69 f6 3f
       -0.5459937371804786 1.4006832265752651
000690 f4 4b aa 2e 30 9e f2 3f af 62 d1 bd 9e 9e da bf
       1.1636201689586843 -0.4159314016047046
0006a0 82 0e 58 2d 11 09 f6 3f ba 02 32 73 48 18 c2 3f
       1.3772136470078356 0.14136605858586454
0006b0 ef 97 04 e3 60 31 e5 bf a5 39 cd 31 33 87 02 c0
       -0.6622776445335584 -2.3160156145815614
0006c0 68 bd 99 ea ff b6 f2 bf c5 60 ab 72 6a 1a cb bf
       -1.169677654655823 -0.2117436466130639
0006d0 6e 6f 49 29 1d 2e f8 bf bf 83 e8 55 0e 3c 8c 3f
       -1.5112582791107019 0.013786422726356549
0006e0 d4 64 31 33 72 26 e5 3f e3 37 c9 b4 78 97 f3 3f
       0.6609431266653254 1.2244803487733342
0006f0 24 25 28 ad 7d a6 f5 bf e9 9c d9 ff 30 11 cc 3f
       -1.3531471980989602 0.21927464001348732
000700 bb a5 2d 20 88 60 d6 3f 3b fd 78 a7 9e 75 e0 bf
       0.3496418298951444 -0.5143578787755482
000710 56 1a 93 5c f9 53 f4 bf 04 04 44 e2 a0 9c f9 bf
       -1.2705014816471212 -1.600739368295991
000720 d7 81 f1 19 88 f5 f1 3f bd 27 fb 71 28 71 b1 3f
       1.1224442494786808 0.0681329038881406
000730 fa 55 4a 9d 80 95 f1 3f d8 7b c8 cf bf 59 d8 bf
       1.0989996093898058 -0.38047786036798703
000740 fa fd 25 b9 39 8e d0 bf 42 8c 98 9e c1 f5 02 40
       -0.25868075447939953 2.369998206167595
000750 94 38 ea f5 16 71 f7 bf d1 93 e4 a8 0a 66 f1 bf
       -1.4651097875644483 -1.0874125096681733
000760 c9 04 f9 bb 60 29 ee bf c1 2b ac 9f af ca d5 3f
       -0.9425510093061799 0.3404959735204863
000770 e4 fe 40 02 08 0e f6 3f 2e 14 b2 80 60 25 f1 bf
       1.3784256065409233 -1.0716252352879212
000780 90 5f 49 94 76 0f a7 bf cb 76 a8 bf 7d 41 e0 bf
       -0.04503984985484444 -0.5079945319482361
000790 34 d3 4e 0f 70 de e6 3f 76 7f 72 d1 46 36 f1 bf
       0.7146530436499234 -1.0757511312039845
0007a0 21 8f 1f 04 58 57 e6 bf 1a 77 bf 7c 4b 6c f4 bf
       -0.6981620865376251 -1.2764391777959134
0007b0 70 28 56 bf 06 6c 04 c0 c1 c2 42 a0 bf 6f b8 3f
       -2.5527472446602175 0.09545514738671114
0007c0 4f 51 cb 0b d6 dc f1 bf af 83 39 95 32 04 e5 3f
       -1.1164150677405649 0.6567624010605096
0007d0 b5 9f 13 6c 1a 3c f0 bf 28 4d 79 49 c7 5f f5 bf
       -1.0146736356491435 -1.3358834142753242
0007e0 d6 d6 38 26 db b7 dd bf 59 80 4a 15 88 11 d8 bf
       -0.4643466828596109 -0.37607004241181624
0007f0 db 33 78 d7 15 0d f6 3f 98 0b 34 6c 55 4f d6 bf
       1.3781946579722362 -0.34859214369515135
