px915_reproducible/b/MACE_model_b4.model (torch, 961474 bytes, 78 tensors)

r_max f8 []
0	0x4010000000000000	4.0

weight f8 [32]
0	0xbf979314a1edc1c4	-0.02302200544676382
1	0x3f4c409d895cdeca	0.0008621949407147886
2	0xbfa5ecea6d2aa2d4	-0.04282314856147243
3	0xbfe61c1a74ce6082	-0.6909305840845408
4	0xbfa1317da3b3ae28	-0.03358070967973631
5	0xbf8b86bfb6e48efb	-0.013440606850572126
6	0xbfe32d42e7cd7290	-0.5992750670807983
7	0xbf50c1a87f8e7b48	-0.0010227342120072303
8	0x3fd573f775325dd3	0.3352030415057616
9	0x3fc0360fda9d205f	0.12664983915806524
10	0x3fda1579447f458c	0.407560650722268
11	0x3fe1a1b7a70d2484	0.5509908926698164
12	0xc003be3f42716697	-2.4678940955025825
13	0x3f9f8d552334df03	0.03081257846244424
14	0xbff0a8efd875cdb1	-1.0412443595385918
15	0xbf788ab92e04f134	-0.00599167190403831
16	0xbfe74783db874c80	-0.7274798667589408
17	0xbfc80a3474a11a7f	-0.18781142897406153
18	0xbfb9b24597a3fce2	-0.10037646248018775
19	0x3fae9dae14ef7d64	0.0597967529827155
20	0xbfe8316ae2093af4	-0.7560324110762324
21	0x3fe152e1d18cc065	0.5413674443025341
22	0x3ffee46e740b4ea4	1.9307693989730206
23	0xbfe2b584db51c4cd	-0.5846580775816165
24	0xbfcb908beedf72d2	-0.21534871257508442
25	0x3fee4de2e892c6ca	0.9470076124618683
26	0xbfebd1481c41e943	-0.8692970802215217
27	0x3ff1cf6f03351aa9	1.113142979172759
28	0xbfdb6eafbbbeec4e	-0.4286307652907383
29	0x3fdd8795d144ee87	0.46140046535922646
30	0x3ff652aacf5cf41b	1.3951824283715328
31	0x3facee1ab38f666d	0.056504091662373

output_mask f8 [16]
0	0x3ff0000000000000	1.0
1	0x3ff0000000000000	1.0
2	0x3ff0000000000000	1.0
3	0x3ff0000000000000	1.0
4	0x3ff0000000000000	1.0
5	0x3ff0000000000000	1.0
6	0x3ff0000000000000	1.0
7	0x3ff0000000000000	1.0
8	0x3ff0000000000000	1.0
9	0x3ff0000000000000	1.0
10	0x3ff0000000000000	1.0
11	0x3ff0000000000000	1.0
12	0x3ff0000000000000	1.0
13	0x3ff0000000000000	1.0
14	0x3ff0000000000000	1.0
15	0x3ff0000000000000	1.0

bessel_weights f8 [3]
0	0x3fe921fb54442d18	0.7853981633974483
1	0x3ff921fb54442d18	1.5707963267948966
2	0x4002d97c7f3321d2	2.356194490192345

r_max f8 []
0	0x4010000000000000	4.0

prefactor f8 []
0	0x3fe6a09e667f3bcd	0.7071067811865476

p f8 []
0	0x4010000000000000	4.0

r_max f8 []
0	0x4010000000000000	4.0

atomic_energies f8 [2]
0	0xc02b591b83ea04ec	-13.67403805
1	0xc0e617acbb7942b7	-45245.39788497

weight f8 [256]
0	0x3fe15ac93922862f	0.5423322788157686
1	0x3ff09e83861a3019	1.038699649655433
2	0xbf999e1082641607	-0.025017030676300702
3	0xbff9683cf625812e	-1.5879487624261617
4	0x3ff94f97652409ec	1.5819314909755304
5	0x3fcf5d84d94ee6bb	0.24504147158386566
6	0x3ffd8f707d7df3b0	1.8475193883925662
7	0xbfe21fe22ddc5844	-0.566392030307505
8	0x3fe2cb5299f5f9ed	0.5873196608588934
9	0xbfe1c365a4cedc90	-0.555102178469399
10	0x3ff4c5b1fbf1f5c6	1.298265442047851
11	0x3fd471e072d8e56c	0.31945048537780596
12	0xbff68f911dcbb91c	-1.4100505031488586
13	0x4000b31d6c98497b	2.087458465955192
14	0x3fa01a6b108bf754	0.03145155503260236
15	0x3ff084110ed7567d	1.0322428302510211
16	0xbfe23aa467444b7f	-0.5696584717683065
17	0x3fef0b34f10e85e3	0.9701180179728762
18	0x3fcdf6f0a31e0831	0.2340985104056599
19	0x3fbfbd4a7af55d0f	0.12398210050502122
20	0x3fe45a4557afb85d	0.6360193932175765
21	0xbff2d69a7c069de9	-1.1773934216270112
22	0x3ff0ffa518cd949d	1.0624133080357645
23	0x3fec20ca1d56fd21	0.8790026257555931
24	0xbfde5b7db08fed4f	-0.47433416597751415
25	0xbfe2b8bc3b29c9ce	-0.5850506930858559
26	0xbff35e1080c0a09e	-1.2104649571793185
27	0xbff034cb1a53afe3	-1.0128890064615852
28	0xbf9c04eca7184681	-0.02736253518930321
29	0xbfd88f1febed0e66	-0.3837356380429128
30	0x3fbec9cee5e3f5c6	0.12026684868393209
31	0xbfdefe8b31984706	-0.48428611605878336
32	0xbfcb178cce081acb	-0.21165618953837959
33	0xbff4a1ef928e91fe	-1.2895351147536753
34	0xbfb50a96ad117382	-0.08219281888291444
35	0xbfe4703c78477bcb	-0.6387007092670215
36	0x3fe25305a77929e7	0.5726345320666127
37	0x3fd5044c0ea94446	0.3283872740913164
38	0x3fa23c2610591ac1	0.03561514806329092
39	0xbfe04a299593e9e5	-0.509053032058827
40	0x3ff6481b64a04ca2	1.3926042490682353
41	0xbfc3d9a6fd4b5fab	-0.15507972114460009
42	0x3fc4a486490ddc79	0.1612708908757872
43	0x3fd2c7c587003382	0.29344309028311255
44	0xbff85d8aa0764152	-1.5228372829479508
45	0x3ff342260995661d	1.203649556575676
46	0xbfb25b4a37dca6d4	-0.0717054735547678
47	0xbfd598d803f5c417	-0.3374538458511451
48	0x3ff78607a0e8188c	1.4702221188941023
49	0xbfe8e4212f14a3e0	-0.7778478545707195
50	0x3fee155b4bed04d7	0.9401070101668222
51	0xbfdbd71072ec89f5	-0.4350014803223126
52	0xbfd5ecb2ab3d5fd3	-0.3425718948615188
53	0x3fe6135027ecd048	0.6898575572763628
54	0xbfd6056fcd949cad	-0.34408183170530543
55	0xbfe0d39fa03c6747	-0.525832951508371
56	0xbfeb2e7ffc9f10a8	-0.8494262632380201
57	0xbffd8c5641f95b18	-1.8467619492636853
58	0xc0002addf4b896a2	-2.020931159861747
59	0xbfd55ec01f9e1260	-0.3339081105007491
60	0xbfe272b0b96be12a	-0.5765002843391234
61	0xbfe3343c163a2fee	-0.6001263078810533
62	0x3ff6cb8dcfe31c1c	1.4246957893935877
63	0x3fe2a9f4a5bc0582	0.5832465397835878
64	0x3fff44688abdae2b	1.9542012614791797
65	0xbfb452be4b398b1d	-0.07938756310026603
66	0x3f8f6e4f2cc27d6a	0.015347116998156014
67	0xbfdeefc94de6909e	-0.4833853970287779
68	0xbfd92d1eb1a2c273	-0.3933789000248346
69	0x3feacff4ea2072f1	0.837885339049164
70	0xbfee0bfe9e7f7c76	-0.9389641853012012
71	0x3fe5592975ba56ca	0.6671340274212636
72	0xbff5c8dbaffec2a6	-1.3615376353083462
73	0x3fe0f784bb8b846c	0.5302146590221475
74	0xbfff0bc8825d4d6f	-1.9403767673837498
75	0x3fbff368992649bc	0.12480787028315538
76	0xbfc2bb4909078ea4	-0.14634049359221024
77	0x3fd4bded28657598	0.324092187356507
78	0xbfef5e19575310a8	-0.9802366929584609
79	0x3fe0a9be83019c71	0.5207207258907954
80	0x3ff573428bf8d9e1	1.3406396358164943
81	0xbfb4123c47b474d2	-0.0784032511769113
82	0xbfcfc62378c75656	-0.2482342090358311
83	0x3fce6fb5227637d2	0.23778404410080484
84	0xbfdb5a04e8a4faa6	-0.42736933440384417
85	0x3fce68e91d719adc	0.2375766176002888
86	0xbfc6359d57c56242	-0.17351118837065554
87	0x3ff8d2ec5310e8cd	1.5514949078338305
88	0x3ff765aca4fe1b4f	1.4623228497527696
89	0xbf7b5ff86a2ca7a2	-0.006683321352093959
90	0x3fd6b9713b9b156d	0.3550685007179116
91	0x3fa70d0818ed0faf	0.04502129844925606
92	0x3f9c2d6602268a1d	0.027516931420573088
93	0xbfec89e313328ad0	-0.8918319106054131
94	0x3fd6146c400c8bfd	0.34499651198183284
95	0xc000e41075848b24	-2.111359518153579
96	0x3fd7dd31285bdb6f	0.37287548962870337
97	0x3ff0a5627a1d40dd	1.0403771181191168
98	0xbfdcd588ce5cc0aa	-0.45053310539789015
99	0xbfd37274431251e9	-0.3038607268329359
100	0x3fcac97bea5638cc	0.20927380506731763
101	0x3fd857a4ad770aeb	0.3803493207926027
102	0xbff491d7864fa976	-1.2856059309511614
103	0xbffdca8acc62571b	-1.861948774695924
104	0x3fe13505adebc2e8	0.5377224347012914
105	0xbfdc1fd45844a13b	-0.4394427167885799
106	0xbfe5132a086a1c37	-0.6585893787713591
107	0x3ff58d31dc2610a7	1.346971378284289
108	0xbfe51b9a653d1ee8	-0.6596195199317352
109	0x3fff5fe0f201416c	1.960907883960398
110	0x3ffbe276e5d30352	1.7427891709814571
111	0x3f4607eeca1f5a48	0.0006723323788218683
112	0xbfded9f2af3af72c	-0.48205248939835843
113	0xbff40bcdae86cd01	-1.252881700271985
114	0x3fcccde1c3563784	0.2250330165665525
115	0x3fd655f95410c5b9	0.34899743279956
116	0xbff6308674141d0e	-1.386846974784763
117	0x3fa657b6f56ef3f9	0.04363795991910275
118	0xbfe87303abbb1e91	-0.764039836322768
119	0x3fe450459ca96360	0.6347988185690205
120	0xbff2537a4ac81cf9	-1.1453802987251136
121	0x3ff2c4f7e8be5a86	1.1730879870935111
122	0x3fe036d21e30b0a8	0.506691988911844
123	0xbff4d137e85aeb46	-1.3010787083027977
124	0xbfcfc99c0fca1994	-0.24834013720483183
125	0xbfe729f576fa7a0e	-0.7238719295308458
126	0xbfc3ceb4a1fbb5f6	-0.15474565419519565
127	0xbfd1b853bbbf2655	-0.27687543234478557
128	0x3fe721113f24c8fb	0.7227865441584805
129	0xbff5ff3453fb96f8	-1.3748057632996602
130	0xbfe1c71224a6eca7	-0.5555506435261081
131	0xbff8b7dee04c33a8	-1.544890285647151
132	0xbff4831c18a55d04	-1.2820092165691799
133	0xbff3f24be2a601ca	-1.2466544011550575
134	0x3fed355aa6506342	0.9127629516907307
135	0x3fb82f9f0d6f7ea8	0.09447664335265904
136	0x3fd47f21a82dbe13	0.32025948928546305
137	0x3fec2ecab5dc0436	0.8807118942205594
138	0x3fd24e396695765d	0.2860244275851523
139	0x3fdc4da1b8aa192c	0.4422382644046532
140	0x3fdfec32a7f520e6	0.49879137422659736
141	0x3fca552f3e7cc3ef	0.20572462607518058
142	0xbfcbfecaa35c9d15	-0.21871312119149225
143	0xbfb5022be2e84d3e	-0.082064383408853
144	0xbff91cf50cc3da3f	-1.5695696352610324
145	0x3fba0250decf219d	0.10159783782649474
146	0x3fcbc15f1a78fe08	0.21683872978790952
147	0x3ff0c321a2a31426	1.0476394989975772
148	0x3fe80fbc7b126a44	0.751920929312583
149	0x3fe04c0bc3949b57	0.5092829532558011
150	0x3fd9d3cee7914df9	0.40355274786017464
151	0xbff5f9a2244610e6	-1.3734456459943032
152	0xbfe78c9894eb08ee	-0.7359126003796328
153	0x3fd39323decef270	0.305855720125499
154	0x3fe5e40533e8b751	0.684084512123926
155	0x3fa880b22a1faf4f	0.047856872217237105
156	0x3ff705a868d275b6	1.4388813109029406
157	0xbfffa62b5bd9d55a	-1.9780686939169159
158	0xbfb955f1711738b6	-0.09896763812068596
159	0x3ff0b30815bfbf88	1.0437088822909306
160	0xbfd293185c88981b	-0.29022797619325197
161	0x3fe3348f78340ceb	0.6001660678597579
162	0x3fdea52bc8860c02	0.4788312395323261
163	0xbfc9fe34fd0c2232	-0.20307028156118317
164	0x3fe47abf46eea482	0.6399837861437307
165	0xbff835a91b57ea2d	-1.5131007259466387
166	0xbfb1e14aebc9f495	-0.0698439431816545
167	0xbff89c91bbe64a68	-1.5382249202563347
168	0xc00260b3c42dc50b	-2.297217877051144
169	0x3fe8ab43841e1128	0.7709062176150256
170	0x3ff05686fde8f6dc	1.0211248319969206
171	0x3fe6948e4372607b	0.7056342427558912
172	0x3fdee0874512f9fc	0.48245412583847247
173	0xbfd8fddfd9890252	-0.3904952644698244
174	0xbfd666fa110fc511	-0.3500352064721293
175	0x40047f84734e429b	2.562264347863971
176	0xbfecb63f5676df87	-0.8972469986683657
177	0xbfb0649e51feadbb	-0.06403531553103552
178	0xbffdc9c60f7c6918	-1.8617611508294143
179	0xbfcdaec08234f003	-0.23189550740960393
180	0x3ff95d078746fced	1.5852122577924164
181	0x3feb1b59db32ede2	0.8470887452344267
182	0xbff8706dee4af3cc	-1.5274485882102793
183	0xc0040fcac356d87f	-2.5077109585645867
184	0xbfc07f4392f96ebd	-0.12888378788453805
185	0xbfb42647ca953a4b	-0.07870911308166588
186	0xbfe55d08599c5843	-0.6676065206727418
187	0xbfe3d7b1d1457a49	-0.6200799071628548
188	0xbfecb16610c50924	-0.8966551139385825
189	0xbfd84b4a48c8c5fa	-0.37959534747923807
190	0xbfb12a3a949b4b8c	-0.06705061081019731
191	0xbfe017eb0a533b75	-0.5029196931517236
192	0xbfd3d6e8b298f82a	-0.30999200287976925
193	0x3fcc90be94278025	0.22316725000473628
194	0x40038d73c9668250	2.444068501892879
195	0xbfd9c60ae0e4eb2e	-0.402712554572349
196	0xbff40d12846947ed	-1.2531914875330543
197	0x3fed9cddbb227f6a	0.9253986983276097
198	0x3ff83ebb9c190105	1.5153156373563104
199	0xbfdb442cde9ec53e	-0.42603608837369566
200	0x3fefe0dd8d829fc5	0.9961993945953443
201	0x4003072cf00ab78a	2.3785036805410913
202	0xc001aa814ecb37a1	-2.2082544475333212
203	0xbff634612bd33efa	-1.3877879821702082
204	0x3ff4788a8566e509	1.2794289790165883
205	0x3ff2bdf5ffe0ef93	1.1713771815547929
206	0x3ffb40424ff95c0b	1.7031882404314753
207	0x3fe411bf88fd2927	0.627166526371444
208	0xbff7ab39f4838600	-1.479303317195786
209	0x3fda5899a9e0b910	0.4116577300036548
210	0x3fdcb75c0b195628	0.4486913784397495
211	0xbfda2420498cd1da	-0.4084549635183784
212	0xbfdbfd9677692846	-0.4373527685280617
213	0x3fdc59c8b9385833	0.4429799851217268
214	0xbfd99f3a01df1625	-0.40034341986424443
215	0xbfe30f639dc1c26b	-0.595628555411236
216	0x3fa0468262ca254e	0.03178794341972467
217	0xc004700ba3445e58	-2.5547096972693843
218	0x3fe175ffe547c239	0.5456542471056941
219	0xbfd5d047afc30e0c	-0.34083740391017225
220	0x3fc06d55967a17ef	0.12833661887651668
221	0x3fd48fbc3db630bc	0.32127290751010285
222	0xbfd189a094bb6605	-0.2740251018963991
223	0xbfc9b9d52cba8cf7	-0.2009836643602296
224	0xbfdd44bbb20823eb	-0.45732014070432453
225	0xbfbb57ca31d35f0f	-0.10680831638762477
226	0x3ff607ac12f98765	1.3768730870437704
227	0x3ff092ce4d5260ce	1.0358412762052924
228	0x3feaadb029aebaf8	0.8337021650421255
229	0x3fe8fdbb84aa88a7	0.7809732047210404
230	0xc00165f1d975159d	-2.1747776974541027
231	0x3fd116b341ecff88	0.26701051176132085
232	0xbfe1f3ac7479578b	-0.5609953188784272
233	0x3fa5707619d406bc	0.041873636868343195
234	0xbfd48bca46bed2d9	-0.32103211315852104
235	0xbfba586992978c63	-0.10291156605630784
236	0x3fefa730313c5676	0.9891587220797209
237	0xbf921502eeb0b05b	-0.017658277338498212
238	0x3ff77e7a56d1c284	1.4683783904439744
239	0xbfe3211b0dd00ea6	-0.5977912206439739
240	0x3fedd4f08f356cd5	0.932243613914944
241	0x3fe10402bbccff14	0.5317395847305044
242	0xbfd169fd84099986	-0.27209413427626605
243	0x3fd0a14cbbbe1905	0.2598449548171547
244	0xbfee689d7f45e31a	-0.9502704129982675
245	0xbfb70f55904939cc	-0.09007773182495454
246	0x3fd253cca0587a2c	0.28636470469237696
247	0xbfe602162a9aa126	-0.6877547103986543
248	0xbfcc5d8b9256eb8e	-0.2216047730015273
249	0x3fc836d998c91101	0.18917388878083588
250	0xbfca4bbddfa032e9	-0.2054364530489672
251	0x3ff6f4fb73c2b7fb	1.434810115995332
252	0x3fe299df24870ea3	0.581283160536675
253	0xbfc6373ba854c49d	-0.1735605785302469
254	0x3fd7e3f6885ba32d	0.37328875843245407
255	0xbff1668e8522a662	-1.0875382614707623

output_mask f8 [16]
0	0x3ff0000000000000	1.0
1	0x3ff0000000000000	1.0
2	0x3ff0000000000000	1.0
3	0x3ff0000000000000	1.0
4	0x3ff0000000000000	1.0
5	0x3ff0000000000000	1.0
6	0x3ff0000000000000	1.0
7	0x3ff0000000000000	1.0
8	0x3ff0000000000000	1.0
9	0x3ff0000000000000	1.0
10	0x3ff0000000000000	1.0
11	0x3ff0000000000000	1.0
12	0x3ff0000000000000	1.0
13	0x3ff0000000000000	1.0
14	0x3ff0000000000000	1.0
15	0x3ff0000000000000	1.0

output_mask f8 [256]
0	0x3ff0000000000000	1.0
1	0x3ff0000000000000	1.0
2	0x3ff0000000000000	1.0
3	0x3ff0000000000000	1.0
4	0x3ff0000000000000	1.0
5	0x3ff0000000000000	1.0
6	0x3ff0000000000000	1.0
7	0x3ff0000000000000	1.0
8	0x3ff0000000000000	1.0
9	0x3ff0000000000000	1.0
10	0x3ff0000000000000	1.0
11	0x3ff0000000000000	1.0
12	0x3ff0000000000000	1.0
13	0x3ff0000000000000	1.0
14	0x3ff0000000000000	1.0
15	0x3ff0000000000000	1.0
16	0x3ff0000000000000	1.0
17	0x3ff0000000000000	1.0
18	0x3ff0000000000000	1.0
19	0x3ff0000000000000	1.0
20	0x3ff0000000000000	1.0
21	0x3ff0000000000000	1.0
22	0x3ff0000000000000	1.0
23	0x3ff0000000000000	1.0
24	0x3ff0000000000000	1.0
25	0x3ff0000000000000	1.0
26	0x3ff0000000000000	1.0
27	0x3ff0000000000000	1.0
28	0x3ff0000000000000	1.0
29	0x3ff0000000000000	1.0
30	0x3ff0000000000000	1.0
31	0x3ff0000000000000	1.0
32	0x3ff0000000000000	1.0
33	0x3ff0000000000000	1.0
34	0x3ff0000000000000	1.0
35	0x3ff0000000000000	1.0
36	0x3ff0000000000000	1.0
37	0x3ff0000000000000	1.0
38	0x3ff0000000000000	1.0
39	0x3ff0000000000000	1.0
40	0x3ff0000000000000	1.0
41	0x3ff0000000000000	1.0
42	0x3ff0000000000000	1.0
43	0x3ff0000000000000	1.0
44	0x3ff0000000000000	1.0
45	0x3ff0000000000000	1.0
46	0x3ff0000000000000	1.0
47	0x3ff0000000000000	1.0
48	0x3ff0000000000000	1.0
49	0x3ff0000000000000	1.0
50	0x3ff0000000000000	1.0
51	0x3ff0000000000000	1.0
52	0x3ff0000000000000	1.0
53	0x3ff0000000000000	1.0
54	0x3ff0000000000000	1.0
55	0x3ff0000000000000	1.0
56	0x3ff0000000000000	1.0
57	0x3ff0000000000000	1.0
58	0x3ff0000000000000	1.0
59	0x3ff0000000000000	1.0
60	0x3ff0000000000000	1.0
61	0x3ff0000000000000	1.0
62	0x3ff0000000000000	1.0
63	0x3ff0000000000000	1.0
64	0x3ff0000000000000	1.0
65	0x3ff0000000000000	1.0
66	0x3ff0000000000000	1.0
67	0x3ff0000000000000	1.0
68	0x3ff0000000000000	1.0
69	0x3ff0000000000000	1.0
70	0x3ff0000000000000	1.0
71	0x3ff0000000000000	1.0
72	0x3ff0000000000000	1.0
73	0x3ff0000000000000	1.0
74	0x3ff0000000000000	1.0
75	0x3ff0000000000000	1.0
76	0x3ff0000000000000	1.0
77	0x3ff0000000000000	1.0
78	0x3ff0000000000000	1.0
79	0x3ff0000000000000	1.0
80	0x3ff0000000000000	1.0
81	0x3ff0000000000000	1.0
82	0x3ff0000000000000	1.0
83	0x3ff0000000000000	1.0
84	0x3ff0000000000000	1.0
85	0x3ff0000000000000	1.0
86	0x3ff0000000000000	1.0
87	0x3ff0000000000000	1.0
88	0x3ff0000000000000	1.0
89	0x3ff0000000000000	1.0
90	0x3ff0000000000000	1.0
91	0x3ff0000000000000	1.0
92	0x3ff0000000000000	1.0
93	0x3ff0000000000000	1.0
94	0x3ff0000000000000	1.0
95	0x3ff0000000000000	1.0
96	0x3ff0000000000000	1.0
97	0x3ff0000000000000	1.0
98	0x3ff0000000000000	1.0
99	0x3ff0000000000000	1.0
100	0x3ff0000000000000	1.0
101	0x3ff0000000000000	1.0
102	0x3ff0000000000000	1.0
103	0x3ff0000000000000	1.0
104	0x3ff0000000000000	1.0
105	0x3ff0000000000000	1.0
106	0x3ff0000000000000	1.0
107	0x3ff0000000000000	1.0
108	0x3ff0000000000000	1.0
109	0x3ff0000000000000	1.0
110	0x3ff0000000000000	1.0
111	0x3ff0000000000000	1.0
112	0x3ff0000000000000	1.0
113	0x3ff0000000000000	1.0
114	0x3ff0000000000000	1.0
115	0x3ff0000000000000	1.0
116	0x3ff0000000000000	1.0
117	0x3ff0000000000000	1.0
118	0x3ff0000000000000	1.0
119	0x3ff0000000000000	1.0
120	0x3ff0000000000000	1.0
121	0x3ff0000000000000	1.0
122	0x3ff0000000000000	1.0
123	0x3ff0000000000000	1.0
124	0x3ff0000000000000	1.0
125	0x3ff0000000000000	1.0
126	0x3ff0000000000000	1.0
127	0x3ff0000000000000	1.0
128	0x3ff0000000000000	1.0
129	0x3ff0000000000000	1.0
130	0x3ff0000000000000	1.0
131	0x3ff0000000000000	1.0
132	0x3ff0000000000000	1.0
133	0x3ff0000000000000	1.0
134	0x3ff0000000000000	1.0
135	0x3ff0000000000000	1.0
136	0x3ff0000000000000	1.0
137	0x3ff0000000000000	1.0
138	0x3ff0000000000000	1.0
139	0x3ff0000000000000	1.0
140	0x3ff0000000000000	1.0
141	0x3ff0000000000000	1.0
142	0x3ff0000000000000	1.0
143	0x3ff0000000000000	1.0
144	0x3ff0000000000000	1.0
145	0x3ff0000000000000	1.0
146	0x3ff0000000000000	1.0
147	0x3ff0000000000000	1.0
148	0x3ff0000000000000	1.0
149	0x3ff0000000000000	1.0
150	0x3ff0000000000000	1.0
151	0x3ff0000000000000	1.0
152	0x3ff0000000000000	1.0
153	0x3ff0000000000000	1.0
154	0x3ff0000000000000	1.0
155	0x3ff0000000000000	1.0
156	0x3ff0000000000000	1.0
157	0x3ff0000000000000	1.0
158	0x3ff0000000000000	1.0
159	0x3ff0000000000000	1.0
160	0x3ff0000000000000	1.0
161	0x3ff0000000000000	1.0
162	0x3ff0000000000000	1.0
163	0x3ff0000000000000	1.0
164	0x3ff0000000000000	1.0
165	0x3ff0000000000000	1.0
166	0x3ff0000000000000	1.0
167	0x3ff0000000000000	1.0
168	0x3ff0000000000000	1.0
169	0x3ff0000000000000	1.0
170	0x3ff0000000000000	1.0
171	0x3ff0000000000000	1.0
172	0x3ff0000000000000	1.0
173	0x3ff0000000000000	1.0
174	0x3ff0000000000000	1.0
175	0x3ff0000000000000	1.0
176	0x3ff0000000000000	1.0
177	0x3ff0000000000000	1.0
178	0x3ff0000000000000	1.0
179	0x3ff0000000000000	1.0
180	0x3ff0000000000000	1.0
181	0x3ff0000000000000	1.0
182	0x3ff0000000000000	1.0
183	0x3ff0000000000000	1.0
184	0x3ff0000000000000	1.0
185	0x3ff0000000000000	1.0
186	0x3ff0000000000000	1.0
187	0x3ff0000000000000	1.0
188	0x3ff0000000000000	1.0
189	0x3ff0000000000000	1.0
190	0x3ff0000000000000	1.0
191	0x3ff0000000000000	1.0
192	0x3ff0000000000000	1.0
193	0x3ff0000000000000	1.0
194	0x3ff0000000000000	1.0
195	0x3ff0000000000000	1.0
196	0x3ff0000000000000	1.0
197	0x3ff0000000000000	1.0
198	0x3ff0000000000000	1.0
199	0x3ff0000000000000	1.0
200	0x3ff0000000000000	1.0
201	0x3ff0000000000000	1.0
202	0x3ff0000000000000	1.0
203	0x3ff0000000000000	1.0
204	0x3ff0000000000000	1.0
205	0x3ff0000000000000	1.0
206	0x3ff0000000000000	1.0
207	0x3ff0000000000000	1.0
208	0x3ff0000000000000	1.0
209	0x3ff0000000000000	1.0
210	0x3ff0000000000000	1.0
211	0x3ff0000000000000	1.0
212	0x3ff0000000000000	1.0
213	0x3ff0000000000000	1.0
214	0x3ff0000000000000	1.0
215	0x3ff0000000000000	1.0
216	0x3ff0000000000000	1.0
217	0x3ff0000000000000	1.0
218	0x3ff0000000000000	1.0
219	0x3ff0000000000000	1.0
220	0x3ff0000000000000	1.0
221	0x3ff0000000000000	1.0
222	0x3ff0000000000000	1.0
223	0x3ff0000000000000	1.0
224	0x3ff0000000000000	1.0
225	0x3ff0000000000000	1.0
226	0x3ff0000000000000	1.0
227	0x3ff0000000000000	1.0
228	0x3ff0000000000000	1.0
229	0x3ff0000000000000	1.0
230	0x3ff0000000000000	1.0
231	0x3ff0000000000000	1.0
232	0x3ff0000000000000	1.0
233	0x3ff0000000000000	1.0
234	0x3ff0000000000000	1.0
235	0x3ff0000000000000	1.0
236	0x3ff0000000000000	1.0
237	0x3ff0000000000000	1.0
238	0x3ff0000000000000	1.0
239	0x3ff0000000000000	1.0
240	0x3ff0000000000000	1.0
241	0x3ff0000000000000	1.0
242	0x3ff0000000000000	1.0
243	0x3ff0000000000000	1.0
244	0x3ff0000000000000	1.0
245	0x3ff0000000000000	1.0
246	0x3ff0000000000000	1.0
247	0x3ff0000000000000	1.0
248	0x3ff0000000000000	1.0
249	0x3ff0000000000000	1.0
250	0x3ff0000000000000	1.0
251	0x3ff0000000000000	1.0
252	0x3ff0000000000000	1.0
253	0x3ff0000000000000	1.0
254	0x3ff0000000000000	1.0
255	0x3ff0000000000000	1.0

weight f8 [3, 64]
0	0x3fd61bb8e059b0b4	0.3454420271798526
1	0xbfd4b64090452d86	-0.3236237915886807
2	0x3ff34c0ef2bd5e1d	1.2060689432163436
3	0xbfd0db47ea6167dd	-0.2633838452217086
4	0xbff0bcc3c338d4c1	-1.0460851312503083
5	0xc0010f58629d3318	-2.132492800161696
6	0xbff481a2ef711d8d	-1.2816495278546853
7	0x40014505445d1ff9	2.1587014523429358
8	0xbff60eb4b5ede332	-1.3785903078662156
9	0xbfe5a82c81fcae4e	-0.6767790354546805
10	0xc002d75ff5df1a88	-2.355163498755534
11	0xbfe83704c0122f32	-0.7567161322963101
12	0xbfe51c765534f3f8	-0.6597243942447895
13	0x3fa991eb1fe27f00	0.049941394464665834
14	0xbfef7f6f7a2effff	-0.9843060861967386
15	0xbfe8259e73585a5c	-0.7545921566805407
16	0xbfd52fab0c1bfc66	-0.3310344331984595
17	0x3ff1e11de930512b	1.1174601658759211
18	0x3fdb506929773d95	0.42678288506882583
19	0xbfea9545ab7292d1	-0.8307216976723685
20	0xbfea64dacdf6cce2	-0.8248113653884526
21	0x3fe5a7e1b0c5a591	0.6767433598117113
22	0xc00260cc297bf066	-2.2972644082019995
23	0xbff18631456c1d3c	-1.0952618324098031
24	0xbf9c6f8ff166e05b	-0.027769326313972758
25	0xbffe4ddbf77d34c9	-1.8940086047689866
26	0xc0086765f7932b74	-3.0504874555385246
27	0x3ff06a9ff0c685f4	1.0260314374248738
28	0x3ff992c326f93cf7	1.598330642929623
29	0xbffd7e7a2dc98f58	-1.843378237587748
30	0x3fee13b587893173	0.9399058959184415
31	0x3fd0623840f75812	0.2559948572574068
32	0x3fd5375689504bdc	0.3315025654748618
33	0x3fddc00a9b37f558	0.46484627874436546
34	0x3fd728871386b436	0.36184861094335774
35	0x3fe1d943e02690ec	0.5577716234152184
36	0xbfb89dd0084b0270	-0.09615802957979169
37	0xbff1a3c7e5730b36	-1.1024855578295507
38	0xbf9de8b6ddb08c4e	-0.029208047180997725
39	0x3ffb29a476fa3ee9	1.6976666114387007
40	0x3ff592f337f91629	1.3483764826245397
41	0xbfd463e8834fbcd5	-0.3185979158724426
42	0x3ffe86e36575b92f	1.907931705787245
43	0xbfed636486bdfabc	-0.9183828956300526
44	0x3fe1736ab19a1529	0.5453389614855598
45	0xc004c4d4ca058587	-2.5961089880881363
46	0xbfc0780228c3b370	-0.1286623667760085
47	0x3ff693916ccb7245	1.4110273599427654
48	0x3fc99d92fc07c212	0.2001212816826557
49	0xbf883c1fe9bcbb48	-0.011833428688616046
50	0xbfc869bde5f17a36	-0.1907269833345297
51	0xbfc84735a2f5834a	-0.189673142022935
52	0xc00ff797b01b84bb	-3.995894790496633
53	0xbfed3cb6b5a6f526	-0.9136613414663415
54	0xbff24937cc61b154	-1.142875479093239
55	0xbffb29e37a7e3c48	-1.6977267060172085
56	0xbfccbbbbe9a29615	-0.22447918804134362
57	0x3f952382697f845e	0.020643270196050494
58	0x3fdf30f4d700e1da	0.48736306187086387
59	0xc0077e253021d7fe	-2.9365943680122646
60	0x3fd5305974b38b35	0.33107601544013515
61	0xbfe36e740167508e	-0.6072330500997098
62	0xbfe74948dc47290f	-0.7276958753875834
63	0xbff3833c0b068e61	-1.2195396834075825
64	0xbfe7ad3328d9d27f	-0.7398925588482398
65	0x3fd724ab5eaec3c1	0.3616131233821385
66	0xbff0cf060e25cadc	-1.0505428841249147
67	0x3fcd637aad776abb	0.229598364544321
68	0xbfcb7b10c4b4cd30	-0.21469316105649616
69	0xbff4d1c8d3449acc	-1.3012169125228636
70	0x3ff2802abfead71b	1.1562907692691116
71	0x3ff0b5204b07dc30	1.044220250214277
72	0xbfdc898e870a78a5	-0.44589579761112424
73	0x3ff1a39abbe715a0	1.102442487711734
74	0x3feffc8656ed9882	0.9995757768454185
75	0xbffde40a3471275d	-1.8681737946048635
76	0x3febcdcaf53efdb6	0.8688711919748389
77	0x3ff096adc16f163e	1.0367868000042928
78	0x3fe3524ab0410add	0.6037953798734993
79	0x3ff70ca40e4f855d	1.440586143399137
80	0xbfe4ba31342ed3f1	-0.6477285403440175
81	0xbfb035c3982f6fbf	-0.06332037415944479
82	0x3fe579452389da47	0.6710534757720062
83	0xbfa381aa830e5a20	-0.038098648546270875
84	0xbfe1feb65eb10211	-0.5623428201143402
85	0x3fe9f17577fba4e2	0.8107249587457341
86	0x40056abdccdef6cd	2.6771198277991517
87	0xbfdde4a1f66cc0fc	-0.4670796305172329
88	0x3f924fb5645e896c	0.017882189036421733
89	0xbfd72a6564b03525	-0.3619626506122862
90	0x3ff82fbbea260d22	1.511653818743817
91	0xbff519c65df23b90	-1.3187926931165954
92	0xbff9bd09556a7263	-1.6086514793925282
93	0xbfc1e3b443dbd764	-0.1397614795056895
94	0xbff40b7b4f6d2e60	-1.2528031447026464
95	0xbffae3f1d9907833	-1.680650567875557
96	0xbff3506ceb4bb752	-1.2071351233712062
97	0xbfea4299fb0fca35	-0.820630064349024
98	0xbfe296ca047abb62	-0.5809068763245302
99	0xbfcca52b8c547595	-0.2237905917362865
100	0x3ff00937c65e36e7	1.0022504566908823
101	0x3ffa9bac489489c7	1.6630060992398386
102	0xbfdf94c8e29a1482	-0.49345609788026235
103	0xbfb89367d217def7	-0.09599923018674504
104	0xbfdab35ac60a10e3	-0.4171969350793587
105	0xbfdc0311d02a3317	-0.4376873524532114
106	0x3fe0488260b6c04d	0.5088512314741905
107	0x3fe4fc5d97db464d	0.6558063474605632
108	0x3fed273f5871fdf5	0.911040947670641
109	0xbfd089e66cd17a2e	-0.25841675402435527
110	0xbff2cbd1dd254395	-1.1747606886385473
111	0x3fcdca2012c612b1	0.2327308742207115
112	0xbfc07d8b9657ae98	-0.1288313373655583
113	0x3ff8a81567feb78e	1.5410360395721656
114	0xbfa8a072e3fe0b84	-0.048099127131556535
115	0x3fbe0497d9931dc1	0.11725758611566219
116	0xbfc6ea69a227bf62	-0.17902870576608182
117	0xbfb168f5883ab6cd	-0.06800779891883764
118	0x3ffba5bee712ad00	1.7279652620589445
119	0x3feb0a5599724b5c	0.8450115200997561
120	0x3fc7bb975b7efe9f	0.18541233031827617
121	0xbffd70fda52ec638	-1.8400856449556056
122	0xbf65b24ed84c46f6	-0.002648500436756569
123	0xbfeabece2fbcb6e4	-0.83579167674699
124	0x3feef4e25755758a	0.967393084119679
125	0x3fca5c931ec24a45	0.20595015527631425
126	0xbff4b69bfad4ca64	-1.2945823476881282
127	0x3ff31705b090fbfb	1.1931206605074738
128	0xbfd7b17470b3189a	-0.37020598417110195
129	0xbfc4b380fffe85ee	-0.1617280244800407
130	0x3fd3d64ee30d452f	0.30995533154517124
131	0xbfb298c395fd2083	-0.07264349376521477
132	0x3ff538938f1d6b34	1.3263125982691237
133	0x400d752759b3c894	3.6822039611807416
134	0xbfd76f80e47aa2e2	-0.36618063270957013
135	0xc00bc94e9c5aee57	-3.4732944693803733
136	0x3ff3b3480257970c	1.2312698451509645
137	0xbfe0aa12afdc31a4	-0.5207608637588703
138	0x3fe4f58e1ef7c3b3	0.654974995121043
139	0x3fe661dbaa203070	0.6994455645340292
140	0xbfd83eadbd8afb8f	-0.3788256026272671
141	0xbfc7b11c482a6e1d	-0.18509248279302506
142	0xbfb092a711492e89	-0.06473774120348187
143	0xc00bfb9d52d5f147	-3.4978586646595065
144	0x3fe4bdb1296eda34	0.6481557664145101
145	0xbfd2ca7c647cfdeb	-0.2936087590532838
146	0xbfe829bc57f86691	-0.7550946920557228
147	0x3ff32e2bc73d348b	1.1987722189690284
148	0x3fe93dda8ccb0ed5	0.7888005018107501
149	0xbff10b751dac5505	-1.0652972373112004
150	0xbff1ec3042eaf6d2	-1.1201632131555255
151	0x3ff1037c86799278	1.063351178448242
152	0x3ffce50ebe59170e	1.8059222636670174
153	0x4003f25ec77d5e5d	2.49334483958573
154	0x3fe41784bb29e836	0.6278709083119398
155	0x3fe75cafe278a668	0.7300643370883337
156	0x3fe2a01037f6ee66	0.5820389836366757
157	0x3ff4b8bee3b072bf	1.2951039213286746
158	0x3fe65cfdbce2cd31	0.6988514603785118
159	0x3ff402e6f76ff762	1.2507085481188018
160	0x3fe95a1772714bfd	0.7922475085455286
161	0x3fdd8ae63c01cad3	0.4616027437215681
162	0x3fd99792bf20fc76	0.3998762957089136
163	0x3fc02eea34e9f0d8	0.12643172820742765
164	0xbff0c6f54d044e67	-1.0485737808675368
165	0x3ffcfe3642cf4360	1.812063466048322
166	0xbfeee6ff87e153a1	-0.9656980184469043
167	0xbfe11c2b038f7d3a	-0.5346884793797593
168	0xbfa25cd259288130	-0.035864423163959436
169	0x3fdc571d78d082d6	0.4428170852498118
170	0xbff4f4bc835364f9	-1.309750092498062
171	0xbfbcf8bb564f347b	-0.11317034585154488
172	0xc0041bfec3b11a78	-2.513669518320338
173	0x3ff712209a3e6dbc	1.4419256234312874
174	0x4006963e1a2c35cb	2.823360638117014
175	0xbfea6404921e4a28	-0.824709210765211
176	0x3f824d59646d0dab	0.00893659436918067
177	0xbfe1e8cb7011b151	-0.5596673191881029
178	0x3fb5e6f4a9040096	0.08555535436971903
179	0xbf94db24c9fc3e0e	-0.02036721690006798
180	0x400c71cd8d55f36c	3.55556784075309
181	0x3ff5fb7f6bf0c376	1.3739008156228159
182	0xbff54f25e9e844c5	-1.3318232666973
183	0x3fa2d47549de978e	0.03677717711188598
184	0xbfc0ab31e7e03370	-0.13022445509013947
185	0x3fff2d18107fd57a	1.9485092777734665
186	0xbfc34f92728de1b9	-0.15086584657161753
187	0x3ffd16bcc1ec922e	1.8180511069450733
188	0xbfe2eeb9e29305bb	-0.5916413712767999
189	0x3fbe26812d6e8029	0.11777503356142972
190	0x400021f591fc08a5	2.0165816693343737
191	0xbfda1a47bbb2c45c	-0.4078540165892883

weight f8 [64, 64]
0	0xbfe0f2a49a510f3e	-0.5296195043560841
1	0x400047c5cca2780d	2.0350452410775746
2	0x3ff1046727c1d3a7	1.0635749390614622
3	0xbff0c5e6493f1a63	-1.0483153210822358
4	0x3fdbd12e6ec54093	0.43464241807397136
5	0x3ff1a7d64ac26254	1.1034758491788539
6	0x3ff56fe1929c9528	1.3398147322671523
7	0x4000f88c08d764e6	2.121360844682033
8	0xbfd291ffc6ebce05	-0.2901610796536434
9	0xbfcc13a371f38b06	-0.2193493181612995
10	0x3fe2f415e101e7b5	0.5922955889393423
11	0x40064548d31fada7	2.783830308346029
12	0xc0078db5002b401d	-2.9441928876112926
13	0x3ff4f0bdc8dafead	1.3087747426906546
14	0x3fda7d38171f74c9	0.41389276750653586
15	0x3fcccaba42c97274	0.22493675480918152
16	0xbfddda9cfebe3d7f	-0.4664680946088637
17	0x3ffb26b5ad15407b	1.6969506035857467
18	0xbffce350c6a0da2e	-1.8054969557685001
19	0xbf7b73390b50507a	-0.0067016819275701415
20	0x3febf21509832788	0.8733010469234026
21	0xbff59f2699e959ff	-1.351355172364151
22	0x4001213ad8170df4	2.1412255174670864
23	0xbfeab82505a09048	-0.8349785909563332
24	0xc0057bec6dead6cd	-2.685509546975345
25	0x3fd5734046657653	0.33515936731951007
26	0xc0021354af8fd804	-2.2594388690731666
27	0x3fe55fc2f1c51c3b	0.6679396364278384
28	0x3fc238d8a348e920	0.1423598096169565
29	0x3ff79a35e59d2a0b	1.4751490563672884
30	0xbfecfc19f9ed3d6e	-0.9057741052037451
31	0xc0095315788c9808	-3.165568296232781
32	0x3fc72bd78d498378	0.1810254516485903
33	0xbfea412ec5903da8	-0.820456872812362
34	0xbfe2375003fdfa4b	-0.5692520215960227
35	0x3ff4c0838b9ea6b3	1.297000451459479
36	0x40090a65cf1f2adf	3.1300769978891902
37	0x4002ff7e51543dff	2.3747526506265326
38	0xbff525bce7123b9f	-1.3217133547038669
39	0xbfe90b140922324b	-0.7826023271932824
40	0xbffb78dd71e8891c	-1.7170080613655676
41	0xbfed27fe3e0e5e9f	-0.9111319744142355
42	0xbfe1b89870fd2089	-0.5537836272060456
43	0xbf88e124d18e880a	-0.012148177762188812
44	0xc000b2720d48fc0c	-2.0871315992258186
45	0xc001b7f1723d6fca	-2.2148159909247385
46	0xbfe0612add0033bb	-0.5118612591191928
47	0x3ff04c28d9770082	1.0185936445923578
48	0x3ff01e6f958ec474	1.0074306337449146
49	0x3ff4bb0d17de1b21	1.2956667835548574
50	0x3fda785aaaca9137	0.41359583548389217
51	0x40040423779f02b9	2.502020773449058
52	0x40011bf22f46a627	2.138645524352586
53	0x3fbca1e0e4e16aaf	0.11184506976989426
54	0x3fdd5d453e557081	0.4588177784660346
55	0xbff3e268ff0c61cf	-1.2427759135081151
56	0xbfe452ba7a22ce3d	-0.6350986848323782
57	0xbfcb7aae46ab8b6c	-0.2146814198559598
58	0xbfcd06fa5ca061bf	-0.22677545092370896
59	0xbff5881f7f942e06	-1.345733164171976
60	0x3fd5efadb31a78df	0.34275381556098056
61	0xbffaab3653fbf1e6	-1.6667998581534618
62	0xbfe46525bfb77a79	-0.6373471016375581
63	0xbfca2779ce6f79bf	-0.2043297059999087
64	0x3fe1e90d62beae9d	0.559698765622176
65	0xbfa68d4e2e47cac2	-0.044046824597804526
66	0x3febcc9a1e008bc2	0.8687258325556899
67	0x3fd9148c4d0692fc	0.3918791534618291
68	0x3fec996c481cf25f	0.8937283905466521
69	0xbfe84794d140c05d	-0.7587379538508788
70	0xbff0bd9aa5966687	-1.046290060831241
71	0x3fd7cf3cd87de5df	0.3720237840821862
72	0x3fc7a11a7189a155	0.18460398238972667
73	0xbfe588a78715cea1	-0.6729314459211829
74	0x3fd0391422d203fb	0.2534838047068317
75	0x3fd98454a6b87a43	0.39870182305631746
76	0xbfb4df03369a19ab	-0.08152790148787996
77	0xbfe1681b5e882895	-0.5439583631825992
78	0xbfe23015d483e3bb	-0.5683697844207168
79	0x3fe8b9f60d4d305c	0.7727003345294281
80	0x3fad805e5016e33f	0.0576199982419383
81	0x3fdb85eb0f5d06dc	0.430048718455607
82	0xbfc2a7f3dc39a5ee	-0.14575050595458044
83	0xbfda5e5aa3acdf0f	-0.412008914794101
84	0xbfd397cb4f5abcb3	-0.3061397814698907
85	0x3ffb2c2f3383c8a1	1.6982872021003816
86	0x3ff39ccf156079e3	1.2257834277185047
87	0xbfc217a30bfe16a7	-0.1413463409955302
88	0xbff47a37349dbcb7	-1.2798378043478758
89	0x3fea178623ea306c	0.8153715802632298
90	0xbff83b2014b0725c	-1.5144348915265686
91	0xbfa29cac6c025d7b	-0.03635157412025599
92	0x3fe0638f54c16a74	0.512153306520601
93	0x3fed1d8e01b92dc2	0.9098577531489627
94	0xc000825bb29b0990	-2.063651461941113
95	0x3fbce3df781f580a	0.11285206492115676
96	0xbfe00d2c7de80abc	-0.5016081294164318
97	0xbfe1ec75bb5ebfb1	-0.5601147327015409
98	0xbfee42e53e975bc3	-0.9456659529195054
99	0x3fe4b32a15c9a5a0	0.6468706536808675
100	0x3fd551cd934dbc73	0.3331178606521867
101	0xbffe9e3d13c3d1ec	-1.9136324665133726
102	0xbfed995e0a655691	-0.9249715998691547
103	0x400743ffc284d2e4	2.908202666929684
104	0x3ff5253865ec7051	1.3215869885816753
105	0xbfe80a868881f04e	-0.7512848535693679
106	0xbfe1be5bc7110a9d	-0.5544871223467741
107	0xbfeab60d565143fe	-0.8347231565368245
108	0xbfd62195e71cc347	-0.34579989976468933
109	0x3fcace36b7585ef1	0.209418143772147
110	0xbff4dd910cb4487a	-1.304093408227827
111	0xbff7bfbe9858dbd2	-1.4843126250323064
112	0xbff19b1b64bebb2f	-1.1003679213860769
113	0x3fe449bf8e0da88f	0.6340024733047062
114	0xbfc07ddda360408c	-0.12884111859648717
115	0xbfecf8d2de5bc56f	-0.9053739874781693
116	0xbfebf5ea2ca54bc4	-0.8737688896165925
117	0xbfcad74bbd9fb6cf	-0.20969530829409286
118	0x400349b1fc2fc554	2.410984010894632
119	0xbfa74430ec5b966c	-0.04544213185526477
120	0xbfedf3674c2b1ee5	-0.9359623420395705
121	0xbfe8dd165a40db98	-0.7769881975899464
122	0x3ff25a70dd72debf	1.1470802927341734
123	0xbfd5133014d0f3f9	-0.329296131447165
124	0x3fd65bde7a8cac68	0.3493572422764317
125	0xbfdbba37c9fc2c32	-0.4332408401975868
126	0x3fedc8b9b88951f3	0.9307526211001104
127	0x3feb4d19f471ddd8	0.8531617903053599
128	0xbfeabca1c9d491f0	-0.8355263654707965
129	0xbff3b0c14e2ca731	-1.2306531003654977
130	0x3ff6ca99a35032d2	1.4244629268097708
131	0x3fdd49d4cf30584c	0.45763130410467023
132	0xbfeb00dd35029855	-0.8438554797510373
133	0xbffc9927b8df8501	-1.7873913976293923
134	0x3fcd5899cc755fc6	0.22926638110470615
135	0x3fed27d6f08671c2	0.9111132333524028
136	0x3feca58b8d8d5eab	0.8952081455890569
137	0xbfcd17cd43b3434f	-0.22728887372661652
138	0xbff33c0757aaf6e9	-1.2021554398083316
139	0x3fef1001a554ac3d	0.9707039097896836
140	0xbfc6a7cb78b45574	-0.17699569124003356
141	0x3f97ad557643382d	0.02312215360944252
142	0x3ff4ded389a6ceb6	1.3044009568229007
143	0xbff656f85c983f2a	-1.3962329499226578
144	0xbff0c25f9c83be40	-1.0474544633724605
145	0xbfef0b7fb843773e	-0.9701536749741775
146	0xbfb6d572afbb79cd	-0.08919445791568777
147	0xbfe91fecc8aa6d71	-0.7851470870258891
148	0x3fb444cd7ca829ad	0.07917484563237194
149	0xbff4f43b1faa5847	-1.3096266972475108
150	0x3fb6415581d6c5be	0.08693441791435583
151	0xbffec448388ff53f	-1.9229204377619025
152	0xbfef36075745313b	-0.9753452972886757
153	0xbfd717d289c81557	-0.36082900481445307
154	0xbfb40a318abc6955	-0.07828054082020704
155	0xbfcaaa4c4cfd1a55	-0.20832208403790511
156	0xbfe7d68e59b51ec9	-0.7449409248447064
157	0xbfcebcaaa4a97068	-0.24013264694338265
158	0x3fc40a50d0456aa2	0.15656480950822976
159	0xbfc197872ce7ea1c	-0.137436768461911
160	0x3fe21a664fcf53f2	0.5657226141726126
161	0x3ffb2f20b48c9aac	1.699005799551439
162	0x3fd0123c55d00ffc	0.2511130178465917
163	0xc004670ebd81f7b4	-2.550321083573147
164	0x3ff9e97fde573172	1.6195067105464571
165	0xbff3e746c379083c	-1.2439639697700065
166	0x3fe6360cb09a69fc	0.6940978478699544
167	0xbff944f7d37ac66b	-1.5793379078790177
168	0x3fd87323b1fe4b51	0.3820275533882312
169	0xbfe9d0827a2a1e5d	-0.8067028413797278
170	0xbff46246ba22af30	-1.2739932318608673
171	0x3fcefb1809f45a23	0.24203777776774968
172	0x3fe3014d87d04c44	0.5939090397463436
173	0xbff4a6a49c5a1cf3	-1.2906843287944951
174	0xbfd0c671e662ff1c	-0.2621121168012779
175	0xbfeb89d7b6d3bcba	-0.8605764933435218
176	0xbff0c6b111130694	-1.0485087077107993
177	0x3fe1cb56883b6b51	0.5560715351851774
178	0x3fd6dcc565d603d1	0.35722479767724474
179	0xbfd28e3bf3e61e7f	-0.2899312860322211
180	0xbfcea11ed189e207	-0.23929200393082814
181	0xbfc1d979195758c6	-0.13944925057757568
182	0xbfffdfc769631558	-1.992133533161299
183	0x3f6caf80a5204128	0.0035016548727143833
184	0x3fc915e08df899dc	0.1959801381319285
185	0xbfebb8698894e0b2	-0.8662612598045796
186	0x3fd353bdb582b62e	0.3019861481251124
187	0xbfcdc63a88e2c034	-0.2326119583499363
188	0xbff412d0655f8ae1	-1.254593273152459
189	0x3fe213f1833bc14a	0.5649344981339166
190	0x3fcfbfac8a130c90	0.24803692571558544
191	0xc00379b2161efa86	-2.43442170412101
192	0xbfd5351f10670109	-0.33136726953308987
193	0xbfa63edd39ca39c8	-0.04344836550182013
194	0xbfebcf71e4bad2da	-0.8690728633287919
195	0x3fd32e1b6fd7f5bf	0.29968915865159923
196	0x3fed743814929088	0.92043689745016
197	0xbfb4ab91e5c95b55	-0.08074294910453024
198	0x3ff30569e61f14d5	1.1888216961972848
199	0xbfccf2c987fd44bd	-0.22615927829841623
200	0x3fe2dc9881ea9d0c	0.5894281899863087
201	0x3fa05ad9b3ea2e97	0.03194313355660688
202	0xbfcca43f6bb73c6c	-0.22376244315680383
203	0x3fd427b614e9c990	0.3149237827521114
204	0x3fe2f3811740b99a	0.592224641242683
205	0x3fc2bdcce1bfdad8	0.14641724608346496
206	0xbfcea039bd7400bf	-0.23926469565049577
207	0x3f894c53bb59e35b	0.012352613596918685
208	0x3ff4a62e69e0ca79	1.2905716071951743
209	0x3ff130d69d341b55	1.074423421932541
210	0x4001db6fc42d96dd	2.2321467710888627
211	0xbfdacb8c8adc361c	-0.4186736446434638
212	0xbff08e73cbc30cf3	-1.0347784003686769
213	0x3ff57820ed761eab	1.341828277190795
214	0x3ff4a525de2dcf29	1.2903193167557652
215	0x3ffc3c80e6a5dfa0	1.7647713670430463
216	0xc0054f2862e6bc68	-2.6636512495675113
217	0x3fea43add6f19840	0.8207616041297641
218	0xbfe1968b1b0ea1c0	-0.5496268776378699
219	0xbfeb1ca714108240	-0.8472476379284402
220	0x3fdd6e50165371ac	0.4598579614664924
221	0xbfe83b07baece64e	-0.7572058344732768
222	0xbfe4f6ad00494965	-0.6551117902366
223	0x3fcde72fd2f5a5f6	0.23361776161918585
224	0x3faefa67ad9b999e	0.06050418848262783
225	0x3ff0b82e99aed43b	1.0449663165320675
226	0xbff2347a1301a534	-1.1378117315710599
227	0x3ff06282cfd89f3b	1.0240505331984895
228	0xbfc9ee4552a70fcd	-0.20258394752283806
229	0xbfe5980129343ea8	-0.6748052410857399
230	0x3fe7e735cdec8365	0.7469738981200008
231	0x3fffe6e90ca0f905	1.9938745969116678
232	0x3ff2acee8c8ed812	1.1672196856066006
233	0xbfec42364a2e0eaa	-0.8830825280023948
234	0xbfe415cace78fedf	-0.6276601822537166
235	0x3fcb380ce409d763	0.21264802107514943
236	0x3fe4f8a51e9c138e	0.6553521726460632
237	0xbfedd37404332e39	-0.9320621568708197
238	0x3ff988ea47bee4fa	1.59592655206353
239	0x3fe290685dfe0b5f	0.5801278911388684
240	0x3ffbf22764db3688	1.7466196002673389
241	0xbfe7a66dcedb0c55	-0.7390660324239301
242	0xbfe103f77e7b802b	-0.5317342253074505
243	0x3ff2236ef6ab3b6f	1.133650744962974
244	0xbffb4d69ce6f0562	-1.7063997329535927
245	0x3fe05d8d15135a3e	0.5114198123581628
246	0xbfdf6f6e6c7f3f29	-0.4911762294332101
247	0x3ffd00d3cd1eed3c	1.8127019894153156
248	0x3ff18a4f677807bc	1.0962671319725663
249	0x3fe6555bd00c03ca	0.6979197562615067
250	0x3fe5da12444a62eb	0.6828700383949501
251	0x3fa74cad5df98cb4	0.04550687572625503
252	0x3fc3f4171d16a827	0.15588654442154956
253	0x3fea9c4eb4ca4d9e	0.8315804987964162
254	0xbff178b9bd2ca5ed	-1.0919740094781176
255	0xbfeb77ac6f1bda49	-0.8583585901349774

weight f8 [64, 64]
0	0x3fe3ad38e8f915a6	0.6148953008893627
1	0xbfe1feb32f98ae89	-0.5623413018815465
2	0x3ff2fa45f989c6c0	1.1861018893800264
3	0x3fe74985662b4731	0.7277247424592358
4	0xbfdf4dcb8a2eec1c	-0.48912323469602526
5	0x3ff01aa685cd4224	1.0065064646370354
6	0x3fe2bf8671ac4faf	0.5858795375993305
7	0xbff8817c33666600	-1.531612587720133
8	0x3fb2f83ce499b47a	0.07410030919136715
9	0x3fe2498777dcc682	0.5714757290899828
10	0x3fecfa6600636e93	0.9055662162385992
11	0x3fe29c63664150e0	0.5815903660937032
12	0x3febc0016215e05b	0.8671881595355545
13	0x3ffa13ef0cb0b64e	1.6298666473116046
14	0xbffbfc51f13e4138	-1.7491015838205168
15	0x3ffc0fa52b1e68d6	1.7538196262672066
16	0x3feb6355fd39ab6a	0.8558759637647715
17	0xc000b89a24db5cf8	-2.090137756294663
18	0xc004deb64ec13d8a	-2.608746161720494
19	0xbfdf6001e4705833	-0.4902348261688331
20	0xbfea4259eda49162	-0.8205995217763695
21	0xbff6a222987e6ad0	-1.414583774260496
22	0x3fed512781413a96	0.9161565327174965
23	0x3feeefcf4872fa23	0.9667736449262673
24	0xbff9689e1264cf06	-1.588041374064177
25	0x3fe09619892cc918	0.5183227233121981
26	0x3feec4f81bdafc24	0.9615440887499784
27	0xbfd7059998a4ae5e	-0.3597167959839903
28	0xbfccc7fe663b4e0a	-0.22485332481174708
29	0x3ff88032f5de48cf	1.5312985996466073
30	0x3fe719181d620f37	0.7218132566344825
31	0xbfdbc49f962d598a	-0.4338759390424448
32	0x3fba68368148fe17	0.10315266281485723
33	0x3fe8a350fbfb94b2	0.7699360772645802
34	0xbfe33f0dc5f8d160	-0.6014469973220393
35	0x3fe5013862a95651	0.6563989569646741
36	0x3ffc2c724a77708f	1.7608511837816285
37	0xbfff8a7106cfee4b	-1.9712991968252875
38	0xbfd689fdd2f6e12b	-0.352172332782646
39	0xbffc034bc235aade	-1.7508046709360126
40	0xbfb4fef302a655e2	-0.08201521696749794
41	0x3ff2768a884446cd	1.1539407084386994
42	0xc0018787d6a26eb9	-2.1911770599670857
43	0xc00459f54b372ac4	-2.5439248920641564
44	0x4000b1cba23fbf72	2.0868141818718238
45	0x3fefae3b2b3c082b	0.990018448297865
46	0x3fd8a84232fbfb9c	0.3852696893590577
47	0xbff305df019eae01	-1.1889333785319425
48	0xbff97332573c13f4	-1.5906241805653254
49	0x3fe2276893368696	0.5673106074575169
50	0xbfc45776e3ff8cee	-0.15891920216299787
51	0xbfd73b77b3b7df2f	-0.3630046134053257
52	0xbfb09d8dd95afc2d	-0.06490408474472593
53	0xc002d549547e9c79	-2.354143772233837
54	0x3ff19ed278d93c44	1.1012749405524724
55	0x4000e68803f70bc1	2.1125641164557867
56	0x3fd74adfa17c73ca	0.363944919301329
57	0x3fffcc6745b20b3a	1.9874031755904995
58	0xbfe0a6b401c39d03	-0.520349505849396
59	0x3fe02295d34a2287	0.5042218329191009
60	0xbf66c00a9f6742f2	-0.0027771193956386215
61	0x3ffd86be33f6276f	1.845396235441935
62	0x3fe98e9cb1b80566	0.7986587019988007
63	0xbff9804a3181e8f6	-1.593820756329078
64	0x3ffb4295c7a57e6a	1.7037561224641657
65	0xbff601e95cee8b4c	-1.375466692938704
66	0x3ff874ddb9e182c7	1.5285317669842458
67	0xbfb520a09277cbd5	-0.08252910209539206
68	0x3ff843121949311b	1.516374682210034
69	0x3ff3811e8a4c3b23	1.2190232660538605
70	0x3fe54cdb6408744d	0.6656319574136745
71	0xc0018f2cb0085df6	-2.1949094536355416
72	0x3ff3e4010f477795	1.2431650730936543
73	0xbfd6c156d7698ffa	-0.3555504897724401
74	0xbff9d6762fb1a32b	-1.614858804992944
75	0xbfe5a809e2d4078e	-0.6767625265349453
76	0x3ff40412dbc96f63	1.2509945474075372
77	0x40095f56fba60bd2	3.1715526256607314
78	0x3ffcc4c6f8f9c367	1.7980413175211767
79	0x3ff62250f8b1dd67	1.3833780016555808
80	0xbf8e780e82cd9b17	-0.014877427450938492
81	0xbfcc653e221becd0	-0.22183968224985628
82	0xbff643bc89a241c3	-1.3915372253724037
83	0x400287f27fcc3604	2.3163804992861987
84	0x3fc3b4147225ca72	0.15393310140241884
85	0xbffa9bb88e48ea8a	-1.663017803001511
86	0xbff8445e43ef2d9b	-1.5166914609606923
87	0x3ff375a90529fffe	1.2162256433221041
88	0x3fd094dd09cbd7a2	0.25908590275445864
89	0x3fe493deb48d09c9	0.6430505300889361
90	0x3ff4aa29673a0b34	1.2915433914465213
91	0xc00259a48489564e	-2.2937708238994565
92	0x3fc83037a5dd73ad	0.18897147749785628
93	0x3fe0ba6a9ce73a27	0.5227559151188118
94	0xbfced9c1b025019e	-0.24102040386970897
95	0x3ff1341d5c9c8fb5	1.0752233140601508
96	0xbffe9835c510b7ce	-1.912160653864237
97	0x3fc6b8c46ed92e5e	0.17751365101354372
98	0xc00515c96ac11e33	-2.635638078707211
99	0x3ff0d7269db5d428	1.0525270615155566
100	0xbff44719e37d3f9a	-1.2673586736964126
101	0xbfe50d32568f66c9	-0.6578609171512763
102	0xbff8cf3e525e2313	-1.5505965440262954
103	0xbfe0f131aebfb9eb	-0.5294426358284999
104	0xbff438aba5920f91	-1.2638355701064692
105	0xbfd7bc2b0c939587	-0.37085987308668006
106	0xc0140ee58cbd4ed0	-5.014547537855563
107	0x3ff8ee0917fa1a0c	1.558114141139984
108	0x3ffc5a5cb87c89c4	1.7720610815527928
109	0x3fd5ca2a0e15b665	0.34046412826032785
110	0xbfe354fb0fae0e12	-0.6041236215828028
111	0x3ff1280e802235fa	1.0722794537754212
112	0xbfd5888f0c8208d8	-0.33645988675574534
113	0x4000d519b0858bdd	2.1040529051547154
114	0xbfff16bd9175b5eb	-1.943051880075809
115	0xbfe81e2900bd7592	-0.7536816610769839
116	0x3ff3da7adb207c37	1.240839820827899
117	0x3ff9b6f955e2afd5	1.6071713786031883
118	0x3ff16b3dbf8d7904	1.0886819345974468
119	0x3fc0fa8d5994e0b8	0.13264624475573839
120	0x3fd22fecb8718b19	0.28417509090484
121	0x400b01483353b714	3.3756259927676044
122	0x3fad9cd4bcf0ca5c	0.05783715063480052
123	0x3fd59291b2ee82d2	0.33707087014958603
124	0xbff7983915222dfe	-1.474663813164511
125	0xbfca442dd8a19b1b	-0.20520566060732723
126	0x3fd3091eb91c7d51	0.2974316413619436
127	0xbfb93bb21ad3d896	-0.0985671344277271
128	0xbfd2376c3d21700b	-0.28463273973261555
129	0xc0024d6423aff8cb	-2.287788657005057
130	0xbfe20596c89e2604	-0.5631822508159421
131	0xbfeabdd8c67737af	-0.835674655559833
132	0xbfb0d4390258aa41	-0.06573826129230388
133	0xbfd6d0b285239cff	-0.3564878750025428
134	0x3ff0b41a2850b61a	1.043970258218343
135	0xc005ff6fa9214220	-2.749724694564307
136	0x3fe7b957d33b5323	0.7413748860950345
137	0xbfe7451b46056a52	-0.7271858565903335
138	0x3ffb8ba141901121	1.7215893326802603
139	0x3fd842a5806b97f6	0.37906777897876454
140	0x3fb5abd5df20804f	0.08465325066981787
141	0xbfbbf032092e3558	-0.10913384174474083
142	0xbfcf3ea2b415ee67	-0.24409898560758167
143	0x3fe4c48fab8eec5b	0.6489942885158472
144	0xbfee60a04e35a695	-0.9492951896219944
145	0x3fb0813daf45b483	0.06447206048115288
146	0xbff1d8faf7a32165	-1.1154737160996657
147	0x3f52ac6b762ecd1f	0.0011397408895675377
148	0xbfefa6bdf5a46e81	-0.9891042516423597
149	0xbff704ca877d37f3	-1.438669709448274
150	0x3fc3b18a1a25de97	0.15385557438616068
151	0xbfdfb0a5f95fab00	-0.4951567588129109
152	0x3fd90f7c5509761a	0.39157017044439757
153	0x3feb27f393326c9e	0.8486268877926653
154	0x3ffef6b1f0cd2cf7	1.9352282911593741
155	0x3fc20c16774b9a9c	0.14099388909308608
156	0x3feb21cd6ca87816	0.8478762743213817
157	0xbfa65ea2d36f33a2	-0.043690765676365886
158	0x3fcb657427e5e771	0.21403362224719616
159	0x3fbb3a6e24615800	0.10636032474698709
160	0xbfe85ff6c7d14462	-0.7617143538174214
161	0x3fddb362fc4aa258	0.46407389295430823
162	0xbfe64f0910d17d87	-0.6971478775484891
163	0xbfde1713c08307ae	-0.4701585178373716
164	0xbfd005b9fb7bc9c3	-0.2503495174306886
165	0xbff8565bd8de35d5	-1.5210836860090826
166	0xbfbd10071e7026bf	-0.1135258149444338
167	0xbfca75570f891cda	-0.20670593508314178
168	0x3fe450507112cfc1	0.6348039825884301
169	0x3fe15e541b6554d3	0.5427647147249907
170	0xc00735c91697bf3a	-2.901262451654387
171	0x3fd2557c5bcf0240	0.28646763768850647
172	0x3fc1ba74b528d0e2	0.13850268216777467
173	0x3ff166b54b211c08	1.0875752386798485
174	0x3fe7fc68faaa3a5a	0.7495617767143117
175	0xbff10b6dfbbac35b	-1.065290435141114
176	0xbfe5fb702d606f10	-0.686943138719899
177	0x3fdefe04ffbd1fcf	0.48425412153710296
178	0x3feb8b13dc1fe5ef	0.8607272433575285
179	0x400045c5bc37f6a5	2.034068556268567
180	0xbfdfdc98e75807e3	-0.4978391894547924
181	0xbfe88285e9d93a0b	-0.7659329955438933
182	0xbff5c8950f7366c7	-1.3614702800318115
183	0xbfe0d29e830ffb10	-0.5257103500187856
184	0xbff90f14ae8c819e	-1.566181833106476
185	0x3ff5c07e27c62c24	1.3594953111339771
186	0x3fe2e64058a03204	0.5906068545314729
187	0x3fe0128d6277d81e	0.5022646830755126
188	0x3ffa1779682eb198	1.6307310170769593
189	0xbfdc82c8c2d17a50	-0.4454824354669755
190	0x3ff3cafdcc51bd28	1.237058447000729
191	0xc0011cca3c35a55f	-2.1390576080199675
192	0x3fe65365da451486	0.6976804030497454
193	0x3fd3f21d6368a5ce	0.31165251453293485
194	0x3fe9289fe33af0ce	0.7862090528574528
195	0xbfcb01fdc8324080	-0.21099827075204658
196	0xbff0157752173b4b	-1.0052407461805213
197	0x3fa1f04dd4ee52fb	0.03503649925474935
198	0xbfb71bda04571499	-0.09026873212777033
199	0xbfe1d4776a929744	-0.557185848378801
200	0xbff68bd4340651b2	-1.409137919637129
201	0x3fba9e1e6d2e6b4d	0.10397520223197639
202	0x40025e246a55f635	2.2959678943141406
203	0xbff1320b36469476	-1.0747177238602297
204	0x3ff1955cb64d94f8	1.098965370293909
205	0x3fa3f87e18b6869c	0.039005222813341706
206	0xbfde9a0f2506bab0	-0.47815302482460265
207	0x3fee7e6dc0840013	0.9529331932135413
208	0x3ffdb4148a513514	1.8564649012581116
209	0xbfd3c144159a0fc2	-0.30867101773787564
210	0xbfe76f50bf69e850	-0.732338308195958
211	0x3fd0d67ad20c1aea	0.2630908061259293
212	0xbfe806e1478b70e7	-0.7508398434979683
213	0x3ff990923ede67f4	1.597795720654628
214	0xbfd5d74ab0549a6b	-0.3412653657891613
215	0x3ff206604db53afd	1.1265566859689777
216	0x3f8d171a4bb36564	0.014204221186832462
217	0xbff23a76df280cc7	-1.1392735211418754
218	0x3fb9333c89b66005	0.09843805658454137
219	0xbfb1e747a22eb906	-0.06993529996427492
220	0xbfe32c3d4ba25e63	-0.5991503216964243
221	0xbfe8e38d6e377d50	-0.7777774002715123
222	0x3ffbbaaf506f080b	1.7330773488943148
223	0xbfdfca26d90ed934	-0.4967133636195229
224	0x3fe03aef274b518b	0.5071941153969858
225	0xbff7ef119fb6efaf	-1.4958664168216094
226	0xbff0fdcc9f8a2eb9	-1.0619627220175245
227	0x3fcca7c75aaa9221	0.22387020041527797
228	0xbff10fd4a1ed92d9	-1.0663648915589674
229	0xbfd571f22c967fe7	-0.3350797114781003
230	0xbfd6bfc30f5a521a	-0.35545422076509825
231	0xbfcfa08d9bec8ed8	-0.24708719361762266
232	0xbfdd4cbb94f0c790	-0.4578083948609839
233	0x4000df5535b64c14	2.109049243570107
234	0x3fdb2da5d2528468	0.4246611169747383
235	0xbf6da65b0aba2139	-0.0036193636095200013
236	0xbff4e305fe850e20	-1.3054256384065255
237	0x3fff6fbf2d58df44	1.9647819301007567
238	0x3fcae0b6b921a4a7	0.20998271979923297
239	0x3ff95682ff98f3f5	1.5836210235859174
240	0x3fd698f3d368d89f	0.3530854763552131
241	0xbf6624bb1346b5d3	-0.0027030614675911196
242	0xc0063d454f0428ea	-2.779917352022598
243	0xbfd7a3d4f518eb7e	-0.36937450347220835
244	0xbfd34846973401c4	-0.30128636136944587
245	0xbff23815a7e78aa9	-1.1386925276534987
246	0x3fe3574a5d2fd134	0.6044055767111218
247	0x3ff277c63e116778	1.154241793110911
248	0x3ff2d6c059364143	1.1774295315590997
249	0x3ff4e60e5d46b60c	1.3061660426714097
250	0xbfc8407d42c5965c	-0.1894680572542481
251	0xbf9a1668a85bd47c	-0.025476107860374672
252	0x3ff4232e587c9864	1.2585891205322008
253	0x3ff44d6298f83f49	1.2688928580646055
254	0x3fbd5ef991b60c92	0.1147304516544401
255	0x3fd07c2804fa8e0f	0.25757790075496784
