px915_reproducible/b/MACE_model_b2.model (torch, 961474 bytes, 78 tensors)

r_max f8 []
0	0x4010000000000000	4.0

weight f8 [32]
0	0xbf901c7d0c67b6b2	-0.015733674890660417
1	0xbf3632e3c26ff644	-0.00033872662100961994
2	0xbf8fac663c67cedc	-0.015465544432096072
3	0xbfe25b0383dc1b7a	-0.5736100745569808
4	0xbf841d4d2e12cf57	-0.009821513145972167
5	0x3f72918f35e778b1	0.004533347526800722
6	0xbfd667593c26950f	-0.35005789636700596
7	0xbf9b7c66b174bfa8	-0.026841740208680825
8	0x3fcf1ed61cbda736	0.24312855151520701
9	0x3faed7f337602afa	0.06024131823513375
10	0x3fd73b326511c568	0.36298808927593607
11	0x3fdcf6bdbd7b6a8d	0.45255988601790237
12	0xc003f978d5593ab7	-2.4968125026565207
13	0x3f809331522d08b3	0.008093247719106555
14	0xbfebc2d900512164	-0.8675351148786317
15	0x3f67c4be21d88664	0.0029014314193467772
16	0xbfe27cf80ee89c1e	-0.5777550021347257
17	0x3fae94f9dbd6e110	0.05973034676157074
18	0xbfafcfee153ba9fa	-0.06213325509255081
19	0xbf9844175aa0779c	-0.023697247415945463
20	0xbfdebc72a2d3f400	-0.48025194073835564
21	0x3fc255927311d443	0.14323645228037848
22	0x3ff8d8210723bc4b	1.5527658728494937
23	0xbfe0d04a703800bd	-0.5254261199734384
24	0xbfbb28b07c27964f	-0.10608962088698458
25	0x3fe34fdcaae9b74a	0.6034987772124876
26	0xbfe8538120c0bf32	-0.7601934089379709
27	0x3fedc25021c3d5fe	0.9299698504898399
28	0xbfe7b01f805dfea5	-0.7402493960543849
29	0x3fd61919def83de7	0.34528204702743753
30	0x3ff214179cc56213	1.129905331026866
31	0x3f8f15e11010ebf2	0.015178449919508428

output_mask f8 [16]
0	0x3ff0000000000000	1.0
1	0x3ff0000000000000	1.0
2	0x3ff0000000000000	1.0
3	0x3ff0000000000000	1.0
4	0x3ff0000000000000	1.0
5	0x3ff0000000000000	1.0
6	0x3ff0000000000000	1.0
7	0x3ff0000000000000	1.0
8	0x3ff0000000000000	1.0
9	0x3ff0000000000000	1.0
10	0x3ff0000000000000	1.0
11	0x3ff0000000000000	1.0
12	0x3ff0000000000000	1.0
13	0x3ff0000000000000	1.0
14	0x3ff0000000000000	1.0
15	0x3ff0000000000000	1.0

bessel_weights f8 [3]
0	0x3fe921fb54442d18	0.7853981633974483
1	0x3ff921fb54442d18	1.5707963267948966
2	0x4002d97c7f3321d2	2.356194490192345

r_max f8 []
0	0x4010000000000000	4.0

prefactor f8 []
0	0x3fe6a09e667f3bcd	0.7071067811865476

p f8 []
0	0x4010000000000000	4.0

r_max f8 []
0	0x4010000000000000	4.0

atomic_energies f8 [2]
0	0xc02b591b83ea04ec	-13.67403805
1	0xc0e617acbb7942b7	-45245.39788497

weight f8 [256]
0	0x3fe3d0750056d06e	0.619196415579166
1	0x3ff258cc85f31dd9	1.1466794235619686
2	0xbfaa7fc2b7962af8	-0.05175598612830429
3	0xbff6b86506523c9b	-1.420018219654401
4	0x3ff8a28bcb143631	1.5396840985080298
5	0x3fe8f5c0262947f0	0.7799988503777495
6	0x3ff9a73dca0e6b90	1.603330411226782
7	0xbff09567c2be996e	-1.036475907059493
8	0x3fdfe2c3be1cc25e	0.4982156139913395
9	0xbfd8a35b3aa8bcbc	-0.3849704811900201
10	0x3ff6eea27af55be4	1.4332604220451168
11	0x3feb6834f9d755ec	0.8564705733976417
12	0xbff85b0f49fd4275	-1.52223137762135
13	0x3ff647cc2b55378e	1.3925286953631004
14	0x3fb1cdc22dae07f5	0.06954587569455824
15	0x3feadb9b11707638	0.8393073406802563
16	0xbfc9af8de17369c3	-0.20066998966542657
17	0x3ff18cd02d2cdf8a	1.096878220048867
18	0x3faf7765398f544d	0.06145778968463187
19	0x3fe2c76fd43abc51	0.58684531642019
20	0x3feca359eabd18ad	0.8949403366794023
21	0xbff507b7faf8ebd5	-1.3143844417197574
22	0x3fe3fec602ef8b6c	0.624850278600531
23	0x3ff0e1be27bb79bc	1.0551129867595668
24	0xbff1723d0113e3e1	-1.0903902093980309
25	0xbfbe1c181896fe75	-0.11761618233048828
26	0xbffc7b52db4ada73	-1.7801083150967798
27	0xbff064d9fb5b3642	-1.0246219462018336
28	0xbfb22acf9abe656e	-0.07096574333117697
29	0xbfe05afae6fe963c	-0.5111059676752983
30	0x3fbe36afaad4c082	0.11802194519691692
31	0xbfdd7769b4211629	-0.4604133853029873
32	0xbfb80e597be80d0b	-0.09396895670947829
33	0xbff2f9d150cf6f87	-1.1859906345989388
34	0xbfb0df77494f5cc4	-0.06590981998248241
35	0xbfe0c818e7d6d789	-0.5244259384260072
36	0x3fdedbf7c0b660d8	0.4821757680852108
37	0x3fd47e0a761d844c	0.32019292387673626
38	0xbfa5d224d45ff459	-0.04261889545885173
39	0xbfe20fb54c5cafed	-0.5644175044485543
40	0x3fef5b542eda9090	0.9798985400307334
41	0x3fc629f5fcfc43ca	0.17315554478457634
42	0x3fcb0cc4201c2fb2	0.21132709091068375
43	0x3fd5fdd0462a856d	0.34361655094297455
44	0xbff6b9201fca6533	-1.4201966516323636
45	0x3fe5f2fe879fa8bf	0.685912384881952
46	0x3facf654454ebf39	0.056566842518235246
47	0xbfcdf340fd302853	-0.23398601877880995
48	0x3ff812b1205ee00e	1.5045634521939095
49	0xbfe8d80ff09e3726	-0.7763747882433776
50	0x3fe8436576e5a3d8	0.7582270929534571
51	0xbfde91c21816f4a7	-0.47764637329584975
52	0xbfb3a8345c0fdb88	-0.07678534743886989
53	0x3fe6006f8753aa1f	0.6875531809903953
54	0xbfdb6dcf4beb2388	-0.42857725538174707
55	0xbfe10c02fd2c325f	-0.5327162689951129
56	0xbfee2973a4ec5b1c	-0.9425600262792133
57	0xc001b269f58e9136	-2.212116163647944
58	0xbffcd5d25fc876e1	-1.8022025815511642
59	0xbfd9139be33981a1	-0.3918218344679421
60	0xbfe0c02bf8dfcb64	-0.523458467562119
61	0xbfdc4aad2f784398	-0.4420578921863636
62	0x3ffb21dc7d4f92da	1.6957669157938455
63	0x3fe2f0345d8b3a91	0.5918218447712481
64	0x3ffe13324d96e6c8	1.879686644634079
65	0xbfc654893044e67f	-0.1744548307122393
66	0xbfd1004c5cb0e6e8	-0.26564320613725423
67	0xbfd4836364d60498	-0.32051930281893126
68	0xbfd2faaeab3cdc29	-0.2965504333728313
69	0x3ff38304cf902f27	1.2194870098055135
70	0xbff0e3a6817971c1	-1.0555787141412198
71	0x3fd54eafccb246af	0.3329276560772127
72	0xbfffece6524cb04b	-1.9953368391825446
73	0x3fd6547ba6ab3c49	0.34890643383272796
74	0xbffb5bf3ac7773cd	-1.7099491822220785
75	0x3fd607ec912f202b	0.3442336480916334
76	0xbfdf0f716094568b	-0.48531755858980635
77	0x3fe8d75f703ed467	0.7762906257909322
78	0xbfd216eb5b14ef2e	-0.2826488866301017
79	0x3fe3c3fe2e24fb6c	0.6176749135264408
80	0x3ff2f30a472fb3a1	1.184335973807926
81	0xbfc5052636848c17	-0.16421964323043944
82	0x3fadf28b55585129	0.05849109093483868
83	0x3fa2010a8b00133c	0.03516419359951903
84	0xbfe091eb09ce606a	-0.5178122703100716
85	0xbfd77725102d3bf5	-0.36664702014689904
86	0xbf96a2f6c420fecb	-0.022106033058888735
87	0x3ffe740e877f4782	1.903334168706778
88	0x3ff912bcc835de66	1.5670745678634375
89	0xbfc09bc7240ca916	-0.12975396404483125
90	0x3fd27b8e8ec71a67	0.288791312629121
91	0xbfc7585219f4a8f6	-0.1823828341233093
92	0xbf9cf0b4a2b5132d	-0.028261969023577627
93	0xbfe96bd853ab4e66	-0.7944146761096362
94	0xbfa505e2f2f4d19b	-0.04106053558135444
95	0xc0002c391a78e548	-2.0215932911056917
96	0x3fd1f42dcc926cb1	0.2805284974835543
97	0x3ff138a373856f75	1.0763277542636989
98	0xbfd76a974c5a5d64	-0.36588079887720526
99	0xbfe0a39c9d3b924f	-0.519972140402908
100	0x3fcb7649ddf06df1	0.21454737984537034
101	0x3fd4cf6e3ec19c90	0.3251605618338056
102	0xbff200fb4a79a74e	-1.125239649695192
103	0xbffa5ddd2a2b913b	-1.647915997245106
104	0x3fe6bc05d306c4c7	0.710451996003166
105	0xbfe57eb12d677e63	-0.6717153441240494
106	0xbfed8197a61d8e9f	-0.9220693821375398
107	0x3ff24b0ecbe97591	1.1433246579466394
108	0xbfe8601d93aaa094	-0.7617328533279015
109	0x3ffe41894c9659a5	1.8910000793162933
110	0x3ff7f795631f6aa8	1.4979452011090562
111	0xbfb831ddbba2fde9	-0.09451089697812844
112	0xbfda51df5f3cb197	-0.41124710369583667
113	0xbff60b4cb899b05b	-1.3777587138129295
114	0x3fae488fddbe5dfc	0.05914735395270651
115	0x3fd805ea43052ec3	0.3753610281462267
116	0xbff5eb243fad1f94	-1.3699076163629558
117	0x3fea37d13264002b	0.8193136200134225
118	0xbfec37ba602a0859	-0.8818027380186876
119	0x3fda4069ccb92876	0.41018147461421195
120	0xbff7513dc20c6db5	-1.4573342876454778
121	0x3ff2bd18911ff847	1.1711660069409093
122	0x3fe457c0b14d848a	0.6357120001740821
123	0xbfed91d0a5304bef	-0.92404968512926
124	0xbfec3e8e42688bf2	-0.8826361939467218
125	0xbfe2cdd5f78d6430	-0.5876264414793066
126	0x3fc28144f739bfaf	0.1445699889331968
127	0xbfce0002bc393d1c	-0.23437532606701772
128	0x3fe3e2d96177f7e4	0.621441545837794
129	0xbff62dfaa632c6cb	-1.386225365841187
130	0xbfdae6d8f7d57046	-0.42033981516374685
131	0xbff7656c0927db40	-1.4622612340587722
132	0xbff7f20ec097c872	-1.4965961001549002
133	0xbff3b34b2b687e0b	-1.2312728591567772
134	0x3febfb1de37c3d80	0.8744039004395034
135	0x3fb143840bcabc18	0.0674364594258211
136	0x3fd7834490870988	0.36738695253384224
137	0x3ff0fcf4b6ba6d1f	1.0617568147488965
138	0x3fb9dfbe059898d6	0.10107028614638422
139	0x3fe0c3b06152736b	0.5238878155538321
140	0x3fddaab0fe1a9e71	0.46354317488519486
141	0x3fa598add92ad899	0.04218047405213205
142	0xbfda72ba005c8b03	-0.4132523540048824
143	0xbfc0632070b994db	-0.12802510742327552
144	0xbffc54a74d40090f	-1.7706673638900303
145	0x3fcdf43f6612ad11	0.23401634677916452
146	0x3fca710e5a776c6a	0.20657519738492464
147	0x3fece60530052e3d	0.9030786455054521
148	0x3fe9f94e104a24d5	0.8116827314526299
149	0x3fd21516e06e31fa	0.2825371925071348
150	0x3fd81e7e4b6585eb	0.37686116564699884
151	0xbfeb0fd72711923e	-0.8456836474475222
152	0xbfe456b0114d47fd	-0.635582002442106
153	0x3fcff0c823d325f2	0.2495355772901316
154	0x3fe12769732b6155	0.536061024608936
155	0xbfa64d5f62be5394	-0.04355905609478508
156	0x3ff309efc0386960	1.1899259098632555
157	0xbfff1163c6b6d0d4	-1.9417455446501224
158	0xbfd40da25d3951e6	-0.31333216766259253
159	0x3feffd672732ea27	0.9996829763034086
160	0xbfd176e5d9ffe11b	-0.2728819493199965
161	0x3fe3b0d48e9ce328	0.6153357301146558
162	0x3fe1cbd509c7710c	0.5561318579671322
163	0xbfadc5a40939eb5a	-0.058148504377604396
164	0x3fe01641b26d2852	0.5027168736353451
165	0xbff5f165f6794ce3	-1.3714351299175227
166	0xbfc5fcf3cc42cc5d	-0.17178199266126884
167	0xbffb3f7872c27245	-1.7029957278056298
168	0xc002551894cb3f90	-2.2915507912184196
169	0x3ff0b7c5dd6d41a2	1.0448664330943775
170	0x3ff1f37a7ea6de26	1.1219429919564248
171	0x3febcf34bec888f3	0.8690437055813888
172	0x3fe06bd8de35f6c0	0.5131649341635338
173	0xbfe224e052579f02	-0.5670014961478673
174	0xbfdfceb7c2634fc3	-0.49699205382534845
175	0x4004e67cb3d9275e	2.6125425387044023
176	0xbfeef168633a8bd9	-0.9669687212048031
177	0xbf708aa74a1a4ba5	-0.004038480257480358
178	0xbff830412d43245f	-1.5117809074456756
179	0xbfdafa998c01aaca	-0.421545397496328
180	0x3ff600f504efc124	1.3752336685975672
181	0x3fe4d36d1150b445	0.6508088434399119
182	0xbff47e73fe2739ae	-1.280872338090926
183	0xc0018a582eab4ae7	-2.1925510068916654
184	0x3fcfeffbdf5bfc6b	0.2495112267133409
185	0x3f8e7d8ccd848146	0.014887905141734447
186	0xbfef8fde8d6af785	-0.9863121759478736
187	0xbfe9c1ec985b5996	-0.804922387668557
188	0xbfec6fa9ccd47919	-0.8886307716927916
189	0xbfdd3697ef2c5c10	-0.456457122390419
190	0xbfe7d6f3e85683fd	-0.7449893510676017
191	0xbfe07dcac03b339d	-0.5153554682270741
192	0xbfbacd0ecc3f83bd	-0.10469143377805686
193	0x3fcabb5ce400b389	0.20884286053606285
194	0x40032dde2f2c4477	2.3973964391121245
195	0xbfd1440fa9558e23	-0.2697791246084497
196	0xbfef7a64859304fd	-0.9836905106423327
197	0x3ff284ea5070cbe0	1.1574500219546664
198	0x3ff6dbed3fc3b7d2	1.4286930552293495
199	0xbfe45d74cdbb4573	-0.6364082353776851
200	0x3ff00ce2a6ed4890	1.003145839746626
201	0x4001ae9905dc3839	2.2102528055029578
202	0xc000bde210f6da62	-2.0927163434346747
203	0xbff7ce9a1fa9276a	-1.48793995254024
204	0x3ff8eb1c30993f11	1.5573999307998216
205	0x3ff9591beb51f577	1.5842551414674213
206	0x400347cb8b166c1b	2.4100561968057383
207	0x3fe295ede6d7d72e	0.5808019169478251
208	0xbff2e09414e59984	-1.179828721645749
209	0x3fe543d5ff0f3e79	0.6645307523376253
210	0x3fd7bb3c937f4850	0.3708030167009655
211	0xbfdcad8a48f520fc	-0.44809205174216493
212	0xbfded77b4141bb58	-0.4819019448540778
213	0x3fb7edfcfe100f7b	0.0934751625318863
214	0xbfcee9cec45c8ec8	-0.24151024425474632
215	0xbfd4410e2ac9e44d	-0.31647066286638365
216	0x3fc45e1c72bf50ba	0.15912204363724475
217	0xbffe63f91d1e8b92	-1.899407495257695
218	0x3fdf7395fe5b974d	0.49142980422617627
219	0xbfda14e17d8df546	-0.40752446423706024
220	0x3fd928b64b74f0e0	0.39310986870601816
221	0x3fdb6197f644c230	0.4278316407171898
222	0xbfd34eb887175b2c	-0.3016797370195714
223	0x3fc2477b76d3a4fe	0.14280646612250075
224	0xbfe197a6a227dc78	-0.5497620741943043
225	0xbfbdf391df9e7ccf	-0.11699783048105704
226	0x3ff38ac21771b9cf	1.221376506403988
227	0x3fea8bbfa696fd60	0.8295591596324066
228	0x3ff0168160d1c1dd	1.0054944784170552
229	0x3fe46bd649a71abc	0.6381637037782961
230	0xc000317605c9f689	-2.0241508915194726
231	0x3fe0b8a025d333c8	0.5225373018998818
232	0xbfe1774c6a3e9ea9	-0.545812804707528
233	0xbfd4d6f0b2762c77	-0.32561891010181604
234	0xbfdc32e53234bd67	-0.44060640242510946
235	0xbfcf9b795bf06acc	-0.24693219174590408
236	0x3febbc7eb8bd89c8	0.866759644337713
237	0x3fa79c4c829020ac	0.04611434072290996
238	0x3ff88f0dab61c744	1.534925145588617
239	0xbfe380706cac2b0b	-0.6094286081800829
240	0x3fe27a132478f52e	0.5774017059663146
241	0x3fe0518cf277de90	0.5099549041469391
242	0xbfc3e6b756697c49	-0.1554783985074855
243	0x3fa897acc4824318	0.04803218745030885
244	0xbff617974a8f33e0	-1.380759516952132
245	0xbfb4801f15ab3231	-0.08007997778913346
246	0x3fe1f431aba868dd	0.5610588410084137
247	0xbfea7d0fb1e28325	-0.8277662729561582
248	0xbfbeda216cb2c72a	-0.12051590827720973
249	0xbfc649fe9d69a914	-0.17413313566368827
250	0xbfc0aba60490d656	-0.130238296727543
251	0x3ff4ebcaf0b3707f	1.3075665857677732
252	0x3feb3e6ab818a961	0.851369247019914
253	0x3fcc786208a5e447	0.22242379591242153
254	0x3fd6401c9171bdcd	0.347663061175777
255	0xbff0e017a17cd273	-1.0547100360974155

output_mask f8 [16]
0	0x3ff0000000000000	1.0
1	0x3ff0000000000000	1.0
2	0x3ff0000000000000	1.0
3	0x3ff0000000000000	1.0
4	0x3ff0000000000000	1.0
5	0x3ff0000000000000	1.0
6	0x3ff0000000000000	1.0
7	0x3ff0000000000000	1.0
8	0x3ff0000000000000	1.0
9	0x3ff0000000000000	1.0
10	0x3ff0000000000000	1.0
11	0x3ff0000000000000	1.0
12	0x3ff0000000000000	1.0
13	0x3ff0000000000000	1.0
14	0x3ff0000000000000	1.0
15	0x3ff0000000000000	1.0

output_mask f8 [256]
0	0x3ff0000000000000	1.0
1	0x3ff0000000000000	1.0
2	0x3ff0000000000000	1.0
3	0x3ff0000000000000	1.0
4	0x3ff0000000000000	1.0
5	0x3ff0000000000000	1.0
6	0x3ff0000000000000	1.0
7	0x3ff0000000000000	1.0
8	0x3ff0000000000000	1.0
9	0x3ff0000000000000	1.0
10	0x3ff0000000000000	1.0
11	0x3ff0000000000000	1.0
12	0x3ff0000000000000	1.0
13	0x3ff0000000000000	1.0
14	0x3ff0000000000000	1.0
15	0x3ff0000000000000	1.0
16	0x3ff0000000000000	1.0
17	0x3ff0000000000000	1.0
18	0x3ff0000000000000	1.0
19	0x3ff0000000000000	1.0
20	0x3ff0000000000000	1.0
21	0x3ff0000000000000	1.0
22	0x3ff0000000000000	1.0
23	0x3ff0000000000000	1.0
24	0x3ff0000000000000	1.0
25	0x3ff0000000000000	1.0
26	0x3ff0000000000000	1.0
27	0x3ff0000000000000	1.0
28	0x3ff0000000000000	1.0
29	0x3ff0000000000000	1.0
30	0x3ff0000000000000	1.0
31	0x3ff0000000000000	1.0
32	0x3ff0000000000000	1.0
33	0x3ff0000000000000	1.0
34	0x3ff0000000000000	1.0
35	0x3ff0000000000000	1.0
36	0x3ff0000000000000	1.0
37	0x3ff0000000000000	1.0
38	0x3ff0000000000000	1.0
39	0x3ff0000000000000	1.0
40	0x3ff0000000000000	1.0
41	0x3ff0000000000000	1.0
42	0x3ff0000000000000	1.0
43	0x3ff0000000000000	1.0
44	0x3ff0000000000000	1.0
45	0x3ff0000000000000	1.0
46	0x3ff0000000000000	1.0
47	0x3ff0000000000000	1.0
48	0x3ff0000000000000	1.0
49	0x3ff0000000000000	1.0
50	0x3ff0000000000000	1.0
51	0x3ff0000000000000	1.0
52	0x3ff0000000000000	1.0
53	0x3ff0000000000000	1.0
54	0x3ff0000000000000	1.0
55	0x3ff0000000000000	1.0
56	0x3ff0000000000000	1.0
57	0x3ff0000000000000	1.0
58	0x3ff0000000000000	1.0
59	0x3ff0000000000000	1.0
60	0x3ff0000000000000	1.0
61	0x3ff0000000000000	1.0
62	0x3ff0000000000000	1.0
63	0x3ff0000000000000	1.0
64	0x3ff0000000000000	1.0
65	0x3ff0000000000000	1.0
66	0x3ff0000000000000	1.0
67	0x3ff0000000000000	1.0
68	0x3ff0000000000000	1.0
69	0x3ff0000000000000	1.0
70	0x3ff0000000000000	1.0
71	0x3ff0000000000000	1.0
72	0x3ff0000000000000	1.0
73	0x3ff0000000000000	1.0
74	0x3ff0000000000000	1.0
75	0x3ff0000000000000	1.0
76	0x3ff0000000000000	1.0
77	0x3ff0000000000000	1.0
78	0x3ff0000000000000	1.0
79	0x3ff0000000000000	1.0
80	0x3ff0000000000000	1.0
81	0x3ff0000000000000	1.0
82	0x3ff0000000000000	1.0
83	0x3ff0000000000000	1.0
84	0x3ff0000000000000	1.0
85	0x3ff0000000000000	1.0
86	0x3ff0000000000000	1.0
87	0x3ff0000000000000	1.0
88	0x3ff0000000000000	1.0
89	0x3ff0000000000000	1.0
90	0x3ff0000000000000	1.0
91	0x3ff0000000000000	1.0
92	0x3ff0000000000000	1.0
93	0x3ff0000000000000	1.0
94	0x3ff0000000000000	1.0
95	0x3ff0000000000000	1.0
96	0x3ff0000000000000	1.0
97	0x3ff0000000000000	1.0
98	0x3ff0000000000000	1.0
99	0x3ff0000000000000	1.0
100	0x3ff0000000000000	1.0
101	0x3ff0000000000000	1.0
102	0x3ff0000000000000	1.0
103	0x3ff0000000000000	1.0
104	0x3ff0000000000000	1.0
105	0x3ff0000000000000	1.0
106	0x3ff0000000000000	1.0
107	0x3ff0000000000000	1.0
108	0x3ff0000000000000	1.0
109	0x3ff0000000000000	1.0
110	0x3ff0000000000000	1.0
111	0x3ff0000000000000	1.0
112	0x3ff0000000000000	1.0
113	0x3ff0000000000000	1.0
114	0x3ff0000000000000	1.0
115	0x3ff0000000000000	1.0
116	0x3ff0000000000000	1.0
117	0x3ff0000000000000	1.0
118	0x3ff0000000000000	1.0
119	0x3ff0000000000000	1.0
120	0x3ff0000000000000	1.0
121	0x3ff0000000000000	1.0
122	0x3ff0000000000000	1.0
123	0x3ff0000000000000	1.0
124	0x3ff0000000000000	1.0
125	0x3ff0000000000000	1.0
126	0x3ff0000000000000	1.0
127	0x3ff0000000000000	1.0
128	0x3ff0000000000000	1.0
129	0x3ff0000000000000	1.0
130	0x3ff0000000000000	1.0
131	0x3ff0000000000000	1.0
132	0x3ff0000000000000	1.0
133	0x3ff0000000000000	1.0
134	0x3ff0000000000000	1.0
135	0x3ff0000000000000	1.0
136	0x3ff0000000000000	1.0
137	0x3ff0000000000000	1.0
138	0x3ff0000000000000	1.0
139	0x3ff0000000000000	1.0
140	0x3ff0000000000000	1.0
141	0x3ff0000000000000	1.0
142	0x3ff0000000000000	1.0
143	0x3ff0000000000000	1.0
144	0x3ff0000000000000	1.0
145	0x3ff0000000000000	1.0
146	0x3ff0000000000000	1.0
147	0x3ff0000000000000	1.0
148	0x3ff0000000000000	1.0
149	0x3ff0000000000000	1.0
150	0x3ff0000000000000	1.0
151	0x3ff0000000000000	1.0
152	0x3ff0000000000000	1.0
153	0x3ff0000000000000	1.0
154	0x3ff0000000000000	1.0
155	0x3ff0000000000000	1.0
156	0x3ff0000000000000	1.0
157	0x3ff0000000000000	1.0
158	0x3ff0000000000000	1.0
159	0x3ff0000000000000	1.0
160	0x3ff0000000000000	1.0
161	0x3ff0000000000000	1.0
162	0x3ff0000000000000	1.0
163	0x3ff0000000000000	1.0
164	0x3ff0000000000000	1.0
165	0x3ff0000000000000	1.0
166	0x3ff0000000000000	1.0
167	0x3ff0000000000000	1.0
168	0x3ff0000000000000	1.0
169	0x3ff0000000000000	1.0
170	0x3ff0000000000000	1.0
171	0x3ff0000000000000	1.0
172	0x3ff0000000000000	1.0
173	0x3ff0000000000000	1.0
174	0x3ff0000000000000	1.0
175	0x3ff0000000000000	1.0
176	0x3ff0000000000000	1.0
177	0x3ff0000000000000	1.0
178	0x3ff0000000000000	1.0
179	0x3ff0000000000000	1.0
180	0x3ff0000000000000	1.0
181	0x3ff0000000000000	1.0
182	0x3ff0000000000000	1.0
183	0x3ff0000000000000	1.0
184	0x3ff0000000000000	1.0
185	0x3ff0000000000000	1.0
186	0x3ff0000000000000	1.0
187	0x3ff0000000000000	1.0
188	0x3ff0000000000000	1.0
189	0x3ff0000000000000	1.0
190	0x3ff0000000000000	1.0
191	0x3ff0000000000000	1.0
192	0x3ff0000000000000	1.0
193	0x3ff0000000000000	1.0
194	0x3ff0000000000000	1.0
195	0x3ff0000000000000	1.0
196	0x3ff0000000000000	1.0
197	0x3ff0000000000000	1.0
198	0x3ff0000000000000	1.0
199	0x3ff0000000000000	1.0
200	0x3ff0000000000000	1.0
201	0x3ff0000000000000	1.0
202	0x3ff0000000000000	1.0
203	0x3ff0000000000000	1.0
204	0x3ff0000000000000	1.0
205	0x3ff0000000000000	1.0
206	0x3ff0000000000000	1.0
207	0x3ff0000000000000	1.0
208	0x3ff0000000000000	1.0
209	0x3ff0000000000000	1.0
210	0x3ff0000000000000	1.0
211	0x3ff0000000000000	1.0
212	0x3ff0000000000000	1.0
213	0x3ff0000000000000	1.0
214	0x3ff0000000000000	1.0
215	0x3ff0000000000000	1.0
216	0x3ff0000000000000	1.0
217	0x3ff0000000000000	1.0
218	0x3ff0000000000000	1.0
219	0x3ff0000000000000	1.0
220	0x3ff0000000000000	1.0
221	0x3ff0000000000000	1.0
222	0x3ff0000000000000	1.0
223	0x3ff0000000000000	1.0
224	0x3ff0000000000000	1.0
225	0x3ff0000000000000	1.0
226	0x3ff0000000000000	1.0
227	0x3ff0000000000000	1.0
228	0x3ff0000000000000	1.0
229	0x3ff0000000000000	1.0
230	0x3ff0000000000000	1.0
231	0x3ff0000000000000	1.0
232	0x3ff0000000000000	1.0
233	0x3ff0000000000000	1.0
234	0x3ff0000000000000	1.0
235	0x3ff0000000000000	1.0
236	0x3ff0000000000000	1.0
237	0x3ff0000000000000	1.0
238	0x3ff0000000000000	1.0
239	0x3ff0000000000000	1.0
240	0x3ff0000000000000	1.0
241	0x3ff0000000000000	1.0
242	0x3ff0000000000000	1.0
243	0x3ff0000000000000	1.0
244	0x3ff0000000000000	1.0
245	0x3ff0000000000000	1.0
246	0x3ff0000000000000	1.0
247	0x3ff0000000000000	1.0
248	0x3ff0000000000000	1.0
249	0x3ff0000000000000	1.0
250	0x3ff0000000000000	1.0
251	0x3ff0000000000000	1.0
252	0x3ff0000000000000	1.0
253	0x3ff0000000000000	1.0
254	0x3ff0000000000000	1.0
255	0x3ff0000000000000	1.0

weight f8 [3, 64]
0	0x3fe091d9eacf8cf4	0.5178041063449244
1	0xbfd56e5895938c2b	-0.33485998732629935
2	0x3ff0fc60cb292245	1.061615747066882
3	0xbfcbc7d8f892a500	-0.21703636300416207
4	0xbfefd1a31dbc2ad1	-0.9943404751550934
5	0xc001b6f154feefd9	-2.2143274917889184
6	0xbff3fd8dbf0ef0ac	-1.2494027579514677
7	0x3feb8ccf11d86897	0.860938582281295
8	0xbff262db583c12f8	-1.1491349646250324
9	0xbfe9288556c7a492	-0.7861963934821168
10	0xc0026a80c7d18321	-2.302003441888147
11	0xbfc48e4f22df96fb	-0.1605929298668157
12	0xbfe8adb5bd7ca25e	-0.7712048245349015
13	0x3f7ca3d911a02b52	0.00699219505805611
14	0xbfedb9ce55f6e033	-0.9289313963881852
15	0xbfe4245ed01b4f45	-0.629439741571766
16	0xbfdc08a3e4a82e8c	-0.4380273564317825
17	0x3ff0c1614418f239	1.0472119007164464
18	0x3fd3603f3b643368	0.3027494506830437
19	0xbfede2399f689d37	-0.9338653672647642
20	0xbff090d0b4cacab7	-1.035355287761076
21	0x3fdf3cde7d3aaf26	0.48809015492837415
22	0xc0034bad8b13f373	-2.4119521012748293
23	0xbff1eb005342dfaf	-1.1198733570472361
24	0xbfbc8fdf2efd90a4	-0.11157030961254805
25	0xbffd4ecbbd6c3ccc	-1.8317372702911596
26	0xc007ed689e410687	-2.990922199592038
27	0x3fea798a421e05be	0.8273364344933538
28	0x3ff92871005fe6ed	1.5723733915933125
29	0xc0001c1f34a3fa35	-2.013731395010178
30	0x3feee3847e04af3b	0.9652731381697558
31	0x3fdf86d0d54d0d3e	0.49260350065397407
32	0x3fe0753271290c26	0.5143062791979716
33	0x3fdf070003b7354c	0.48480224955422524
34	0x3fd92bafc26d3fa5	0.3932914160441164
35	0x3fdfbf283ac02e5e	0.49604230630277424
36	0xbfb31a267c1dcfcd	-0.07461777239023988
37	0xbff207bfb4486cf0	-1.1268918077756176
38	0x3fc3ac04cf6eb10f	0.1536870968678916
39	0x3ff836a37827366e	1.5133394902690287
40	0x3ff94df98b902ef6	1.5815368129432819
41	0xbf9daecb5bdedc5e	-0.028987100107510926
42	0x3ff9cb35f29de8e7	1.6121119954319114
43	0xbfe995d62be953c8	-0.7995406015057762
44	0x3fe55d25360d3dad	0.667620282716532
45	0xc0023ed286c7bf3f	-2.280674984904095
46	0xbfc92043ebc59391	-0.19629715931219185
47	0x3ff21788b406f9f8	1.1307456047358055
48	0x3fc20a6a1af215b0	0.1409428245134854
49	0xbfd5687fb160710c	-0.33450310060449406
50	0xbfc52d099ff18b27	-0.16543693837874082
51	0xbfca7bb1b1e5d636	-0.20689984499374398
52	0xc01019963f67feb4	-4.024987211916301
53	0xbfec31e517dc409b	-0.8810906854651138
54	0xbff3decb8c4321fd	-1.2418933371537826
55	0xbff4fa16f4393c2a	-1.3110570468886729
56	0xbfd3d36ccf055079	-0.3097793599783994
57	0xbfc2dab1c9324a51	-0.14729902576489676
58	0x3fd791af8cdfbf6c	0.36826695210674276
59	0xc003a20f0be86ac4	-2.4541302614501053
60	0x3fbe81d70d1c10d4	0.11916870184001321
61	0xbfe09f08a4854d6e	-0.5194133008284731
62	0xbfe5391186191e12	-0.663216363821393
63	0xbff47455d1335d4f	-1.2784021541500186
64	0xbfde2d9de0697fb7	-0.47153422274822837
65	0x3fd4cfbf4c71c2b9	0.32517988648673285
66	0xbfed961ae216d7d2	-0.9245733657651221
67	0x3fc54dd756c176c2	0.1664380239116579
68	0xbf9218cada9bdcfc	-0.01767270049364543
69	0xbff3fa45575c1e0b	-1.248601285218572
70	0x3ff1c13de0975039	1.109678151425227
71	0xbfc037c78658d98b	-0.1267022520057249
72	0xbfdbcf9af25a679a	-0.43454621951388506
73	0x3ff05b61e2f26ed3	1.022310148727162
74	0x3ff00febb8a572d2	1.0038869107003632
75	0xbff78594b409139c	-1.4701125176081637
76	0x3fe85fbc305886ed	0.7616864151243284
77	0x3ff10315473a28eb	1.0632527143775927
78	0x3fe25b719c3f933e	0.5736625720715904
79	0x3ffdc69762ec1459	1.8609842170856352
80	0xbfdbb312c15db12c	-0.4328047645892805
81	0xbfaadd1b98b76c69	-0.052468168632650976
82	0x3fe4603ce74383e3	0.6367477909917593
83	0x3f874ee85f3a39c0	0.011380973249541237
84	0xbfe02b68eef6822b	-0.5052990596050838
85	0x3fd5873803f003e4	0.3363781012013176
86	0x4005aa97335ab99f	2.7082962047636125
87	0xbfdc3f5433e491b6	-0.4413652903333757
88	0x3fc2fa75cb82efa1	0.14826843678554005
89	0xbfd09de90d39308f	-0.259638083375429
90	0x3ff6e6f0d24d3e77	1.4313820090209484
91	0xbff4db91e5445074	-1.3036059337364607
92	0xbff776b05a99a3e1	-1.4664767779415728
93	0xbfc508d33d6c5ffb	-0.16433182238756658
94	0xbff05606dc576978	-1.021002636631776
95	0xbff665f077cf56ef	-1.399887531287671
96	0xbff097ed80020a98	-1.0370917320548525
97	0xbfe8f521b883e80e	-0.779923305875174
98	0xbfe062e68fe4c2d5	-0.5120728311940989
99	0xbfb80e426bc36b07	-0.09396758204404075
100	0x3febd94b4ef32abb	0.870275167654959
101	0x3ffbbf0baef68d4f	1.734142001580796
102	0xbfd2020b66a2c8b5	-0.2813747885039775
103	0xbfbbc718939384d9	-0.10850671389518442
104	0xbfc96854346bb04f	-0.19849636611559382
105	0xbfdcacceba408c0a	-0.4480473345631145
106	0x3fd70d70e2211360	0.3601953705113399
107	0x3fe210f056600e4d	0.56456772680435
108	0x3fecf767d3e30ce1	0.9052008760849298
109	0xbfccac61506f4abd	-0.22401062419392828
110	0xbff23d19e5be92b0	-1.1399172758475906
111	0x3fc508bded318a3e	0.16432928163256294
112	0xbfb77dbd76ec62c4	-0.09176239159968264
113	0x3ff97ce629391620	1.5929929361603925
114	0xbf9913e0a6791ad9	-0.02448988929816207
115	0x3fc15f9daf8dc049	0.13573046752890353
116	0xbfc406f059fc32a2	-0.15646175760084186
117	0xbf899f46b828d300	-0.012510826583004953
118	0x3ff7b51d430cf977	1.4817173594634292
119	0x3fed8928e21763d8	0.9229931274268166
120	0x3fc6adbfac697ad7	0.17717739027553733
121	0xbffb50211c07036b	-1.7070628256626275
122	0x3f912d9b1f1720a9	0.016775535366634262
123	0xbfeabcc67124231a	-0.8355438432491582
124	0x3fec20ce294ad42d	0.8790045553674922
125	0x3fc01afabc482835	0.12582334702921263
126	0xbff0f44610287d89	-1.0596371298960057
127	0x3ff06b96b2ca1ffe	1.0262667640654395
128	0xbfcc11944bd226af	-0.2192864771098377
129	0xbfbb55a1e50840c2	-0.10677539674384476
130	0x3fd08d6f0923a404	0.2586324300050935
131	0xbfa309cc104441bc	-0.03718412111823308
132	0x3ff58ecee4519803	1.3473652762127137
133	0x400e067ef81b6947	3.7531718619694945
134	0xbfd5b6371e4628c0	-0.33924653965426543
135	0xbfcadbf65df29e5a	-0.2098377188424248
136	0x3fefa81a17062f1b	0.9892702531519463
137	0xbfd56fae88504bd5	-0.33494151412849976
138	0x3fe7fd40e76ca770	0.7496647377022168
139	0x3fe7889f3e02d2bf	0.7354274951126952
140	0xbfcf26415d21ab8e	-0.24335495994031614
141	0x3fbebeca8414a6d8	0.12009874081254723
142	0xbfb148db99312934	-0.06751797189750591
143	0xc00b60fd7664fe86	-3.422358441311931
144	0x3fe44921d3c59540	0.6339272628944528
145	0xbfb0148b2a82df0a	-0.06281347072478752
146	0xbfe4eda84b9ae5ce	-0.6540109135304932
147	0x3ffcad66feb7324f	1.7923345517948694
148	0x3ff0346cb214b62e	1.012798972729239
149	0xbfe29e6762d9c7fb	-0.5818364077260861
150	0xbfef51c0343c4152	-0.9787293453428367
151	0x3ff177b4827a86b7	1.0917248818226832
152	0x3fffcf3175a41bcc	1.988084277663563
153	0x4003e0ec7d3bba92	2.484826067338255
154	0x3fe0fd4568e89219	0.530916886233686
155	0x3fea8f3b9d710ef8	0.8299844813377311
156	0x3fdd52bda969427a	0.45817510170039777
157	0x3ffb34a43a790671	1.7003519329158758
158	0x3fdd65570b263107	0.45931030358112007
159	0x3fedf853086099a9	0.9365630305881513
160	0x3fe18cb147ff4ae1	0.5484243780323049
161	0x3fd93e791af48202	0.3944380534394726
162	0x3fd65af2d49c064e	0.3493010593666427
163	0x3fbe8325dd7ddf3e	0.11918865830909639
164	0xbff5319d6ab5baa7	-1.324613015017954
165	0x3ffe5f36ae594bfb	1.8982455072880373
166	0xbfeb6c0f859fc2ee	-0.8569409952015954
167	0xbfd92dd30995811c	-0.3934218972772372
168	0xbfd901e043cd163a	-0.39073950406268276
169	0x3fd4ab1e5dec8ac9	0.32294425174965774
170	0xbff100d5e4dff899	-1.0627039852547908
171	0xbfb98749363bf148	-0.09972055028987825
172	0xc0006b4308c429a6	-2.052373951422129
173	0x3ff2cef1dd403bec	1.1755236284841386
174	0x40072cb9fb2a05af	2.896839105815807
175	0xbfe2bd4091622299	-0.5856020774381988
176	0x3f891b03cf2563fe	0.012258558043571451
177	0x3fa96b415156b5b6	0.049646416834871074
178	0x3fb0a92ce6a0b4d7	0.06508141165314228
179	0xbf9a6fbb4fa74fa6	-0.025816847550074982
180	0x400aa5c5e3ae1131	3.3309438502784805
181	0x3ff7427625597e94	1.4537259539573926
182	0xbff13ae026b78464	-1.0768739235284324
183	0xbfc5910bf597b66f	-0.16848897449328912
184	0xbfb41b297a927231	-0.07853945963365373
185	0x3fff2355fef492b2	1.9461269339746363
186	0xbfb19a486398001d	-0.06876041823852615
187	0x3ff98e43ffd3f39f	1.5972328179625277
188	0xbfc1e398f85981ad	-0.13975822569319743
189	0x3fc2c066fdd715fc	0.1464966525510788
190	0x3ffc26e1ded2294f	1.759492750543888
191	0xbfd0152bf334418e	-0.2512922167816435

weight f8 [64, 64]
0	0xbfe1c3e6742b0acf	-0.5551635998638974
1	0x400420850360eccb	2.515878702540794
2	0x3feec68b55adffa5	0.9617363618308344
3	0xbfeb65bc8ffda5d6	-0.8561690151520291
4	0x3fdfbb4567c647bb	0.49580512174827235
5	0x3fec2a2bcf9318e6	0.880147843760622
6	0x3ff85dfa38294a13	1.5229437059211974
7	0x4000c5f38b6bd0bf	2.096655930736318
8	0x3fc743604169b6f1	0.18174365228644931
9	0xbfc9a889ba036aa4	-0.2004558714168826
10	0x3fe169c2a04fe67c	0.5441601878257667
11	0x4006f132dd748fc6	2.867772798652342
12	0xc006249d0bc927f6	-2.767877666546151
13	0x3fefe8785e9962f1	0.997127709163662
14	0x3faa8dcae8fdb558	0.05186304182175644
15	0x3fd3ec0de42f7f41	0.3112826088308687
16	0xbff0b74ac91f8418	-1.044749055516382
17	0x3ff41a39971dbee3	1.2564025786377264
18	0xc0008a2303a8f2ba	-2.0674495969709286
19	0xbfda991118433cb3	-0.4155924546184437
20	0x3ff3af63467300a7	1.2303192855761524
21	0xbff3ec40f21de16d	-1.2451791246113217
22	0x3ffc545ac702a9ab	1.7705943845599943
23	0xbfe7c94084803ba1	-0.743316897192802
24	0xc00525062210c86c	-2.643078104149984
25	0x3fddb2b52e580417	0.46403245473635607
26	0xc001b1a47a821c48	-2.2117394991833272
27	0x3fe43166abffed70	0.6310304030770748
28	0x3fcef954a0914eb4	0.24198396530356592
29	0x3ff6ae4db0f14df6	1.417554560834899
30	0xbfe5b15cf4835f0b	-0.6779007697723228
31	0xc0060e752ba57195	-2.7570594224800495
32	0x3fcdeb8095b99500	0.23374945936954106
33	0xbfd48c01cc5c9179	-0.32104535062014566
34	0xbfd9798efbd2cf37	-0.3980443438733689
35	0x3ff28d6def504f4d	1.1595286701385306
36	0x40095ea5d218d15f	3.171214715368634
37	0x3ffcf81c5f90131e	1.8105739338800002
38	0xbff52071f5536ba6	-1.320421179107805
39	0xbfe9e714e9d772b4	-0.8094582144945748
40	0xbffc5afbf02d8690	-1.7722129232355748
41	0xbff20646d83bb989	-1.1265324064839624
42	0xbfd847a929dc31f1	-0.37937382781890877
43	0xbfb047c599f7d426	-0.06359515198694562
44	0xc001631186f0b95d	-2.1733732740605505
45	0xbffc747fe3c4df02	-1.7784422776439333
46	0xbfdaec6f48878a5c	-0.420680828885599
47	0x3fe86997d5420466	0.7628897824471437
48	0x3fe2e9f3b14fbc8b	0.5910585845102941
49	0x3ff028022c12ebd3	1.0097676965367455
50	0x3fc9ec02d0cd0204	0.202514984086534
51	0x400287d47a83ab39	2.3163232394630566
52	0x40013927c76db42e	2.15290790370502
53	0x3fbe103307dc2716	0.11743468229192575
54	0x3fe2e4b73d93d18b	0.5904194071468266
55	0xbff9c537b19a713e	-1.6106488168362172
56	0xbfee98f4a9b3c25e	-0.9561713518615524
57	0xbfdd7b2e2b65931c	-0.4606433318897858
58	0xbfdefebdc72e0dca	-0.4842981762996855
59	0xbff8059444545037	-1.501362101470489
60	0x3fda714ba2e78432	0.4131650057661914
61	0xbfff3f7bf4d4d73b	-1.9529990733839913
62	0xbfe920327b9564e0	-0.7851803220502482
63	0xbfd221e4e7511aca	-0.28331873502285687
64	0x3fdd4b52ef11ec7a	0.45772240969353784
65	0xbfc5fe90aa5d5845	-0.17183121031365736
66	0x3fee58a823169e95	0.9483223614997366
67	0x3fdcfff43777b219	0.4531221906352428
68	0x3fe9534c33cf6dc2	0.7914181720656688
69	0xbfe4af458665df1e	-0.6463954567870791
70	0xbfee416efb29a020	-0.9454874902267001
71	0x3fd6304897574cf2	0.3466969945850017
72	0x3fb8614e9e094603	0.09523478849703086
73	0xbfe4850bbe976ff3	-0.64124095177567
74	0x3fcac1f429cd0f39	0.20904399910988916
75	0x3fd72c20afab3824	0.362068339873874
76	0xbfc16b8e65fdc26a	-0.13609485607186694
77	0xbfe032174fd02af7	-0.5061146315432258
78	0xbfe18bbc94863102	-0.5483076954710955
79	0x3fe428941c7bed7c	0.6299534374551707
80	0x3fc5e0a3309aa030	0.17091789124720114
81	0x3fc301fa7bf8ef67	0.14849787762966146
82	0xbfb82b853f30e1d3	-0.09441407006023121
83	0xbfd307caed30bf93	-0.2973506275475241
84	0xbfd8ebc7912c2172	-0.3893908422183109
85	0x3ffb72821663369c	1.7154560923112632
86	0x3ff2e89100167057	1.1817789081024068
87	0xbfbb28bab0e6cc49	-0.10609022921453105
88	0xbff3482c55fda27c	-1.205120407010468
89	0x3fe95aee2f79fcfe	0.7923499038005557
90	0xbff8406356ef93f1	-1.5157197376186071
91	0xbfb0695ea6478d5a	-0.06410781440313454
92	0x3fde32b13712a5d9	0.47184400919158304
93	0x3fec45a6c7d1e599	0.8835023787243471
94	0xc00148373a585573	-2.160261588879331
95	0x3fc05c860e62861e	0.12782359793077175
96	0xbfe030cb9f1e81fe	-0.5059564693256673
97	0xbfe73c9f0281722f	-0.7261500405252884
98	0xbfedb34639257d1a	-0.9281340709821138
99	0x3fe3bf94bde0d701	0.6171363552627726
100	0x3fcd443e6f383974	0.22864513807912668
101	0xbffe54727480c6bc	-1.8956169653796868
102	0xbfedea634ae91b4c	-0.9348617995354771
103	0x400613e000c302a0	2.7597045955192954
104	0xbfc8b21d44af7df0	-0.1929356179598325
105	0xbfeca97a5bfa2d00	-0.8956882282667777
106	0xbfe185f4ee7458b1	-0.5476021439851789
107	0xbfdf41cc72e550b7	-0.4883910295514044
108	0xbfd60a3dc2185298	-0.3443750758608899
109	0x3fcad6f2fd947326	0.2096847284491556
110	0xbff5e40ae9273a87	-1.3681744678066552
111	0xbffa3d2664f6f01f	-1.6399291938714737
112	0xbff0a93b492c2eaa	-1.0413163049987966
113	0x3fe5f551814c9beb	0.6861960912109429
114	0xbfc65b4c27864bbb	-0.17466117792045374
115	0xbfebdb528be8088d	-0.8705227596804136
116	0xbfec7cfc847e2315	-0.8902571285007946
117	0xbfcb180941d4c37d	-0.2116710254136044
118	0x4003ac84710599e7	2.4592369870981545
119	0x3fa0827e68ccdd87	0.03224558858203879
120	0xbfece30a0920dd2a	-0.9027147463120049
121	0xbfe94eb3a73e8a0c	-0.7908571497430912
122	0x3ff2b76092fcd85c	1.1697698346811398
123	0xbfd813d2ccb18060	-0.3762099265059131
124	0x3fd0e74e22706003	0.2641177498167055
125	0xbfc6f441321fac6a	-0.1793290610069989
126	0x3fedf7b4d3b29ebb	0.9364875921937349
127	0x3fea75a23fe90bc3	0.8268595932244057
128	0xbfe8ddbd4ade1e2d	-0.7770678007372617
129	0xbfd44c9a2cf66c41	-0.3171754302108561
130	0x3ff641115057ea95	1.3908856523909539
131	0x3fc932cedeca0bbc	0.19686303976422248
132	0xbfe732405313723f	-0.7248841879441627
133	0xbffc8b52fd2ce311	-1.7840146913205823
134	0xbf90ab129ef91164	-0.01627759070676528
135	0x3fed6a0b08b621b9	0.9191947145600842
136	0x3ff08095cbe09777	1.031392856975314
137	0x3fc4095faea926d2	0.15653606441838136
138	0xbfe20491b1e38b30	-0.5630577539817292
139	0x3febd2a4714c6ac1	0.8694631779538541
140	0xbfbaab4d7ac3156c	-0.1041763710701013
141	0xbfcf5318e80b0e96	-0.2447234280608554
142	0x3fe9ac8d1ec3b04f	0.8023133850924838
143	0xbff624557fa26f82	-1.3838706002925112
144	0xbfefa8e6f3c7771e	-0.9893679391204591
145	0xbfebda4798dfe4e5	-0.8703954683143392
146	0xbfc94a103c750b0a	-0.19757273628246025
147	0xbfef6e8439c4c4f0	-0.9822407844823413
148	0x3fb9e0e7e0da1f64	0.10108803977538866
149	0xbff280aad1d804e6	-1.1564129063629536
150	0xbfc3a197124fdfb1	-0.15336883920803993
151	0xbffcb1038b5407ad	-1.793216270686098
152	0xbfedd8723c074496	-0.9326716587476251
153	0xbfb2e433b800054d	-0.07379458658399081
154	0xbfba224ba4bbd86f	-0.10208580753155315
155	0xbfc3f7bb78fa7e0c	-0.15599769026901844
156	0xbfee0c48e6103bd9	-0.9389996045518912
157	0xbfbc80cf4a89fda1	-0.11134048051643798
158	0x3fd3db4de38951ab	0.3102602693591289
159	0xbfc1574f80eb310e	-0.13547700686320535
160	0x3fe6b3db4b4f58ba	0.7094551535508551
161	0x400282b625f4a467	2.313823982742679
162	0x3fb1faa8c7b4a53d	0.07023100734354144
163	0xc00523de55999516	-2.6425139129156703
164	0x3ff83da1e9d5087f	1.5150469907826218
165	0xbfe66f1a9a75a86f	-0.7010624901570405
166	0x3fe650f950dbed18	0.6973845080641778
167	0xbff633aeffd5b497	-1.387618064264904
168	0x3fde7f1c6fa84fe9	0.47650824455308666
169	0xbfeaee799b73bf6d	-0.8416107212233165
170	0xbff02bed5f68c404	-1.010724423115108
171	0x3fcf460eedf49d6e	0.24432551020548082
172	0x3ff0473ec72bbda1	1.017393854151898
173	0xbff33f533c4aaf2f	-1.2029602389474794
174	0xbfce3ff915b0df5d	-0.2363273006355894
175	0xbfe1c10ea920b9e3	-0.5548165610578589
176	0xbfeebdc363be207a	-0.9606644580935744
177	0x3fe6335ea65a6f11	0.6937707184874587
178	0x3fd59c5643f47a58	0.33766705166082067
179	0xbfe16a0e3fdc46f7	-0.5441962477945869
180	0xbfdcca5fb954e828	-0.4498519239310803
181	0x3fc881ee013d5b48	0.19146513996630632
182	0xc00104a3b72d7e9a	-2.127265387607463
183	0x3fd4ffb631cee9ec	0.3281074034127005
184	0x3fd159b80840211d	0.2711010056086865
185	0xbff092c72c592436	-1.0358344776489168
186	0x3fda6c35fa80a336	0.4128546663583167
187	0xbfe329c5b50794a1	-0.598849156926594
188	0xbff3469b8ebdb890	-1.2047381950210685
189	0x3fdda30832cca420	0.4630756851279916
190	0x3fe883e98b930542	0.7661025739727523
191	0xc000ab378ab2ec29	-2.083602031312257
192	0xbfd60982da1a83d5	-0.34433051394631536
193	0xbfe3473c26a8eb00	-0.6024456744265478
194	0xbfea82eb47bc3578	-0.828481330974383
195	0x3fd98ddf0085f16a	0.39928412486167153
196	0x3fe4c3ec52c7c590	0.6489163986972688
197	0xbfb099d29bacd6e0	-0.06484714794791158
198	0x3ff44c230e30102a	1.2685881189545491
199	0xbfce5387ea1557df	-0.23692416124202872
200	0x3fe2cc00424b4ca7	0.5874024672324553
201	0xbfd1b6dbaf20db75	-0.2767857752073078
202	0xbfdd454c6aef0bc2	-0.45735464518309865
203	0x3fd8022c7f3d0586	0.37513267922994264
204	0x3fe2f3c0148aefc9	0.5922546769356752
205	0x3fe289a7931c128b	0.5793035386310107
206	0xbfd1ebec6689a6e6	-0.28002462399909545
207	0xbfdfd450c13f19cf	-0.49733370658614445
208	0x3fef8f03a3620ee8	0.9862077895236014
209	0x3ff1030e825e0745	1.0632462589714617
210	0x4002ca164eb6dc21	2.3486753606371313
211	0xbfcce300953fd730	-0.22567755973403214
212	0xbff116d0478afc78	-1.0680697245259392
213	0x3ff31dcf20077ac7	1.1947776080266281
214	0x3ff9560c687340d1	1.5835079269491426
215	0x3ffac0882df90f83	1.6720048709694033
216	0xc0044eed9816a655	-2.5385391122734213
217	0x3fddddf771313f10	0.46667276433889615
218	0xbfa9b8ca4abce0dc	-0.05023796236349806
219	0xbfe8ef73ea2abfb9	-0.7792300771306976
220	0x3feb3baa6777a73c	0.851033403477437
221	0xbfe6b23f5f3c0e44	-0.7092587337542189
222	0xbff533cb0a1b6eb9	-1.325144805413329
223	0x3f907e46231a8536	0.016106696980050482
224	0x3fec290307e9bc1d	0.8800063280631353
225	0x3ff39af671cf5d1d	1.225332684107179
226	0xbfe69b208aa42b38	-0.7064364154660785
227	0x3ff05f431e38e040	1.0232573681405626
228	0xbfc03e7363375359	-0.12690584511315242
229	0xbff4ec2e52a4e32a	-1.307661364391786
230	0x3fe3ff3ebcbe5141	0.624907845153338
231	0x3ffed38e3982abda	1.9266493078709943
232	0x3ff63744120b9411	1.3884926514522287
233	0xbfe75c4b6007f93a	-0.7300164104088147
234	0xbfe9dfb12672b742	-0.8085561514796853
235	0x3fc9db2e25aace73	0.20200135077685707
236	0x3fde4b43b678030e	0.47334378070085925
237	0xbfecfb1a6f89ebc9	-0.9056522539607325
238	0x3ff9f7d792746cb7	1.6230083199396128
239	0x3fe14b90590329f4	0.5404741037867198
240	0x3ff7ce1d92a3e0a6	1.4878211715822913
241	0xbfe8ad1e3083ee71	-0.7711325595441406
242	0xbfe8aeb979f7070b	-0.7713286764266923
243	0x3ff223a434c13733	1.1337015209896435
244	0xbff8255afba9150c	-1.5091199713218115
245	0x3fe34749af8865f8	0.6024521282553783
246	0xbfe1960b6dca5f50	-0.5495659965845139
247	0x3ffc457c2bd89f93	1.7669641220800016
248	0x3ff4cefe3bce50dd	1.3005354248207859
249	0x3feadd5aae25883e	0.8395207787800769
250	0x3fe2fff22cb55789	0.593743407555608
251	0xbfdbb7e1ea0c5b98	-0.4330982957484877
252	0x3fc445655748be34	0.15836779367372034
253	0x3fe6771a26aa4c28	0.7020388369732062
254	0xbff25e0662c3e380	-1.147955308724903
255	0xbff1c9091a4ad98a	-1.1115809466406028

weight f8 [64, 64]
0	0x3fe5f689d3c05c6d	0.6863450179834111
1	0xbfdee57025589a5c	-0.48275378844338035
2	0x3fe58ced403d7b6a	0.6734529738131247
3	0x3fe91170a601423d	0.7833789102824721
4	0xbfe5a25b9f3c889a	-0.6760690794074151
5	0x3ff0639df502d126	1.0243205614797914
6	0x3fd630ab04e6128b	0.3467204616393153
7	0xbff74e9c56579764	-1.4566920635929472
8	0x3fb63165cb0a491d	0.08669124800716017
9	0x3fec9cf00f9ee144	0.8941574387636497
10	0x3ff50d352942992a	1.3157245265698045
11	0x3fe7bbaa1fca5ff6	0.741658269968865
12	0x3fe29c9d10810fc7	0.5816178629252072
13	0x3ff94d9d51c2bcc1	1.581448859574991
14	0xbff9becfde68a4bf	-1.6090849578707063
15	0x3ff057ce87f82c84	1.0214371978097754
16	0x3ff1f8874da62e0f	1.1231759102983039
17	0xbffee62e3bd173f8	-1.9311964356086246
18	0xc0040cf9684ad600	-2.506335081847965
19	0xbfe1468fcf50cb9e	-0.5398634957440327
20	0xbfea30a046ff504d	-0.8184358011881244
21	0xbff004de07bbd5f0	-1.0011883070086434
22	0x3fe52cc9637a5f33	0.6617171233110412
23	0x3fe66513042ca2b7	0.6998381692438532
24	0xbffa56ef8f299145	-1.64622455523302
25	0x3fe83e18182896f8	0.7575798484656096
26	0x3fe75a1e6dcf4a9f	0.7297508377763114
27	0xbfb7fa43b4789c90	-0.0936624827960364
28	0xbfd60826342adf3d	-0.34424738974074726
29	0x3ff520eb68573b13	1.3205370021639211
30	0x3ff33865b7629c36	1.201268879269049
31	0xbfd9ad2a06855b52	-0.40119410168465663
32	0x3fab7de3e285aa4c	0.053694840814234895
33	0x3fdb4ac86574d7f8	0.426439379766975
34	0xbfe6c9e77c020ed3	-0.7121465131790167
35	0x3fdaffa41fd4632b	0.42185309513438324
36	0x3ffa89009073549e	1.6584478037450832
37	0xbffbbdc85a66f554	-1.7338336497626488
38	0xbfda6f963babf044	-0.4130607207041559
39	0xbff88875158beb79	-1.533314785162217
40	0xbf93a9dd4e1f8f70	-0.019202669041888
41	0x3fefeac53aedd7c8	0.9974084998091195
42	0xc0027f688fc6024c	-2.3122111542036574
43	0xc0051636e8291dd1	-2.635846914057517
44	0x3ffb9983fb6192db	1.7249793834281977
45	0x3ffdfb4243ff5afa	1.8738424926902426
46	0x3fd30f2cd02fdc63	0.2978012116504429
47	0xbfeb6bbea1967812	-0.8569024234782339
48	0xbff8afe8f67b748a	-1.5429467800343297
49	0x3fe88066b36e5abb	0.7656739716065525
50	0xbf9910a669ee4ff2	-0.024477577414998515
51	0xbfe071c2b798bf41	-0.513886793696635
52	0x3fcd8e17c0f5f91f	0.23089882776179935
53	0xc007a08c7adae612	-2.9533929441502176
54	0x3ff38b990d16b9d5	1.2215815078048895
55	0x4001f7cc14dc3b2e	2.2459947232922763
56	0x3fe090770f77b0c6	0.5176348974323666
57	0x3ffa8a4ac640641d	1.6587627166939065
58	0xbfe0be331240fa20	-0.5232177120704513
59	0x3fd40fa47a6aaaf8	0.3134547420001321
60	0x3fc7bdf3959f5029	0.18548435979630654
61	0x4000a7e3d994ea87	2.0819775579996675
62	0x3fddc005734e04cb	0.46484504947882205
63	0xbff97a3472821ea4	-1.5923351738910378
64	0x3fff1484073033ec	1.942508724288241
65	0xbffaa6b1153a5c0a	-1.665696223184343
66	0x3fe113c6140c653f	0.5336637870379163
67	0x3feafeb91b7af188	0.8435941254352182
68	0x3ff29acb7cffb6a8	1.1627917177933487
69	0x3fdfc9e3e95658f1	0.49669740473599605
70	0x3fe3e5139c7680a6	0.6217134529033685
71	0xc000b4b5ca592e63	-2.088237362715334
72	0x3ff0e8b2694f8ec8	1.0568107713415191
73	0xbfb9f69d7a1b8d03	-0.1014192984690006
74	0xbffe241680a095bb	-1.8838105225089368
75	0xbfc5110765e72bb2	-0.1645821807454389
76	0x3fffec0ce8d62f28	1.9951294989759365
77	0x40096e43e093145e	3.1788404030690307
78	0x3ffd45432bca0525	1.8294097624314614
79	0x3fd6c2ce5dadcf95	0.3556400217851146
80	0xbfe213947f8eb957	-0.5648901454313017
81	0x3fedd80b57019eb2	0.9326225947706546
82	0xbff3c69f2604e6e0	-1.2359916195986713
83	0x3ff58bcf97d9367f	1.3466335231381945
84	0x3fc94880f829ed15	0.1975251399743249
85	0xbff81d9981a5d007	-1.5072264732707497
86	0xbff74a2b2f29caf0	-1.4556075899424137
87	0x3fe0e2bbab21cc0a	0.5276773779318102
88	0xbfb85344f02000b5	-0.09502058851649305
89	0x3fec20b51cada2d3	0.8789926109430674
90	0x400143dbbf876b66	2.158133980102707
91	0xc000516d2c19e1d0	-2.0397590108297905
92	0x3fe93f34d5e1bd95	0.7889656236056221
93	0x3fb22a7e0a40084b	0.07096088171241026
94	0x3fc7cc7c7ac945a5	0.18592792506619307
95	0x3fec1bfe17264815	0.8784170581950571
96	0xbff8c87ca7734b07	-1.5489470044164493
97	0x3fd77d8a9b651ae9	0.36703744101798336
98	0xc0081b4366c4cbf9	-3.013312151795159
99	0x3fe35a6020a25b96	0.6047821652781404
100	0xbfe953d9a20eb4f5	-0.7914856114563508
101	0xbfc215e9970b80f1	-0.14129371524086978
102	0xbfe3eaef79616b6a	-0.6224286432946944
103	0xbfdb6b60604a2a7d	-0.42842873957912514
104	0xbff7c3dea66562d5	-1.4853197574467931
105	0xbfea692b0dbea76f	-0.8253379124118804
106	0xc012bf5e1cf8eadc	-4.686882450764383
107	0x3feb35290c8472fd	0.8502393002014227
108	0x3fff8d8830c64eb3	1.9720537095317183
109	0x3ff4b229e37df61b	1.2934969793708493
110	0xbfe6ab934cea56c1	-0.708444261765827
111	0x3fe410be051b0cf7	0.6270437335701037
112	0xbfe447baed3d7802	-0.6337561257930704
113	0x3ffb2fbb9af6fcbd	1.6991535237610116
114	0xc000e387f20da36b	-2.1110991392528624
115	0xbfe2af37e333a32d	-0.5838889539273616
116	0x3fec079b6ffdacd9	0.875928610546363
117	0xbfa1eb45e4cb6f15	-0.03499811571029291
118	0x3ff55f69ab735e99	1.3357941338817112
119	0xbfc794c9c2585eae	-0.18422815312873325
120	0x3ff816cd88fe6151	1.5055671073260621
121	0x400c68803282e924	3.551025766964033
122	0x3fe3b17e39140e58	0.6154166331111339
123	0x3fa55556ff8ff0c4	0.041666716286245215
124	0xbff4af461075748c	-1.2927914278909922
125	0x3fc84019df9adcb2	0.18945620935639834
126	0xbfc17339614d33b0	-0.1363288617234537
127	0xbfa2c9160ded05f7	-0.03669041557305868
128	0xbfd42ec54633c417	-0.31535465102848675
129	0xc000c6aaa981da06	-2.0970051996948795
130	0xbfe6e7c78aadd44e	-0.7157933910917877
131	0xbfeda946aef19f79	-0.9269135872718685
132	0xbfd75d2fd2311911	-0.3650626709608256
133	0xbfdc1d8eb519dbad	-0.4393040436329397
134	0x3fe8b0ae6a62ae45	0.77156754282391
135	0xc00584723ec7e613	-2.6896710304979563
136	0x3fea12df54c35b20	0.8148037581948735
137	0xbfdd12c963bb9f0e	-0.45427164783039664
138	0x3ff9ba69b2a7afdf	1.6080109575950627
139	0x3fda9eaf935aed5f	0.4159354151740526
140	0xbf9db8f8ae1d4f04	-0.02902592241964809
141	0xbfce2e19cfa852b7	-0.2357818855240532
142	0xbfca66b28afd0d52	-0.20625907694384665
143	0x3fd4e0aae2509dc7	0.3262126169306296
144	0xbfed34f19d7320ef	-0.9127128672780865
145	0x3fabf38e7050f976	0.05459256287621177
146	0xbfeb13f4f2af3dc1	-0.8461861362392754
147	0xbfd063573f74f4b0	-0.2560632819839368
148	0xbff55bde881a1629	-1.3349290195923322
149	0xbff0036986076a4b	-1.0008330569750281
150	0x3fc054a529ace97f	0.12758316550191393
151	0xbfe6389faf441115	-0.694412081066306
152	0x3fde280321e0ae36	0.4711921530567652
153	0x3ff04f498fba6170	1.0193572630288052
154	0x3ff4c2c4d9c01246	1.2975510125990168
155	0x3fd9f36177e1ba45	0.4054797812195015
156	0x3fe5f7ed58309fcf	0.6865145418605553
157	0xbfbcb78d473cc7f9	-0.11217577923960666
158	0x3fe5ab6edb24bfe9	0.6771768837115789
159	0x3fc9bd6014f0096d	0.20109177610727205
160	0xbfe83e15c7799bbd	-0.7575787445065242
161	0x3fcfe3a912b103fc	0.2491351453082017
162	0xbfeb8ad560252582	-0.8606974485239081
163	0xbfe1542bd919088b	-0.5415248146239419
164	0xbfccb16f11fa9937	-0.22416485193134303
165	0xbff4c46fb0a4eef0	-1.2979580784003097
166	0xbfd5d5096fdbf004	-0.3411277382253959
167	0xbfa6724a98171c7c	-0.043840724054057895
168	0x3fe5140fb7342042	0.658698900050702
169	0x3fde310670b34365	0.4717422581280089
170	0xc001d3401ee69abe	-2.228149644291391
171	0x3fd56cf89bb56621	0.33477606969754176
172	0x3fb6891867bddd0f	0.08802940876727326
173	0x3fff0cefabae54fd	1.9406582552231264
174	0x3fe3460a3ed92d9b	0.6022998073107603
175	0xbff0f6ce080b2005	-1.0602550806233932
176	0xbfe2c435d5d9973b	-0.5864514519459826
177	0x3fe833b3182eda52	0.756310984833201
178	0x3ff2627f9099c694	1.1490474365677175
179	0x3ffcd0fe145e626d	1.801023559155648
180	0xbfdeba27b4517368	-0.4801120053214647
181	0xbff5d601995533b7	-1.3647476186335845
182	0xbff27566802b212b	-1.1536622053700494
183	0xbfc3cc93d075a181	-0.15468070677458104
184	0xbffa45e6ad387c94	-1.6420656935149838
185	0x3fe88e73cf9d1bc2	0.7673892073588535
186	0x3fd7098b1484136c	0.3599574756956858
187	0x3fd867037569005e	0.3812874456962215
188	0x3ffc5182f308d94e	1.769900273660443
189	0xbfd268450290f7be	-0.28761410952199273
190	0x3fef0de330ae5f09	0.970445246773097
191	0xbfffeee0fc7652e5	-1.9958200322918682
192	0x3fe22ebf2d7a9de1	0.5682063949834025
193	0x3fd46f4d6e55310a	0.3192933633297491
194	0x3fe01fcea464b6bb	0.5038827143486836
195	0xbfc61d6e36eac1f8	-0.17277314836020685
196	0xbfe3fb1d5f15cf5e	-0.6244036538250659
197	0xbfa428448ee75923	-0.03936971897535304
198	0xbfe2483689ba67ac	-0.5713150682452031
199	0xbfe16f2daaff52a7	-0.5448215808670128
200	0xbffa2fa1e00b8c29	-1.6366289855730065
201	0x3fb865fcb7133658	0.09530620069127715
202	0x3ffca1c489927128	1.7894940732867983
203	0xbffa7e1681089bc9	-1.6557831802726801
204	0x3ff20d6656a64d3c	1.1282714257002473
205	0x3fc8889649a8f50c	0.19166830631903797
206	0xbff05aab7a0c017a	-1.0221361892182288
207	0x3feb84b42f02a8a4	0.8599491995021435
208	0x3ff978af9ef36788	1.5919643601432387
209	0xbfda2a5253d9db86	-0.40883310497832104
210	0xbfd598300dcd58de	-0.3374138006960389
211	0x3fbe110993d7510b	0.11744747027779938
212	0xbfe6b499aefed4d5	-0.7095459382896033
213	0x3ff8483697ce249a	1.517630188931696
214	0xbfc8e20533c9ebcb	-0.1943975928187157
215	0x3ff5b77795c610b0	1.3572917795691346
216	0x3fd78b83661f6731	0.3678902146617587
217	0xbff8d66fedeb3fea	-1.552352837916255
218	0x3fa53c14c672c2a8	0.04147400782074345
219	0xbfc256760556063d	-0.14326358089970084
220	0xbfe45ca893fe4c2a	-0.636310853051673
221	0xbfd1049b5ce8b9d5	-0.2659061820330895
222	0x400060fc28ecdddc	2.047355956772419
223	0xbfdba2cc01d1a8a4	-0.4318113343966934
224	0x3fe52530c5325e5b	0.6607898570536678
225	0xbffa957e8f3d3ca2	-1.6614976496964933
226	0xc0008db728fa95b9	-2.0691970063660077
227	0x3fe21692fcf1d838	0.5652556362463264
228	0xbfe41e12413fb23d	-0.6286708139792335
229	0xbfd313e8c924e998	-0.29809016840922586
230	0xbfe58d5719e5c21c	-0.6735034471331036
231	0xbfde3c5d922a1065	-0.47243441842898043
232	0xbff36c70a3591718	-1.2139746075421893
233	0x3ffe87c5a49ff2f7	1.9081474714905065
234	0x3fead4e61ebc0d3c	0.8384886360439974
235	0xbf4c812710ccc21c	-0.000869888377200981
236	0xbff5e09f69848e79	-1.3673395273007414
237	0x4005ec16290250df	2.740276642211128
238	0xbfd8b3f8dda355fe	-0.38598462719286875
239	0x3fd061c71ead5fac	0.25596788402389836
240	0x3fdb64726233e1de	0.4280057868013766
241	0x3fea216912b0cdff	0.8165784230281473
242	0xc00445862c8af5e3	-2.533947322836626
243	0xbff334051825d43a	-1.2002001708290337
244	0xbfe09ab161159014	-0.5188834091354715
245	0xbff7351ec170e370	-1.4504687839782626
246	0x3fc70eeb7b1c103e	0.18014281760417988
247	0x400016956eac6358	2.0110272070273076
248	0x3ffd95e139686015	1.8490917437065992
249	0x3ff2760f28f6e5af	1.1538230514691852
250	0x3fb8de7d7be0449d	0.09714493059461167
251	0xbfefb61da23fc0a1	-0.9909809273649622
252	0x3ffcaa3a611f3d0f	1.7915595811680907
253	0x3ff27136f93bc063	1.1526403175048692
254	0xbfcbf0d9c4fd777a	-0.21828767889649808
255	0xbf9becb02f406a77	-0.027270081409464155
