px915_reproducible/b/MACE_model_b3.model (torch, 961474 bytes, 78 tensors)

r_max f8 []
4.0
00000000: 0000 0000 0000 1040

weight f8 [32]
-0.013403929433940361 0.01418133314102354 -0.05762621875975258 -0.8289216239942276 -0.04174238385821207 0.0007410634224456753 -0.7343006403030725 -0.061704512001096584
0.38282001047640857 0.18117080583596148 0.5332018190045165 0.5790260958679595 -2.4808620265280994 0.09979798163424104 -1.1372088558502877 -0.022951903712599076
-0.7569472000045296 0.00901532341375115 -0.24249906358120366 -0.23838230915166844 -0.7599029632159453 0.5113589215588312 1.5992389053582807 -0.8725030505190182
-0.057335729391730456 1.0834166689736666 -0.742428421657673 1.1355679102378364 -0.5514837388674284 0.7407793406461286 1.147178524340629 0.09181102765887146
00000000: 1e0d 74f4 8473 8bbf 3d5d 6f50 1a0b 8d3f
00000010: 0d39 ee09 2f81 adbf cc13 40a4 8686 eabf
00000020: 0363 0efb 415f a5bf fb01 f394 7d48 483f
00000030: e412 710e 647f e7bf 1ce6 1eda bb97 afbf
00000040: 0c09 5080 1f80 d83f 0518 07df 9a30 c73f
00000050: f658 d942 fd0f e13f ff11 29bc 6187 e23f
00000060: 9d9c ae30 ced8 03c0 796c 534b 5c8c b93f
00000070: b893 c9e9 0132 f2bf 2d64 4e2f b480 97bf
00000080: e82e 9a55 e938 e8bf 18a5 cc39 a076 823f
00000090: 9829 b295 350a cfbf 232d e0be 4f83 cebf
000000a0: d6ab e404 2051 e8bf c69d 9362 0d5d e03f
000000b0: 1113 d088 7b96 f93f 1f76 7484 8beb ebbf
000000c0: 9c73 42d5 1b5b adbf 35ee 92b7 ac55 f13f
000000d0: d37f d43f f9c1 e7bf b5bc cd41 492b f23f
000000e0: ddc3 d639 c1a5 e1bf 0515 34e0 76b4 e73f
000000f0: f476 4bde d75a f23f 3dfe 3471 ed80 b73f

output_mask f8 [16]
1.0 1.0 1.0 1.0 1.0 1.0 1.0 1.0
1.0 1.0 1.0 1.0 1.0 1.0 1.0 1.0
00000000: 0000 0000 0000 f03f 0000 0000 0000 f03f
00000010: 0000 0000 0000 f03f 0000 0000 0000 f03f
00000020: 0000 0000 0000 f03f 0000 0000 0000 f03f
00000030: 0000 0000 0000 f03f 0000 0000 0000 f03f
00000040: 0000 0000 0000 f03f 0000 0000 0000 f03f
00000050: 0000 0000 0000 f03f 0000 0000 0000 f03f
00000060: 0000 0000 0000 f03f 0000 0000 0000 f03f
00000070: 0000 0000 0000 f03f 0000 0000 0000 f03f

bessel_weights f8 [3]
0.7853981633974483 1.5707963267948966 2.356194490192345
00000000: 182d 4454 fb21 e93f 182d 4454 fb21 f93f
00000010: d221 337f 7cd9 0240

r_max f8 []
4.0
00000000: 0000 0000 0000 1040

prefactor f8 []
0.7071067811865476
00000000: cd3b 7f66 9ea0 e63f

p f8 []
4.0
00000000: 0000 0000 0000 1040

r_max f8 []
4.0
00000000: 0000 0000 0000 1040

atomic_energies f8 [2]
-13.67403805 -45245.39788497
00000000: ec04 ea83 1b59 2bc0 b742 79bb ac17 e6c0

weight f8 [256]
0.971447287337972 0.980258802864384 0.044544388623043 -1.5171991569727086 1.4274329614732826 0.9975619068953714 1.66171856979046 -0.7883899286599069
0.8785332230086182 -0.5315884774080631 1.2376584052765525 0.4000600741238887 -1.3133934568739285 1.805290105386532 0.24076174292641891 1.0397865018659038
-0.08270198124694768 1.1548785152923822 -0.21830744362468202 0.35535474388706534 0.9702175570645506 -1.5928027177851172 1.2065294438273602 1.0728073179311368
-0.8249722961903814 -0.6275511855001613 -2.3933158694647867 -0.7018348996383196 -0.599060136973312 0.06435753097038105 0.23187048901151777 -0.17035761058859655
0.09924717281641175 -1.2691501790329442 -0.10108710724035717 -0.5663619523340103 0.4314472591519063 0.5936060676550807 -0.0325393167382388 -0.6824845639917015
1.4102413589336702 -0.1971383010047199 0.17237767029765172 0.27781604094569795 -1.3428438368589108 1.054528472146212 0.1565545105984724 -0.24165021093470637
1.4707409978472987 -0.7313816480616112 0.9093172135614036 -0.4836638789548757 -0.17275778555766386 0.7378347532174389 -0.40166832124259466 -0.5753622861852726
-0.7572288864117283 -1.9451912017084443 -1.9902976422802463 -0.46108728963521073 -0.4196305050409117 -0.6527467382497604 1.9364981334538567 0.5649905828696039
1.9357885767069094 -0.028410060305047658 -0.36776911412643226 -0.407386383453311 -0.43789721757165545 1.8428222788850368 -0.9677688605588417 0.3637906261626788
-1.3540040056886824 0.27606523825648666 -1.809517552440578 0.07168082532231816 -0.04782454607818696 0.520778853533466 -0.12070875071906385 0.724468918112037
1.012567873475779 -0.11027731038078555 -0.044740550068321915 0.1337119759857052 -0.3017082486876115 -0.44063679222589547 -0.024542360154650864 1.6434527852791054
1.3538821802757195 0.13492064973697343 0.32231122137068163 -0.11673193837049195 -0.16116952061067588 -0.71521956928683 -0.12389259034851606 -2.1233436890244906
0.3019630325519335 0.9923470937112507 -0.31915475900716406 -0.48185120743649157 0.22201048468521808 0.13532885458020694 -1.1757186352313789 -1.6783478503507516
0.5637647754019335 -0.2590330543049746 -0.835305726526419 1.1832245391370921 -0.9962588171997606 1.9637062640469847 1.5959842861421494 -0.12670447218621478
-0.23143269458438812 -1.2847124993066346 0.22685184037508427 0.2936151841991098 -1.5452400459955473 1.1701044459467504 -0.8910649410838974 0.7702758613738352
-1.0943831547222844 1.1882992830809866 0.6518829416482478 -1.0915451376261787 -1.0367388904394597 -0.6348725112520455 0.5962047455081821 -0.08213796036231838
0.6494874282466214 -1.4361676031806878 -0.5348703127289158 -1.425453182724165 -1.4474741632340107 -1.287228174042039 0.8311420671306385 0.11644983003995499
0.26853038959056513 0.9061284621054482 0.18014666651776634 0.5879951828918473 0.4084916362183519 0.24548125876211832 -0.586139912129799 -0.03899860881887626
-1.6271911980965952 0.3797591304284294 0.3136651342035103 0.9505314715614895 0.6633775781804618 0.48442246152416685 0.4276783418499348 -0.9708676130594658
-0.6951643153580038 0.6895509868946141 0.5899356316025933 0.037359335578880715 1.0131523422066235 -1.9334832490107883 -0.4741346868366074 0.9399641945145097
-0.29549941855041406 0.6409986937385973 0.4379355054630404 -0.1122290327644983 0.5976335564755911 -1.3315151908538236 -0.20909848056149521 -1.639852626205582
-2.337275205645041 0.6379755789741312 1.1625568833441862 0.9070098955928837 0.5339118909083274 -0.553055091818796 -0.4338969846701263 2.6325172530695955
-0.9875045954465503 0.04517492463449569 -1.6647502956970086 -0.3159254624424015 1.654826276310291 0.4758876740373773 -1.349119022230887 -2.160443356493457
-0.21183961824876726 0.025454698513124 -0.8593412936078373 -0.6363909708905824 -1.254593967743233 -0.12513056034659925 -0.9779856980301335 -0.6584562981478311
-0.18705741766286166 0.059673492533826096 2.3379341489269114 -0.2676262185042914 -1.2457369010589738 0.8712931269479757 1.221763057617324 -0.5044376770306679
1.002596503359339 2.3108541596905416 -1.9848453875844088 -1.5087921935066015 1.7719012042252515 0.9948511248341307 2.1733166531557067 0.6032252249190363
-1.5857840892853647 0.4873620344824453 0.342724930498739 -0.3759288155367095 -0.5568026831584145 -0.058740939236206956 -0.3422908706865759 -0.36869877044861904
-0.2124087706306915 -2.3756041696566306 0.6087205861291874 -0.16741307107971623 0.10676346393262279 0.2012317197337124 -0.6471336621816186 -0.24389841436856646
-0.543293528226648 -0.1792883914712742 1.3281434848622589 0.8528031758857463 0.826354360228683 0.549258587804554 -2.0754949142515406 0.4585258011078223
-0.5801451543224829 0.25164299505605403 -0.33133142850410374 -0.2213210844353077 0.8144245725734004 -0.13445438344172234 1.5556608725700833 -0.6692107964971167
0.5996736082420034 0.8208481291693484 -0.19205863404860934 0.7116104760592764 -1.2719387783210707 0.131958900909212 0.4515658199151064 -1.0356170140633543
0.0422125461558972 0.5551054997203618 -0.4217140609539803 1.5177216948046082 0.905209292750946 -0.09223307913056004 0.2237349833523498 -0.979067976254448
00000000: b4f1 1c9f 1816 ef3f 8165 7db5 475e ef3f
00000010: e16a b6a8 85ce a63f 0177 8b9f 7246 f8bf
00000020: af29 ecf1 c3d6 f63f 883b bbf2 06ec ef3f
00000030: a57e 0636 6696 fa3f e1e1 0284 7d3a e9bf
00000040: 0cb0 a8b4 f11c ec3f f5bc acd6 c502 e1bf
00000050: 5484 64e6 72cd f33f 3909 b391 959a d93f
00000060: d0dc 80db a803 f5bf 3dd7 a6e0 77e2 fc3f
00000070: 5b9b ffe1 47d1 ce3f 7c61 c52b f7a2 f03f
00000080: b521 c500 f52b b5bf 848a e0e4 617a f23f
00000090: 1cb2 6b91 7ff1 cbbf 364c ded2 21be d63f
000000a0: be1c b3b0 050c ef3f 37df ddb3 1e7c f9bf
000000b0: af64 6ed1 f14d f33f 81c7 9601 382a f13f
000000c0: 80cc 074d 2c66 eabf 4f41 4939 e614 e4bf
000000d0: e2ca 62ca 8225 03c0 b36a a476 6e75 e6bf
000000e0: ac67 142a 802b e3bf 54e3 c432 bc79 b03f
000000f0: b122 9ba3 eead cd3f 1c26 0d37 47ce c5bf
00000100: f389 7741 4368 b93f 6e8b 0a6b 704e f4bf
00000110: 1f03 a53b d8e0 b9bf 2725 df19 a31f e2bf
00000120: cc66 00f7 d49c db3f be24 e926 d2fe e23f
00000130: da28 734a fea8 a0bf 4dd0 4bde e9d6 e5bf
00000140: 2b63 413e 5990 f63f ea58 cded d33b c9bf
00000150: 549a 3eb4 7810 c63f 3f9f 8aee bcc7 d13f
00000160: 5e1b afd1 497c f5bf eb19 493f 59df f03f
00000170: 95e6 876b fa09 c43f cb9d 84e4 64ee cebf
00000180: b63f 6ab6 2788 f73f e736 6a7c 7a67 e7bf
00000190: 56f4 bd69 2019 ed3f 4c88 9757 59f4 debf
000001a0: f8bd 8c57 ed1c c6bf e779 dda0 579c e73f
000001b0: e8df e40b efb4 d9bf ad8f 502b 5e69 e2bf
000001c0: 2632 d712 383b e8bf 15e0 3ccf 801f ffbf
000001d0: 9e64 2e57 42d8 ffbf 9c68 6543 7482 ddbf
000001e0: dc7f e3e7 39db dabf ff4e ab20 4de3 e4bf
000001f0: 9230 7f77 e5fb fe3f 3722 7f21 6714 e23f
00000200: 34d3 4e71 fdf8 fe3f 7dde 8cdf 8617 9dbf
00000210: 07b9 6977 8789 d7bf c621 7156 9e12 dabf
00000220: b2b2 1e0d 8206 dcbf 3c6c c236 337c fd3f
00000230: 42ff c566 f6f7 eebf bf71 7d7a 5848 d73f
00000240: cd5f b11a 00aa f5bf 92f0 7788 0dab d13f
00000250: ef52 54ad c8f3 fcbf 1b78 82b0 ac59 b23f
00000260: bd26 b47a 757c a8bf cffc 0b6a 38aa e03f
00000270: e1ec adc8 c4e6 bebf 784f c870 d92e e73f
00000280: 96f0 d85e 7a33 f03f 6589 9341 223b bcbf
00000290: b36d b2be 3be8 a6bf 1598 f859 791d c13f
000002a0: 90fd 421d 304f d3bf 8692 01a9 6433 dcbf
000002b0: 896b ece8 a121 99bf afb3 d425 954b fa3f
000002c0: 05be 6e5c 80a9 f53f 9672 1671 1445 c13f
000002d0: edef ba3e bfa0 d43f f42f b3f1 24e2 bdbf
000002e0: cb42 11ee 33a1 c4bf fc79 7126 14e3 e6bf
000002f0: 677b c3bf 6cb7 bfbf b739 b49d 9bfc 00c0
00000300: a356 5ac1 5c53 d33f afa7 38b1 4ec1 ef3f
00000310: 221b 1315 086d d4bf fc94 5e72 a6d6 debf
00000320: 9bca 8bed d66a cc3f c045 50b6 7452 c13f
00000330: 4add f957 becf f2bf 1618 8946 83da fabf
00000340: 6e9e 1f6d 5c0a e23f b4a9 3460 ff93 d0bf
00000350: acf5 3213 d3ba eabf 1bb2 b6da 7cee f23f
00000360: 0a30 c72b 5ae1 efbf a583 7042 576b ff3f
00000370: 2791 9ed1 2689 f93f 62fb 2526 da37 c0bf
00000380: 8188 3b27 969f cdbf fa8c 94b1 2e8e f4bf
00000390: 2665 b929 7b09 cd3f daa0 6f57 97ca d23f
000003a0: 9b53 60a0 4db9 f8bf 8aed 8370 bfb8 f23f
000003b0: 0329 929f 9a83 ecbf 98f6 2f90 19a6 e83f
000003c0: 5435 2de9 9782 f1bf df16 eb1b 4603 f33f
000003d0: 4f62 669d 39dc e43f 6765 c308 f876 f1bf
000003e0: 64dc ce84 7b96 f0bf 269f 1e28 e050 e4bf
000003f0: 45af 75f9 1b14 e33f 5a2c 844d fe06 b5bf
00000400: b46f efdb 99c8 e43f acc5 73e1 8afa f6bf
00000410: 1cb4 9858 a81d e1bf 6d78 1cff a7ce f6bf
00000420: 1752 0eab da28 f7bf 7301 e091 7c98 f4bf
00000430: 5ffd 943f b798 ea3f 2e78 a5f3 a7cf bd3f
00000440: ed82 5116 9a2f d13f 32f7 d61d 01ff ec3f
00000450: 4caf 96c4 0b0f c73f 943b 1746 dbd0 e23f
00000460: 97d4 8f1a ba24 da3f e304 150d ee6b cf3f
00000470: 244a 2f7d a8c1 e2bf 5ce2 ee2a a0f7 a3bf
00000480: 799f 42a3 f908 fabf 490a 633d f94d d83f
00000490: 762b 53ed 1613 d43f 7b9c 05fa c06a ee3f
000004a0: 9ce9 659d 633a e53f 616c 6c11 c700 df3f
000004b0: 98fd dcfa 145f db3f 6ac0 daf4 5811 efbf
000004c0: 28e2 f93b c93e e6bf 6c61 343b cd10 e63f
000004d0: c34d 8fb0 c0e0 e23f 10ee 0549 c320 a33f
000004e0: bf4a fa3a df35 f03f b2d7 9d21 8cef febf
000004f0: 1032 7703 3958 debf c539 5bca 2f14 ee3f
00000500: 8c4e aa64 76e9 d2bf 135a 4cb1 0f83 e43f
00000510: aa24 6ea4 2207 dc3f 9c9e 62b9 0abb bcbf
00000520: 31c1 8168 d01f e33f 8b82 6ddf e24d f5bf
00000530: 36d4 d32f bdc3 cabf c400 7d1b d63c fabf
00000540: 1dfa cf57 bdb2 02c0 dbe5 eac2 4b6a e43f
00000550: 5a3f 1b3f d599 f23f af08 d79d 3906 ed3f
00000560: 78b2 cc63 ce15 e13f aaef 8797 a0b2 e1bf
00000570: ea6f bfdb f7c4 dbbf a4b7 a034 650f 0540
00000580: f1f6 c23c a399 efbf a110 cfef 2a21 a73f
00000590: 5366 c034 d1a2 fabf 8c7b 4a6e 1f38 d4bf
000005a0: cc06 151e 2b7a fa3f c2d7 2393 f174 de3f
000005b0: 5f4a eed3 fd95 f5bf baff c786 9648 01c0
000005c0: 0313 3084 8f1d cbbf 64d9 92e6 cb10 9a3f
000005d0: 60bc 0450 b97f ebbf 4e3b ee98 505d e4bf
000005e0: 0075 d31f d112 f4bf 2e9b 3538 4704 c0bf
000005f0: 4fd8 9fa9 a84b efbf 317c 4cf1 1212 e5bf
00000600: b808 ab59 7ff1 c7bf 69e4 bd25 868d ae3f
00000610: cebd aed1 16b4 0240 17cc 01b8 c920 d1bf
00000620: b77f 17d1 89ee f3bf 8313 af1f a2e1 eb3f
00000630: 82d6 7e6b 578c f33f 15f1 b67b 5a24 e0bf
00000640: 7132 90a1 a20a f03f 4e92 0d1b a17c 0240
00000650: e7a9 b43c edc1 ffbf a422 7948 0324 f8bf
00000660: 603f be13 b559 fc3f 1ca5 b106 d2d5 ef3f
00000670: 5b3f 69d7 f362 0140 bfc8 a4fc 9e4d e33f
00000680: eef6 1f23 5f5f f9bf 0e81 da87 f030 df3f
00000690: 7005 018c 34ef d53f f3aa 16bc 370f d8bf
000006a0: b0b1 4fdc 53d1 e1bf d362 e9d9 4a13 aebf
000006b0: 875d d4f7 17e8 d5bf 23be 49ba c298 d7bf
000006c0: 7b06 9fe9 3530 cbbf eb54 47c2 3c01 03c0
000006d0: 3d75 3a98 a37a e33f 43eb 9aa0 ca6d c5bf
000006e0: f68f ffb1 d954 bb3f fa49 9603 f6c1 c93f
000006f0: 94be 66a7 51b5 e4bf 162f a130 1038 cfbf
00000700: bc94 fb1b a962 e1bf f1f5 f508 ecf2 c6bf
00000710: dd0f fe61 1340 f53f bd55 cbe2 294a eb3f
00000720: b3da 02b3 7e71 ea3f d55d f5be 8693 e13f
00000730: 2bcc dd13 9d9a 00c0 cb56 089a 7c58 dd3f
00000740: 1aef 1792 8c90 e2bf a220 8238 eb1a d03f
00000750: 3ff9 63bc 8834 d5bf af4e c8d1 3f54 ccbf
00000760: 7b5e 081f c40f ea3f 34d0 d71d cd35 c1bf
00000770: 70af b5a7 fce3 f83f 2fba a2c2 2c6a e5bf
00000780: 1f8f f5b4 8630 e33f fc7b b84b 6344 ea3f
00000790: 5c9c 1398 6095 c8bf 754c 4555 83c5 e63f
000007a0: 7a73 f679 dc59 f4bf 1b1c e97d 07e4 c03f
000007b0: 37b7 2153 74e6 dc3f 1c55 6925 e391 f0bf
000007c0: 50e1 7002 e29c a53f 3d1e e49b 6cc3 e13f
000007d0: 71e2 03f9 5cfd dabf 07d9 398b 9648 f83f
000007e0: bdd1 8c7a 79f7 ec3f 7ba2 794a 969c b7bf
000007f0: d516 3c12 59a3 cc3f 3b5c 525d 8654 efbf

output_mask f8 [16]
1.0 1.0 1.0 1.0 1.0 1.0 1.0 1.0
1.0 1.0 1.0 1.0 1.0 1.0 1.0 1.0
00000000: 0000 0000 0000 f03f 0000 0000 0000 f03f
00000010: 0000 0000 0000 f03f 0000 0000 0000 f03f
00000020: 0000 0000 0000 f03f 0000 0000 0000 f03f
00000030: 0000 0000 0000 f03f 0000 0000 0000 f03f
00000040: 0000 0000 0000 f03f 0000 0000 0000 f03f
00000050: 0000 0000 0000 f03f 0000 0000 0000 f03f
00000060: 0000 0000 0000 f03f 0000 0000 0000 f03f
00000070: 0000 0000 0000 f03f 0000 0000 0000 f03f

output_mask f8 [256]
1.0 1.0 1.0 1.0 1.0 1.0 1.0 1.0
1.0 1.0 1.0 1.0 1.0 1.0 1.0 1.0
1.0 1.0 1.0 1.0 1.0 1.0 1.0 1.0
1.0 1.0 1.0 1.0 1.0 1.0 1.0 1.0
1.0 1.0 1.0 1.0 1.0 1.0 1.0 1.0
1.0 1.0 1.0 1.0 1.0 1.0 1.0 1.0
1.0 1.0 1.0 1.0 1.0 1.0 1.0 1.0
1.0 1.0 1.0 1.0 1.0 1.0 1.0 1.0
1.0 1.0 1.0 1.0 1.0 1.0 1.0 1.0
1.0 1.0 1.0 1.0 1.0 1.0 1.0 1.0
1.0 1.0 1.0 1.0 1.0 1.0 1.0 1.0
1.0 1.0 1.0 1.0 1.0 1.0 1.0 1.0
1.0 1.0 1.0 1.0 1.0 1.0 1.0 1.0
1.0 1.0 1.0 1.0 1.0 1.0 1.0 1.0
1.0 1.0 1.0 1.0 1.0 1.0 1.0 1.0
1.0 1.0 1.0 1.0 1.0 1.0 1.0 1.0
1.0 1.0 1.0 1.0 1.0 1.0 1.0 1.0
1.0 1.0 1.0 1.0 1.0 1.0 1.0 1.0
1.0 1.0 1.0 1.0 1.0 1.0 1.0 1.0
1.0 1.0 1.0 1.0 1.0 1.0 1.0 1.0
1.0 1.0 1.0 1.0 1.0 1.0 1.0 1.0
1.0 1.0 1.0 1.0 1.0 1.0 1.0 1.0
1.0 1.0 1.0 1.0 1.0 1.0 1.0 1.0
1.0 1.0 1.0 1.0 1.0 1.0 1.0 1.0
1.0 1.0 1.0 1.0 1.0 1.0 1.0 1.0
1.0 1.0 1.0 1.0 1.0 1.0 1.0 1.0
1.0 1.0 1.0 1.0 1.0 1.0 1.0 1.0
1.0 1.0 1.0 1.0 1.0 1.0 1.0 1.0
1.0 1.0 1.0 1.0 1.0 1.0 1.0 1.0
1.0 1.0 1.0 1.0 1.0 1.0 1.0 1.0
1.0 1.0 1.0 1.0 1.0 1.0 1.0 1.0
1.0 1.0 1.0 1.0 1.0 1.0 1.0 1.0
00000000: 0000 0000 0000 f03f 0000 0000 0000 f03f
00000010: 0000 0000 0000 f03f 0000 0000 0000 f03f
00000020: 0000 0000 0000 f03f 0000 0000 0000 f03f
00000030: 0000 0000 0000 f03f 0000 0000 0000 f03f
00000040: 0000 0000 0000 f03f 0000 0000 0000 f03f
00000050: 0000 0000 0000 f03f 0000 0000 0000 f03f
00000060: 0000 0000 0000 f03f 0000 0000 0000 f03f
00000070: 0000 0000 0000 f03f 0000 0000 0000 f03f
00000080: 0000 0000 0000 f03f 0000 0000 0000 f03f
00000090: 0000 0000 0000 f03f 0000 0000 0000 f03f
000000a0: 0000 0000 0000 f03f 0000 0000 0000 f03f
000000b0: 0000 0000 0000 f03f 0000 0000 0000 f03f
000000c0: 0000 0000 0000 f03f 0000 0000 0000 f03f
000000d0: 0000 0000 0000 f03f 0000 0000 0000 f03f
000000e0: 0000 0000 0000 f03f 0000 0000 0000 f03f
000000f0: 0000 0000 0000 f03f 0000 0000 0000 f03f
00000100: 0000 0000 0000 f03f 0000 0000 0000 f03f
00000110: 0000 0000 0000 f03f 0000 0000 0000 f03f
00000120: 0000 0000 0000 f03f 0000 0000 0000 f03f
00000130: 0000 0000 0000 f03f 0000 0000 0000 f03f
00000140: 0000 0000 0000 f03f 0000 0000 0000 f03f
00000150: 0000 0000 0000 f03f 0000 0000 0000 f03f
00000160: 0000 0000 0000 f03f 0000 0000 0000 f03f
00000170: 0000 0000 0000 f03f 0000 0000 0000 f03f
00000180: 0000 0000 0000 f03f 0000 0000 0000 f03f
00000190: 0000 0000 0000 f03f 0000 0000 0000 f03f
000001a0: 0000 0000 0000 f03f 0000 0000 0000 f03f
000001b0: 0000 0000 0000 f03f 0000 0000 0000 f03f
000001c0: 0000 0000 0000 f03f 0000 0000 0000 f03f
000001d0: 0000 0000 0000 f03f 0000 0000 0000 f03f
000001e0: 0000 0000 0000 f03f 0000 0000 0000 f03f
000001f0: 0000 0000 0000 f03f 0000 0000 0000 f03f
00000200: 0000 0000 0000 f03f 0000 0000 0000 f03f
00000210: 0000 0000 0000 f03f 0000 0000 0000 f03f
00000220: 0000 0000 0000 f03f 0000 0000 0000 f03f
00000230: 0000 0000 0000 f03f 0000 0000 0000 f03f
00000240: 0000 0000 0000 f03f 0000 0000 0000 f03f
00000250: 0000 0000 0000 f03f 0000 0000 0000 f03f
00000260: 0000 0000 0000 f03f 0000 0000 0000 f03f
00000270: 0000 0000 0000 f03f 0000 0000 0000 f03f
00000280: 0000 0000 0000 f03f 0000 0000 0000 f03f
00000290: 0000 0000 0000 f03f 0000 0000 0000 f03f
000002a0: 0000 0000 0000 f03f 0000 0000 0000 f03f
000002b0: 0000 0000 0000 f03f 0000 0000 0000 f03f
000002c0: 0000 0000 0000 f03f 0000 0000 0000 f03f
000002d0: 0000 0000 0000 f03f 0000 0000 0000 f03f
000002e0: 0000 0000 0000 f03f 0000 0000 0000 f03f
000002f0: 0000 0000 0000 f03f 0000 0000 0000 f03f
00000300: 0000 0000 0000 f03f 0000 0000 0000 f03f
00000310: 0000 0000 0000 f03f 0000 0000 0000 f03f
00000320: 0000 0000 0000 f03f 0000 0000 0000 f03f
00000330: 0000 0000 0000 f03f 0000 0000 0000 f03f
00000340: 0000 0000 0000 f03f 0000 0000 0000 f03f
00000350: 0000 0000 0000 f03f 0000 0000 0000 f03f
00000360: 0000 0000 0000 f03f 0000 0000 0000 f03f
00000370: 0000 0000 0000 f03f 0000 0000 0000 f03f
00000380: 0000 0000 0000 f03f 0000 0000 0000 f03f
00000390: 0000 0000 0000 f03f 0000 0000 0000 f03f
000003a0: 0000 0000 0000 f03f 0000 0000 0000 f03f
000003b0: 0000 0000 0000 f03f 0000 0000 0000 f03f
000003c0: 0000 0000 0000 f03f 0000 0000 0000 f03f
000003d0: 0000 0000 0000 f03f 0000 0000 0000 f03f
000003e0: 0000 0000 0000 f03f 0000 0000 0000 f03f
000003f0: 0000 0000 0000 f03f 0000 0000 0000 f03f
00000400: 0000 0000 0000 f03f 0000 0000 0000 f03f
00000410: 0000 0000 0000 f03f 0000 0000 0000 f03f
00000420: 0000 0000 0000 f03f 0000 0000 0000 f03f
00000430: 0000 0000 0000 f03f 0000 0000 0000 f03f
00000440: 0000 0000 0000 f03f 0000 0000 0000 f03f
00000450: 0000 0000 0000 f03f 0000 0000 0000 f03f
00000460: 0000 0000 0000 f03f 0000 0000 0000 f03f
00000470: 0000 0000 0000 f03f 0000 0000 0000 f03f
00000480: 0000 0000 0000 f03f 0000 0000 0000 f03f
00000490: 0000 0000 0000 f03f 0000 0000 0000 f03f
000004a0: 0000 0000 0000 f03f 0000 0000 0000 f03f
000004b0: 0000 0000 0000 f03f 0000 0000 0000 f03f
000004c0: 0000 0000 0000 f03f 0000 0000 0000 f03f
000004d0: 0000 0000 0000 f03f 0000 0000 0000 f03f
000004e0: 0000 0000 0000 f03f 0000 0000 0000 f03f
000004f0: 0000 0000 0000 f03f 0000 0000 0000 f03f
00000500: 0000 0000 0000 f03f 0000 0000 0000 f03f
00000510: 0000 0000 0000 f03f 0000 0000 0000 f03f
00000520: 0000 0000 0000 f03f 0000 0000 0000 f03f
00000530: 0000 0000 0000 f03f 0000 0000 0000 f03f
00000540: 0000 0000 0000 f03f 0000 0000 0000 f03f
00000550: 0000 0000 0000 f03f 0000 0000 0000 f03f
00000560: 0000 0000 0000 f03f 0000 0000 0000 f03f
00000570: 0000 0000 0000 f03f 0000 0000 0000 f03f
00000580: 0000 0000 0000 f03f 0000 0000 0000 f03f
00000590: 0000 0000 0000 f03f 0000 0000 0000 f03f
000005a0: 0000 0000 0000 f03f 0000 0000 0000 f03f
000005b0: 0000 0000 0000 f03f 0000 0000 0000 f03f
000005c0: 0000 0000 0000 f03f 0000 0000 0000 f03f
000005d0: 0000 0000 0000 f03f 0000 0000 0000 f03f
000005e0: 0000 0000 0000 f03f 0000 0000 0000 f03f
000005f0: 0000 0000 0000 f03f 0000 0000 0000 f03f
00000600: 0000 0000 0000 f03f 0000 0000 0000 f03f
00000610: 0000 0000 0000 f03f 0000 0000 0000 f03f
00000620: 0000 0000 0000 f03f 0000 0000 0000 f03f
00000630: 0000 0000 0000 f03f 0000 0000 0000 f03f
00000640: 0000 0000 0000 f03f 0000 0000 0000 f03f
00000650: 0000 0000 0000 f03f 0000 0000 0000 f03f
00000660: 0000 0000 0000 f03f 0000 0000 0000 f03f
00000670: 0000 0000 0000 f03f 0000 0000 0000 f03f
00000680: 0000 0000 0000 f03f 0000 0000 0000 f03f
00000690: 0000 0000 0000 f03f 0000 0000 0000 f03f
000006a0: 0000 0000 0000 f03f 0000 0000 0000 f03f
000006b0: 0000 0000 0000 f03f 0000 0000 0000 f03f
000006c0: 0000 0000 0000 f03f 0000 0000 0000 f03f
000006d0: 0000 0000 0000 f03f 0000 0000 0000 f03f
000006e0: 0000 0000 0000 f03f 0000 0000 0000 f03f
000006f0: 0000 0000 0000 f03f 0000 0000 0000 f03f
00000700: 0000 0000 0000 f03f 0000 0000 0000 f03f
00000710: 0000 0000 0000 f03f 0000 0000 0000 f03f
00000720: 0000 0000 0000 f03f 0000 0000 0000 f03f
00000730: 0000 0000 0000 f03f 0000 0000 0000 f03f
00000740: 0000 0000 0000 f03f 0000 0000 0000 f03f
00000750: 0000 0000 0000 f03f 0000 0000 0000 f03f
00000760: 0000 0000 0000 f03f 0000 0000 0000 f03f
00000770: 0000 0000 0000 f03f 0000 0000 0000 f03f
00000780: 0000 0000 0000 f03f 0000 0000 0000 f03f
00000790: 0000 0000 0000 f03f 0000 0000 0000 f03f
000007a0: 0000 0000 0000 f03f 0000 0000 0000 f03f
000007b0: 0000 0000 0000 f03f 0000 0000 0000 f03f
000007c0: 0000 0000 0000 f03f 0000 0000 0000 f03f
000007d0: 0000 0000 0000 f03f 0000 0000 0000 f03f
000007e0: 0000 0000 0000 f03f 0000 0000 0000 f03f
000007f0: 0000 0000 0000 f03f 0000 0000 0000 f03f

weight f8 [3, 64]
0.3020642473952112 -0.3331158849915149 1.0937124164050325 -0.2705713500660934 -0.7865826696059796 -1.701017782983781 -1.278097654064115 2.0683565006545424
-0.9239090826742022 -0.6858447356822988 -2.1317927573003113 -0.5005436200782701 -0.7629928493408712 0.3294996055785326 -1.0142368989553658 -1.2660904726299784
0.015148811927031897 1.081664128649871 0.5360542274630199 -0.5145475629360854 -1.1501071717889797 0.7441237425629 -2.346517004632154 -0.9642371690574274
0.34425010624280844 -1.3999006436393973 -2.7365674224286565 0.73979362093508 1.5808909823488941 -1.8203566261359443 0.8598307132752235 0.3415206499577091
0.39703376035779214 0.33161821161643934 0.27154090100686695 0.5828774284970487 0.010281709179880817 -0.6392363543954463 -0.1895042940524283 1.748233472107582
1.5937161433698557 -0.5171011453709136 1.7628721004148225 -0.7942608736600079 0.5933982231805746 -2.1527911709439724 0.27925222821394613 1.3147276316067
0.17307892116625045 0.05966942232866405 -0.16435373974488715 -0.1911533004816324 -3.6408913544662367 -0.5119404080862289 -1.1669868291604322 -1.546601203672695
-0.3180562843649594 -0.30765488733695456 0.4325060940972637 -2.4267100429913184 0.38510419132279355 -0.5451603578154135 -0.04503230962274062 -1.1066612123464186
-0.9439890195103091 0.21256498249006336 -1.03605372321157 0.21586759804423347 0.15102916678570674 -0.8485768138149122 1.2721074927912204 0.5634311305539779
-0.382868877297973 1.1137327531498142 1.0603465146838562 -1.869669088393888 0.7935304146625058 1.212883522089541 0.427689122667023 0.9422413684917503
-0.252118133695759 -0.030368155603045965 0.6311304142715892 0.30473592669924066 -0.35629269258898866 0.45977269632057927 2.6828288477698576 -0.4228549450506595
0.46047789316121074 0.05073028863127631 1.3900185324626606 -1.2934692188822472 -1.5062106016066321 0.139526916106924 -1.0773061099751495 -1.3647698967322703
-1.046853621507277 -0.8771116345916814 -0.5915807834698785 0.01972106303120235 0.781348943180753 1.95645201103295 -1.0817885648179812 -0.07452209545681077
-0.13174825511179325 -0.7408266809201116 0.42752621814377634 0.6010786375194904 0.7023735330579773 -0.061739670155425544 -0.8315592124628141 0.17031143640444268
-0.07370842752078573 1.8105237955159037 -0.1345878088108712 0.1436478594194193 0.016546750955776023 0.22218414268054773 1.4454425905829391 0.9871386639963792
0.1538333771038733 -1.414683904661525 -0.05644761643381562 -0.6279008887488466 0.9912055528854301 0.1443682709414703 -0.7920023918298079 1.181018187864867
-0.36263221594111744 -0.08074425889062922 0.3298247981408504 -0.058362100189877246 1.309551073674234 3.434332044815762 -0.4728967520119183 -2.776515007756134
0.9754458087487763 -0.5023163465681494 0.644345011623864 0.6347289095615972 -0.26520863424232144 -0.3284520050529407 0.07561807405298496 -3.2283000636904697
0.3147252092553494 -0.01962834096582847 -0.8269904237669115 1.792312367057296 1.2700444067085825 -0.9834592100516651 -1.0620469288366827 0.8918360350553158
1.7547947579940069 2.292705388679023 0.350882393446389 1.0939171121855982 0.4851189883478078 2.187726797204321 0.6888974152749823 0.9958978385077426
0.6337727437380303 0.5601586613556958 0.5258433519704857 0.083885252086244 -1.940765784356741 1.570502618642324 -1.356876366008156 -0.5796788844712941
-0.5289395946908354 0.7854313825891432 -1.2934122145753302 -0.12886177535618598 -2.144252868609454 1.062896742425931 2.5041572105951393 -0.6786307454263667
-0.01823430511895399 0.18085866561192795 0.15616497230746618 -0.038578437502103304 2.9601699604292784 1.261107435886587 -1.3482889924320565 -0.10979226135860952
-0.10913517268528755 2.1908868368114085 0.08903168623160962 1.6304835845833716 -0.43294829407838226 0.1840723015310082 1.1319880793143684 -0.4323220590118454
00000000: 3a9c f647 0555 d33f 0e44 f449 c551 d5bf
00000010: 1d05 3b97 d87f f13f 192e f17e 0a51 d1bf
00000020: 97db 316b af2b e9bf b746 3d6c 5e37 fbbf
00000030: 8dcb 9486 1673 f4bf fa3d 367e fe8b 0040
00000040: 9404 d2c7 a990 edbf a274 bca8 70f2 e5bf
00000050: d2a2 735c e90d 01c0 d1a4 ce0d 7404 e0bf
00000060: 5907 e0fa 6f6a e8bf f34c 8083 8516 d53f
00000070: 598e 7678 503a f0bf 2a91 5b15 e841 f4bf
00000080: 4a1b 661e 5706 8f3f a7eb 9c0b 7f4e f13f
00000090: 47c2 fa31 5b27 e13f ee80 6173 2c77 e0bf
000000a0: d8a8 1bc7 d666 f2bf 4f83 4f98 dccf e73f
000000b0: 4f39 13b5 aac5 02c0 880e 56e8 07db eebf
000000c0: d745 fd98 3108 d63f fb49 a137 fe65 f6bf
000000d0: 700a f575 7de4 05c0 3194 f6ab 63ac e73f
000000e0: 51ad bb57 544b f93f f4f8 0445 2e20 fdbf
000000f0: 49a1 33b3 bb83 eb3f 9187 9e6d 79db d53f
00000100: 6e41 094a 0069 d93f aaa3 6997 3b39 d53f
00000110: 9b74 5616 ed60 d13f bb15 9f90 eea6 e23f
00000120: 8785 65a5 930e 853f dd5d 91cc 9f74 e4bf
00000130: 4810 b43c ad41 c8bf ef97 47a9 c3f8 fb3f
00000140: aa17 ae7f dc7f f93f 6ef3 82b3 178c e0bf
00000150: f6ff 2460 b934 fc3f 8096 9bc7 956a e9bf
00000160: 1c15 4245 1efd e23f 4493 d293 ea38 01c0
00000170: d2e5 e0bc 44df d13f 7d5f 4ed7 1f09 f53f
00000180: e89b 0439 7327 c63f 0516 f292 fd8c ae3f
00000190: aafc 9618 8b09 c5bf 41a8 0b1b b677 c8bf
000001a0: e6c5 7da5 8b20 0dc0 6066 c7d9 d061 e0bf
000001b0: 6fb5 a161 faab f2bf c6a7 5be7 e0be f8bf
000001c0: 2fa0 e8be 085b d4bf 3246 e41f 9eb0 d3bf
000001d0: 06fb 5d0a 2eae db3f 032e 7cf4 e669 03c0
000001e0: d52b d20c 8ca5 d83f 4d92 7c22 f471 e1bf
000001f0: ef9f 2f92 790e a7bf 2879 2c63 e2b4 f1bf
00000200: 688e d275 2835 eebf cbe9 0850 5435 cb3f
00000210: d27b a111 ad93 f0bf efda eea8 8ca1 cb3f
00000220: 4b1a 0b7a ec54 c33f 6353 ef8f 8a27 ebbf
00000230: bc8e e862 8d5a f43f 70e2 e8b8 a007 e23f
00000240: 7daa a976 ec80 d8bf 2c33 746f d9d1 f13f
00000250: 7bea 2fe8 2df7 f03f f1e6 4f22 2aea fdbf
00000260: c16a 6be5 9964 e93f c0b5 538d f867 f33f
00000270: 4d6d ad32 425f db3f 0288 d35e d726 ee3f
00000280: f4ea bc18 b422 d0bf c3a3 9e6c d418 9fbf
00000290: 48d6 1969 3832 e43f 3cba c51d cb80 d33f
000002a0: a04d 9edd 7fcd d6bf a499 9275 ea6c dd3f
000002b0: c67e 8ff8 6e76 0540 0772 fc2f 0e10 dbbf
000002c0: ef22 ea44 7878 dd3f b60a 2d05 52f9 a93f
000002d0: 3a2d 9c12 843d f63f efb5 97c7 0cb2 f4bf
000002e0: 9f9f ac49 7019 f8bf 0ba5 cb9a 04dc c13f
000002f0: eafc e154 a53c f1bf 837c 90f5 18d6 f5bf
00000300: ab2a 4195 e9bf f0bf 5e65 306b 4c11 ecbf
00000310: f63e bed2 3aee e2bf 3ea4 0b23 c231 943f
00000320: 4437 b77f cf00 e93f 7b47 b99f a04d ff3f
00000330: b447 b186 014f f1bf 18ff d04a e113 b3bf
00000340: c94e 8177 20dd c0bf a0cb d127 dab4 e7bf
00000350: 920b 47ed 965c db3f ed0d 4f44 093c e33f
00000360: 6beb 410f d879 e63f fae3 5d90 579c afbf
00000370: c1e3 c610 229c eabf 70f5 bee0 c3cc c53f
00000380: 3d30 a435 8ede b2bf f8ed a5cc e7f7 fc3f
00000390: 1939 a45e 2c3a c1bf 5164 2c95 0d63 c23f
000003a0: 5328 d7a8 a1f1 903f 1f5a 40ad 8770 cc3f
000003b0: b1c9 ec68 8820 f73f 1d69 cfd2 a396 ef3f
000003c0: 26e1 d8e5 cfb0 c33f 6a2e 0b97 8ba2 f6bf
000003d0: 9770 0ab5 b3e6 acbf bac7 c99a c317 e4bf
000003e0: 6b35 28b5 f4b7 ef3f 0408 23d5 a87a c23f
000003f0: e168 6866 1558 e9bf c9c5 cd53 73e5 f23f
00000400: e75b fcc0 5d35 d7bf 0a67 46df a7ab b4bf
00000410: 2c2f 5b78 d91b d53f 5765 481f a3e1 adbf
00000420: d9f5 9dd3 ebf3 f43f 42b5 4014 8379 0b40
00000430: e4a6 11bd f043 debf 8553 1980 4d36 06c0
00000440: 9a14 f320 da36 ef3f 7534 18bb f912 e0bf
00000450: d07c 086e 799e e43f d591 8c00 b34f e43f
00000460: 9401 aca2 2df9 d0bf 3083 008f 5b05 d5bf
00000470: 9a48 0bc3 b45b b33f 62cd d9fb 8ed3 09c0
00000480: 749f 3e34 7524 d43f 8985 17aa 7319 94bf
00000490: dee3 059f b476 eabf 92a3 8bbb 4fad fc3f
000004a0: 537f 7415 1a52 f43f 93e6 0373 7f78 efbf
000004b0: 90bb a2eb 24fe f0bf da9e 7eb9 eb89 ec3f
000004c0: 856c 0cab a313 fc3f 3cea 3dec 7557 0240
000004d0: 650b 266d db74 d63f 55f3 d53a af80 f13f
000004e0: 0dd6 6783 300c df3f 629a 34e8 7680 0140
000004f0: 98f5 9c97 720b e63f f087 d124 65de ef3f
00000500: d46e eec6 dd47 e43f d700 63db d1ec e13f
00000510: 3808 f16f b5d3 e03f 0abf 53fe 8079 b53f
00000520: bb20 506c 600d ffbf 479e 955a c720 f93f
00000530: 9486 0bfe c3b5 f5bf 128d 5fbb ba8c e2bf
00000540: 5736 98ba 12ed e0bf 2e1e affe 4022 e93f
00000550: 5191 9d01 d1b1 f4bf 1efe 6deb 8a7e c0bf
00000560: 1b41 480c 6e27 01c0 b1e8 bb03 a001 f13f
00000570: c163 5c93 8308 0440 b652 35d3 57b7 e5bf
00000580: 47d2 9a80 03ac 92bf df2e 0073 6026 c73f
00000590: 24b0 6bbc 36fd c33f 0dfc cd8e 8dc0 a3bf
000005a0: b529 9596 6dae 0740 4301 9efd 7e2d f43f
000005b0: efd6 807a 9792 f5bf df9c e37b 581b bcbf
000005c0: bcd0 865d 48f0 bbbf 30bc 8aad ef86 0140
000005d0: c028 acd4 c7ca b63f f734 87f4 7516 fa3f
000005e0: b93d fbc2 6cb5 dbbf b16a 9661 ae8f c73f
000005f0: 81df 4188 9f1c f23f 82e5 3224 2aab dbbf

weight f8 [64, 64]
-0.33969217209148644 2.3372707561383015 1.0316824393520763 -0.7870902171213845 0.8787797021722814 0.8159419911852192 1.3550828446645664 2.240771145996438
0.2992788791653799 -0.22438212262741922 0.7195722118470163 3.2469443261251416 -2.819333440421695 1.1050367589689791 0.2111200162465782 1.0128328003975078
-0.7573405002480103 1.0206947236177277 -1.992730946029018 -0.029553991595871038 1.3052844230850256 -1.1650915563203263 1.937828443885518 -0.7108014302850053
-2.7241550912543517 0.2081219414873757 -2.0676296794673656 0.6527852274081084 0.2937122800476276 1.3645529290510174 -0.572304956839385 -2.942661315710868
0.3181709526303994 -0.30062369003193806 -0.35056145437700337 1.1451971450601708 3.199961542816387 2.3256781666589355 -0.9721390446038565 -0.8360148728543321
-1.4875476473671843 -0.9085282437324568 -0.15077166487437935 0.3238728881622198 -2.1438129209743915 -1.6876314770249135 -0.7687109564413821 0.8243357836164862
0.5465125994695205 1.460131099416543 0.7035111921973901 2.325914778097796 2.1352267559784495 0.05608931687444725 0.5220546375389866 -1.3785972798472264
-0.9573233094439996 -0.26226576544242874 -0.17303213171818557 -1.0675545000811675 0.5212705608073963 -1.5131083976355035 -0.6422579093268466 -0.19408642653593516
0.5095756530921282 -0.13892822193057877 0.7407896294909287 0.3776443733860608 0.6585193621999761 -0.578012598702111 -0.9830679949725927 0.3575303688591598
0.096703869147556 -0.619385038253021 0.2717955606467664 0.19190380307639734 -0.09456824836408373 -0.5298132667867901 -0.5687932895854756 0.6008843586951831
0.1775521505342034 0.19780670200689046 -0.06597693384011928 -0.37217521947997245 -0.4845788454781243 1.6314863571501033 1.2071193302784808 -0.21430582199545156
-1.1630239673948763 0.9091097204142546 -1.6669492626314604 -0.16426526967487443 0.4991542843595954 0.8126345512869827 -2.189766527265173 0.16930692309280773
-0.5196913035518913 -0.5415760931753683 -0.987147600629164 0.7104796564609132 0.1682210284281099 -1.9357560370053877 -1.0211682399796933 2.836359763954413
-0.04684147806271745 -0.8239592333998722 -0.6722824494510415 -0.8251473069729124 -0.39394045190290183 0.1434960746534337 -1.3872349815678349 -1.4393856935059068
-0.968837345434536 0.5778331375598117 -0.2997776375500154 -0.8427610045968003 -0.8648012572635468 -0.11747769220878737 2.4381054549348837 0.08286458687324778
-0.7944987354884139 -0.7505568766647205 1.0844749194251702 -0.4001281431859574 0.23902053066276077 -0.5265939167403826 0.9912373690659517 0.844857341748273
-0.7618243573309997 -0.23451939301606037 1.4577791211962432 0.3570019663645733 -1.0262655486835939 -1.8102310213126764 -0.045287945160670355 0.9729619921899818
1.0478129235064941 0.11756111680597961 -0.6778257752199068 0.8695368418423559 -0.18973690945698787 -0.06916314699165158 0.8963440929456833 -1.3768411824444702
-0.6134439090374855 -0.9576265120491273 -0.09146608360300759 -1.111864325555638 0.05270298946298378 -1.0644935146139733 0.40612092467419264 -1.8352881512577452
-1.146857548052766 -0.17752179339699012 0.5336367687395723 -0.03090158763458224 -0.28151566885952506 -0.2936508745729938 -0.38748348165546864 -0.229065204943454
1.195904768320547 2.19083327621613 0.03804738883329474 -2.467672128702811 1.6841614364380884 -0.9601529350522789 0.8377520087411313 -1.4765666139951106
0.22418732908025482 -0.9094142335962259 -0.716055154866715 0.425260108887992 0.6970451662437115 -0.9098686852401935 0.06297209416524624 -0.7665627451033749
-0.9127568461665783 0.8182789522574079 0.348608854539833 -0.8164947347671054 -0.23288433912533604 -0.047611963204193766 -2.1378872541101663 0.33285237968993125
0.32192723936695467 -0.6410324374827084 0.716284387414924 -0.05919865634906383 -1.1355769074112991 0.6764988493617282 0.9255456954419177 -2.07541790974141
-0.32304184692503296 -0.4848483615183956 -0.9245023742573183 0.670234413890214 1.005553934249387 0.06490198116599594 1.6682061040469873 -0.40747207170334115
0.7604947153977727 -0.48244531809341246 -0.48400888870844955 0.500615639798775 0.8865366130947951 0.0786122180512508 -0.3212511205684983 -0.7000154991307503
1.2929265711284994 0.9261280228551496 2.6296603420211877 0.2420938566060202 -1.000393986734292 1.4051704120928994 1.0676376464995716 1.8105222595972053
-2.0284652844450264 0.9413545860685706 -0.7136046859801447 -0.8996657901258206 0.4601009478716982 -0.6114521425667601 -0.6320271527324524 0.45669228862474487
0.5891973795404182 0.9086732061908981 -1.372233373859692 1.0842793797090315 -0.24649938114925665 -0.7358483268764311 0.787143616667692 1.791966386832884
2.150532248027079 -0.8162656536998947 -0.46650698906253235 0.022352143224816823 0.32477556384946504 -0.9224429089785079 1.736044174976021 0.3456959212494045
1.1914712322916663 -0.8407266036347777 -0.4129126083107851 1.0569724949818942 -1.740273281341191 0.3747752323221707 -0.511304557355812 1.584615484704583
1.070890420095319 0.48338255218486864 0.26135410618254895 0.17685114157020673 -0.19177113458113945 0.7354402796919302 -1.618689758800773 -0.740866638887009
00000000: d3c4 753c 84bd d5bf ee16 9c02 bbb2 0240
00000010: a7fe 0d72 c581 f03f 5c36 b1d2 d72f e9bf
00000020: 84fe 269c f61e ec3f 3b5b f260 321c ea3f
00000030: 8547 5359 6bae f53f 4b00 2f6c 19ed 0140
00000040: a286 9999 6227 d33f 31f4 3eab 8db8 ccbf
00000050: 44c9 9f4d bc06 e73f 371f 65f2 bdf9 0940
00000060: f20a d9b0 fe8d 06c0 c364 4a06 3bae f13f
00000070: 75af a70e fb05 cb3f d05f a02a 9034 f03f
00000080: 280c 1025 223c e8bf d634 92fd c354 f03f
00000090: 95bf 2ed8 39e2 ffbf e56a 7bcd 6643 9ebf
000000a0: fa0d 52eb 71e2 f43f 5ddd 330b 37a4 f2bf
000000b0: 2ff3 fb65 5801 ff3f 9bc5 20a4 e2be e6bf
000000c0: cd5a 11d3 11cb 05c0 cb57 2262 bda3 ca3f
000000d0: 0f69 ec6d 818a 00c0 b3f3 60d8 9de3 e43f
000000e0: ea3d 4f97 2ecc d23f 49f6 be73 35d5 f53f
000000f0: dcd7 1e7c 5250 e2bf c775 1104 928a 07c0
00000100: 3a6c 05b3 e95c d43f cfc2 4525 6b3d d3bf
00000110: 2e65 724f 996f d6bf 9518 d83d ba52 f23f
00000120: 2bd5 f66f 8599 0940 2892 9627 fd9a 0240
00000130: bc9f 7757 c31b efbf 6520 3c43 a2c0 eabf
00000140: d5f0 0ac3 fecc f7bf cf57 cad2 a912 edbf
00000150: 6143 e664 7c4c c3bf 6ef0 ad59 55ba d43f
00000160: 329e 8263 8726 01c0 d85a 18dd 8900 fbbf
00000170: 84c3 3fb8 4799 e8bf 5ac5 f16f f560 ea3f
00000180: 6b5a b2fd 077d e13f 80dd 7d6d b25c f73f
00000190: c772 5be7 2983 e63f 7eb4 0935 799b 0240
000001a0: ddc5 f3c3 f114 0140 4aef 422b bdb7 ac3f
000001b0: 0790 5eed abb4 e03f 3cc6 7405 bc0e f6bf
000001c0: bd55 387e 64a2 eebf 80e1 5b59 f6c8 d0bf
000001d0: b981 71b9 ea25 c6bf 6abd 0807 b414 f1bf
000001e0: 8f21 6199 3fae e03f f65b b226 b135 f8bf
000001f0: 18ff 8475 608d e4bf 66e0 48f3 d2d7 c8bf
00000200: 03cb 9b99 714e e03f 4175 d764 66c8 c1bf
00000210: d524 fc73 8cb4 e73f f089 4d4e 532b d83f
00000220: 4ad0 8d32 9712 e53f ce3f 0347 147f e2bf
00000230: bad9 0403 4b75 efbf 10ec 640e c7e1 d63f
00000240: a7aa 62b3 95c1 b83f bcb5 5d92 00d2 e3bf
00000250: 1141 0b35 1965 d13f a177 18c7 4d90 c83f
00000260: 00b8 f6ed 9f35 b8bf 0ac2 baf3 3af4 e0bf
00000270: 2586 1efc 8d33 e2bf 84c2 a8d5 713a e33f
00000280: e57e f063 07ba c63f 954c 06e2 ba51 c93f
00000290: 1138 2245 dde3 b0bf 2214 0303 b8d1 d7bf
000002a0: e75d 6afd 5603 dfbf 2547 3d70 911a fa3f
000002b0: e1a5 de5b 5c50 f33f dc0b 6888 5f6e cbbf
000002c0: 79cd 0605 bf9b f2bf 2af5 b444 6d17 ed3f
000002d0: b87e 71fd d2ab fabf 74a4 8ff4 a406 c5bf
000002e0: 52e5 becf 24f2 df3f 3b12 ac2c 1a01 ea3f
000002f0: d5d5 2350 a484 01c0 71c2 d568 d9ab c53f
00000300: e2ab 18a8 4fa1 e0bf 1b7a 0f63 9754 e1bf
00000310: 3cde a090 b696 efbf 4d22 1fd5 3fbc e63f
00000320: 6b92 cc43 4488 c53f 3490 7f52 dbf8 febf
00000330: 9cd3 2682 b456 f0bf f1fe 4e63 ddb0 0640
00000340: 3258 c030 9bfb a7bf e011 16c1 df5d eabf
00000350: d624 c27b 5683 e5bf a198 3a53 9b67 eabf
00000360: a6a4 5f03 5236 d9bf e7d4 de51 145e c23f
00000370: 5a37 db4e 1d32 f6bf a902 ff4a b907 f7bf
00000380: fa1c 392d b700 efbf a9a9 8beb 9b7d e23f
00000390: 845d 568b 8e2f d3bf adcb 22ed e5f7 eabf
000003a0: 5c92 afaf 73ac ebbf 0ada 0b9e 0413 bebf
000003b0: fe27 c96e 3d81 0340 8dfd 9d12 9d36 b53f
000003c0: de5a b49c 886c e9bf 1d03 e2da 8f04 e8bf
000003d0: a536 845f 025a f13f 5958 4c12 b39b d9bf
000003e0: 9d72 2289 3998 ce3f 0a85 557c dbd9 e0bf
000003f0: 56c3 566e 37b8 ef3f bc04 9343 1209 eb3f
00000400: 340d 8179 dd60 e8bf 6310 a441 bb04 cebf
00000410: 9245 2533 1053 f73f ab2f 89c6 1ed9 d63f
00000420: 73b8 896c 956b f0bf cae1 abcd b4f6 fcbf
00000430: 4f7a bc46 fb2f a7bf 939f 1630 8122 ef3f
00000440: ad95 ec7b d7c3 f03f d281 f63f 7c18 be3f
00000450: 3492 1eae bfb0 e5bf 5029 4ced 3ed3 eb3f
00000460: c11e 7b8e 4c49 c8bf cee6 6a0e adb4 b1bf
00000470: 8943 a5ce d9ae ec3f d528 a69e 8a07 f6bf
00000480: 80e2 e71e 55a1 e3bf db12 e15a e0a4 eebf
00000490: 7aa3 c43d 526a b7bf e79b 3d3f 32ca f1bf
000004a0: 9e36 4ae0 e2fb aa3f 4823 015a 2a08 f1bf
000004b0: 9d9a 6c9e e2fd d93f 8c36 c61b 575d fdbf
000004c0: 06eb e04c 8759 f2bf d7d1 7bbc 08b9 c6bf
000004d0: 1bbf b56a 8d13 e13f 53d9 2371 aaa4 9fbf
000004e0: e40b c44b 5a04 d2bf 4de6 ae09 2dcb d2bf
000004f0: 3cd4 5c84 87cc d8bf 2e1c f135 0252 cdbf
00000500: 4713 d109 6d22 f33f cbb1 c298 d386 0140
00000510: d271 7985 f27a a33f f53b 90e2 cabd 03c0
00000520: bef9 2a43 53f2 fa3f 87a7 e6a5 92b9 eebf
00000530: 6772 f64c ddce ea3f 5f97 5750 04a0 f7bf
00000540: 73e4 499f 2bb2 cc3f 9801 fae0 eb19 edbf
00000550: b91c 0980 ece9 e6bf a5e8 fd2c 7637 db3f
00000560: 8140 1baa 314e e63f 555b d8ee a41d edbf
00000570: ec17 006d f01e b03f 9fa1 1198 ae87 e8bf
00000580: ae89 6fd8 4d35 edbf 3c6c 5e57 572f ea3f
00000590: fd0d 5683 9b4f d63f 08ca e590 b920 eabf
000005a0: 3d9e 256e 27cf cdbf 1a82 b861 9860 a8bf
000005b0: db81 f7a1 641a 01c0 757f 4a11 744d d53f
000005c0: d672 31b5 749a d43f 8d3a 5575 5683 e4bf
000005d0: c7a3 523c cdeb e63f bd05 f949 494f aebf
000005e0: 23ca f6b0 522b f2bf c149 39ea e0a5 e53f
000005f0: 360d 9c01 129e ed3f eef9 7eb4 749a 00c0
00000600: bd13 f2b5 b7ac d4bf 8867 0f6c c107 dfbf
00000610: 1b4e d000 8695 edbf 85fd 0971 8f72 e53f
00000620: ac71 dfb8 bf16 f03f 24b6 8d8e 6a9d b03f
00000630: ffe8 3de2 f8b0 fa3f 2df3 7fbd 0514 dabf
00000640: a141 6d03 f955 e83f 1373 d453 62e0 debf
00000650: 5578 fe6a 00fa debf cba8 1917 0b05 e03f
00000660: 2a5c fe07 825e ec3f d59c 9829 ee1f b43f
00000670: 8d48 29dc 608f d4bf c6b5 6ee7 8666 e6bf
00000680: 6b05 b2c5 d3af f43f e44d 423c d7a2 ed3f
00000690: ac8d 845c 8b09 0540 37ba 5776 eefc ce3f
000006a0: b238 0220 9d01 f0bf fcee 53f8 937b f63f
000006b0: e81a 7b36 0b15 f13f 7a66 5a30 e6f7 fc3f
000006c0: 101a ce01 4c3a 00c0 0455 23a7 931f ee3f
000006d0: 87d3 917e d9d5 e6bf e973 3de9 0fca ecbf
000006e0: 40ec fd3e 4b72 dd3f 7096 6c15 0491 e3bf
000006f0: a86f e501 9139 e4bf 90a2 fe4a 723a dd3f
00000700: d87a 8076 b4da e23f 85ec ead4 d913 ed3f
00000710: 5b50 73fb aaf4 f5bf 433d b955 3559 f13f
00000720: 1199 42ae 4a8d cfbf d404 58ca 118c e7bf
00000730: 04f9 5acf 4730 e93f 06a8 2ff2 e4ab fc3f
00000740: 4628 5240 4a34 0140 c8a6 ef25 d91e eabf
00000750: a341 5821 40db ddbf 409a 95f0 7ae3 963f
00000760: 967f 5172 1fc9 d43f 69ac cffd a684 edbf
00000770: d8ee be41 d6c6 fb3f 3a1d 08c9 e11f d63f
00000780: 9614 8d23 4410 f33f ffa1 6f7a 3be7 eabf
00000790: 9d41 3301 296d dabf 0a80 abfd 5be9 f03f
000007a0: 8a68 d7cb 28d8 fbbf 6c2b 8b41 51fc d73f
000007b0: 6f72 0460 9b5c e0bf 76a9 38c4 955a f93f
000007c0: a98b 3efe 5d22 f13f 57d3 455f bdef de3f
000007d0: d2ad ae92 06ba d03f 6ff3 a6e6 0ea3 c63f
000007e0: 27e1 abdf f48b c8bf 8c03 ae0d ba88 e73f
000007f0: 0fb6 863b 27e6 f9bf dbf2 16f4 2db5 e7bf
