px915_reproducible/b/MACE_model_b1.model (torch, 961474 bytes, 78 tensors)

r_max f8 []
0	0x4010000000000000	4.0

weight f8 [32]
0	0xbf96ddcbfbe5a7a2	-0.022330462693765825
1	0x3f82a43125571c38	0.009102233840975513
2	0xbfa78a8ce0ddf3d4	-0.04597892994841116
3	0xbfe721a07532f51f	-0.7228548325580596
4	0xbfa146dc2a972eb6	-0.033743744086306135
5	0x3f6e8c346cd0bc36	0.003728964226432231
6	0xbfe4b37c3c79a23e	-0.6469098263888282
7	0xbfa861a137eac014	-0.04761985595303045
8	0x3fd51deae4da2408	0.3299510226138982
9	0x3fc47bc6e727c1de	0.16002737318878152
10	0x3fe0ae3e234700b2	0.5212698639880016
11	0x3fdee014365188fa	0.4824266939596239
12	0xc0039373cc6df623	-2.4469982119615152
13	0x3fb48888a5ac0c9a	0.08020834011772351
14	0xbff0a03b89b5ae03	-1.039119279793227
15	0xbf904d534ae024fb	-0.01591997284416367
16	0xbfe2b346ba7684c6	-0.5843843118529086
17	0xbfa6a0a843556e06	-0.04419446775383666
18	0xbf9c48993168997f	-0.027620690956746238
19	0xbfc0653f00ab2aa9	-0.128089785887217
20	0xbfe469669eb33abf	-0.6378663158046364
21	0x3fe24fa3303e14a8	0.5722213690029507
22	0x3ff9a59e72e2c200	1.6029343116498467
23	0xbfed5033dd051643	-0.9160403553766588
24	0xbfbd57adc14c39b5	-0.11461912125762448
25	0x3fe96c2f9e0c16c9	0.7944562994823282
26	0xbfe70af13665ba84	-0.7200857222031378
27	0x3ff13136dba53207	1.074515207280571
28	0xbfdf55c74622a0d0	-0.489610498897048
29	0x3fe7752b55285fa2	0.7330528891788968
30	0x3ff1b6ef27fda5c9	1.107161670889001
31	0xbf9a5b3f803ae9a7	-0.025738708688302882

output_mask f8 [16]
0	0x3ff0000000000000	1.0
1	0x3ff0000000000000	1.0
2	0x3ff0000000000000	1.0
3	0x3ff0000000000000	1.0
4	0x3ff0000000000000	1.0
5	0x3ff0000000000000	1.0
6	0x3ff0000000000000	1.0
7	0x3ff0000000000000	1.0
8	0x3ff0000000000000	1.0
9	0x3ff0000000000000	1.0
10	0x3ff0000000000000	1.0
11	0x3ff0000000000000	1.0
12	0x3ff0000000000000	1.0
13	0x3ff0000000000000	1.0
14	0x3ff0000000000000	1.0
15	0x3ff0000000000000	1.0

bessel_weights f8 [3]
0	0x3fe921fb54442d18	0.7853981633974483
1	0x3ff921fb54442d18	1.5707963267948966
2	0x4002d97c7f3321d2	2.356194490192345

r_max f8 []
0	0x4010000000000000	4.0

prefactor f8 []
0	0x3fe6a09e667f3bcd	0.7071067811865476

p f8 []
0	0x4010000000000000	4.0

r_max f8 []
0	0x4010000000000000	4.0

atomic_energies f8 [2]
0	0xc02b591b83ea04ec	-13.67403805
1	0xc0e617acbb7942b7	-45245.39788497

weight f8 [256]
0	0x3fe360ac25b4c6a4	0.6055508362243995
1	0x3ff26fcc7b359d4e	1.1522946179264468
2	0x3fce85d25771a4a0	0.2384589125606782
3	0xbff71cbbad59815c	-1.4445149203748633
4	0x3ff0b2d2bb559a6d	1.043658000731422
5	0x3fe8896e44dd1e8a	0.7667762131686271
6	0x3ffa8840aec8b7ec	1.6582648112775997
7	0xbfe1fc95d84b1b60	-0.5620831703643994
8	0x3feca2010bd7504b	0.8947758895178678
9	0xbfd7ae2f980e95ef	-0.3700064644748115
10	0x3ff2f0d670936044	1.183798255680828
11	0x3fe66d778015fa2d	0.7008626462628108
12	0xbff453390bf0d3d0	-1.2703180757937282
13	0x3ffc2d88e198ac4a	1.761116868244033
14	0x3fd8f21573360153	0.3897756219012269
15	0x3ff1825069665c23	1.0943149678403266
16	0xbfe34ad1a1df6187	-0.6028831636022439
17	0x3ff9922ad812d75d	1.59818539050817
18	0xbfd56ae84c30a29e	-0.33465011063030115
19	0x3fe81fbc1043f996	0.7538738553701474
20	0x3fbebf7e5cdc9c43	0.1201094605172424
21	0xbff4cf5d2b5fbbab	-1.3006259626670083
22	0x3febf936ea624049	0.8741716935928788
23	0x3fed54a855fa6368	0.9165841750392305
24	0xbfdcfe4f4fe27480	-0.4530218391535712
25	0xbfe0ce38f4ced1e3	-0.5251736432460884
26	0xbff9f84f72ce037a	-1.6231226429519823
27	0xbfefc466b67b779d	-0.9927247585398963
28	0xbfe05275645a602c	-0.5100657424945942
29	0xbf96b83ce3fe4fcd	-0.02218718663750945
30	0x3fd19cef5d5d4bfc	0.27520355336781654
31	0xbf944b12d56f82ae	-0.019817632939409684
32	0xbfad7457ca2c11d0	-0.05752825110360826
33	0xbff2ac5fa29b5171	-1.1670833923172632
34	0xbfa6f6050c023ba8	-0.044845731464298766
35	0xbfe3c91dd1c86496	-0.6183003518409744
36	0x3fc2de1a8edbac9d	0.1474030683087663
37	0x3fe550d72ac4902d	0.6661182246502954
38	0x3f7349926fec317c	0.004708835621169857
39	0xbfe732cde2008293	-0.7249516882039465
40	0x3ff6d032232f516b	1.4258290647895489
41	0x3fa6bb7f1b8624f7	0.044399234876502484
42	0x3fc66a36e51ca45d	0.1751164072714201
43	0x3fd733d14fd35c13	0.3625376967951876
44	0xbff60eacabe83959	-1.378582641136367
45	0x3fec942d3278e0cb	0.8930879579338805
46	0x3fc6245e7216644a	0.1729848916118349
47	0xbfa6f2021e7601de	-0.044815126627330434
48	0x3ff7dfb770b09906	1.4921183015772512
49	0xbfe693c349c29b27	-0.705537456572391
50	0x3fe94bb1ff84c2df	0.79049014955498
51	0xbfde0901e6ef111e	-0.46929976989874145
52	0x3faec4008aa81a7a	0.060089127469884
53	0x3fe8a8e49c28d53c	0.7706168222418124
54	0xbfde83592b186a1a	-0.47676686485798003
55	0xbfe0e9d570011897	-0.5285441577514288
56	0xbfec8bd995a23065	-0.8920715258150379
57	0xc00201f5199fb45d	-2.250955772577568
58	0xbffe79c9de2169ae	-1.9047335316632643
59	0xbfdde1d1e8df5f0e	-0.4669079565187396
60	0xbfe11ea0e33cbfd8	-0.5349888265827714
61	0xbfe73bd774314794	-0.7260548848519073
62	0x3ffe754cf055e953	1.9036378276928942
63	0x3fdedf40abd51a13	0.4823762586642328
64	0x3ffc6100e6c5dda8	1.7736825003210956
65	0x3fb217173623ef58	0.07066483566080473
66	0xbfdd71f9f669f3c7	-0.4600815683732517
67	0xbfd48f00289edac8	-0.3212280651745627
68	0xbfe89224364e7104	-0.7678395329162702
69	0x3ffc9088e8e58f5f	1.7852868173149188
70	0xbff00561127e45d8	-1.0013132784264283
71	0x3fe4333d62eb223f	0.6312548572541984
72	0xbff50f6791d0ce8c	-1.3162608810352223
73	0x3fe13a24a1904744	0.5383475451983277
74	0xbffdc745524b13ac	-1.8611500944691484
75	0x3fb689673edb16cc	0.0880341080147346
76	0xbfd587ca8485068b	-0.3364130300652525
77	0x3fd6718519836e98	0.35067870608848173
78	0xbfd302b92515594a	-0.2970412122862355
79	0x3fe52c58177f26cf	0.6616630991859099
80	0x3ff4c01857250fa1	1.296898212823159
81	0xbfc64a2c7fb3afcf	-0.17413860545582202
82	0xbfa40ed6f8dcafc4	-0.03917571819178492
83	0x3fb72dfff98a3696	0.09054565279276469
84	0xbf5870c2133e4511	-0.0014917273774453547
85	0xbfe13de519866640	-0.5388055323157417
86	0xbfa077f9df25ec20	-0.03216534470535515
87	0x3ff869e1cdb6aa1a	1.5258501086888203
88	0x3ff38a0cf3c7b78c	1.221203758493604
89	0x3f93c9be7fa65aa0	0.019324280301214913
90	0x3fd9c3b17a0bdd79	0.40256916922177016
91	0x3faaa82bab8e1a0f	0.052064289752753116
92	0x3fbcb2e04b82e34d	0.11210443347489481
93	0xbfe756bad5725367	-0.7293371361616722
94	0xbfb38b30ea98771c	-0.07634263732367369
95	0xc00161ea6a7c8a89	-2.172810394216246
96	0x3fe014ec10658111	0.5025539703601983
97	0x3feea0046ea3fa47	0.9570333634326936
98	0xbfd4b41aa5abe4e1	-0.3234926813016284
99	0xbfe0be143c932afc	-0.5232030089476605
100	0x3fe213d7588e7118	0.5649220208756871
101	0x3fc58d42746c7d69	0.16837340054278663
102	0xbff3222af11f8760	-1.1958417338250555
103	0xbffde356ac2a2d7b	-1.868002579229908
104	0x3fdf205543dd0f94	0.4863484537820508
105	0xbfddcee79cb3a9b0	-0.4657534628192037
106	0xbfe78d63f643e1df	-0.7360095796457776
107	0x3ff1c4bf21fcce50	1.1105338409078236
108	0xbfee23c782be3323	-0.9418675950597372
109	0x3fffe97b595f2e18	1.9945024005018066
110	0x3ff83dfbdc711b07	1.5151327715881864
111	0xbfbf3b8f332c571d	-0.12200255393358046
112	0xbfe036807e68e37d	-0.506653067487704
113	0xbff27e72244cfd9b	-1.1558705728528824
114	0x3fb978d9d1b6ca07	0.09950028772326656
115	0x3fd400b6e6a16781	0.3125436069727741
116	0xbfff2e831b738e82	-1.9488555023498582
117	0x3ff1d4057eae2e6a	1.1142630527928312
118	0xbfeb2b53efba1e45	-0.84903904744801
119	0x3fec9560b1b3b3e1	0.8932345839253878
120	0xbfedd4d3a233b8ca	-0.9322298210152209
121	0x3ff675d9c3ebba5f	1.4037721303135624
122	0x3fe0c33ccc010876	0.5238327011541191
123	0xbff01462ed882bae	-1.004977157458352
124	0xbff0ea7050d78352	-1.0572360189327878
125	0xbfe97b0e1f8b7a19	-0.7962713829145428
126	0x3fdbddc11e2fb233	0.4354098124302112
127	0xbfbf48a947f8d046	-0.12220247275473736
128	0x3fe1eb60695cc843	0.559982496057508
129	0xbff668aea67eb9bc	-1.4005571845733433
130	0xbfdfd14faef1012b	-0.4971503456508965
131	0xbff5c7f3fd537b50	-1.3613166709471507
132	0xbff8f09180d92f53	-1.5587325127734928
133	0xbff5e9c89a21e2b8	-1.3695760746760879
134	0x3fea8795255792fe	0.8290506104791289
135	0x3fb5e04f792cbc44	0.08545395573013176
136	0x3fd5fc2e18d4c016	0.3435168497553617
137	0x3ff0bdc1c2a46ced	1.0463273623670901
138	0x3fcc65a3d0e56920	0.22185180377966507
139	0x3fe416947f487eae	0.6277563558578174
140	0x3fdfd5ee235c348a	0.49743226483480696
141	0x3fd5412e874546b4	0.33210337839146153
142	0xbfe23ff9435227e7	-0.5703092875348802
143	0x3f77f44210a3691f	0.005848177019482286
144	0xbffa85618506882a	-1.6575637050923526
145	0x3fd4d4458ea9b2a2	0.32545603687212055
146	0x3fd535785c5815cb	0.3313885595128709
147	0x3fef1bb083ff299d	0.9721300676404102
148	0x3fedcb8a8dcb3a5b	0.931096341076976
149	0x3fe5d56585756f2c	0.6822993857017301
150	0x3fd6177b10900a99	0.34518314950416024
151	0xbff366f7e6a6e405	-1.2126387605515003
152	0xbfe1dbbd77835d7b	-0.5580737432709805
153	0x3fdb1255bcc3d122	0.4229940741927455
154	0x3fe5b7c5bd8f7131	0.6786831571912783
155	0x3faaa0b30cf90231	0.05200728925092724
156	0x3ff13352b6478eb0	1.0750300522130765
157	0xbffcea9644f24646	-1.8072722142427593
158	0xbfdbecd7901167a6	-0.43633069104327615
159	0x3fef48c734b8edf2	0.9776340512975692
160	0xbfe16f5f1d4e5ce1	-0.5448451588044031
161	0x3fe5a758c1ef1110	0.6766780650873745
162	0x3fdd3e6d2c802d5e	0.45693520875712135
163	0xbfa8ec350863f57b	-0.04867711760924017
164	0x3fd5df0394c95ee3	0.3417366936678105
165	0xbff65f3903aa7733	-1.3982477324675073
166	0xbfc71ec1336f3cd7	-0.18062605868769907
167	0xbff8c89b3a8d8ba9	-1.548976162645639
168	0xc00213f4187438bc	-2.259742919012835
169	0x3fe6874bfb7e6690	0.7040157234179834
170	0x3ff1f8062a82ebe3	1.1230527554132486
171	0x3fefe2fe1c1c0033	0.9964590596209802
172	0x3fe051fc61db0f06	0.5100080405468084
173	0xbfe30d8faf1012ad	-0.5954054278559703
174	0xbfde94cf17d7522b	-0.47783257797462636
175	0x4005375d613f8444	2.6520335767277476
176	0xbfe83667dcb756bc	-0.7566413222181931
177	0xbfc545b138a35a23	-0.1661893393090433
178	0xbff96c14f198b93b	-1.5888871610037103
179	0xbfd9e8a29ba68787	-0.40482392502064396
180	0x3ffe8fc6a7d0de0d	1.9101015620525488
181	0x3fe18836dc92e5cc	0.5478777225572968
182	0xbff56dedce4772ea	-1.3393381173875079
183	0xc0032bfcb37cc81b	-2.39647808289102
184	0xbfc48b754669455b	-0.16050592363402924
185	0xbfb63a719f66c265	-0.08682928220401605
186	0xbfebfb15aa4ef8bb	-0.8743999792420917
187	0xbfe5563c44bb87d6	-0.6667767851288271
188	0xbff0bd743cb7c1a7	-1.0462534305371294
189	0x3fa6782588d4e236	0.04388539595897038
190	0xbfeddd4600fe2bce	-0.9332609195129125
191	0xbfe32405a3df1d20	-0.5981472206703167
192	0xbfbe74b77ed814c0	-0.11896845671442957
193	0x3fbe0c416ae1738d	0.11737450465575545
194	0x400283817c23f963	2.314211816642613
195	0xbfc44a8d115f7aed	-0.15852511738099598
196	0xbff12f6a99754bcf	-1.074076270528838
197	0x3feddcad8ff28bee	0.9331882297013843
198	0x3ff26f5d9dbd128d	1.152188888708369
199	0xbfda05aa7a1af695	-0.40659582065914296
200	0x3fee14198ec61398	0.9399535931157628
201	0x4000628b16129b36	2.0481168484142485
202	0xc000371243da551f	-2.026890306568603
203	0xbff91bc6ccde779b	-1.5692813875861933
204	0x3ffb25fa6eec4f44	1.6967720349247921
205	0x3ff134ede8eca402	1.0754222010239123
206	0x40036179ee28ff2b	2.422595844865915
207	0x3fde138d0d906c69	0.46994329762100634
208	0xbff830abadc2d14a	-1.5118824756182954
209	0x3fd60883f23d70ab	0.3442697396874432
210	0x3fdbe09beec337cd	0.43558405224473234
211	0xbfded723c54b995c	-0.48188108698959353
212	0xbfc07375ed64f50b	-0.1285235795166176
213	0x3fc3eca83321f6ca	0.15565969940865038
214	0xbfd57d382b9c9e95	-0.3357677865883287
215	0xbfe40256268802ad	-0.6252852203907274
216	0xbfc0be4d06556394	-0.13080752190833478
217	0xc0057c16b42f57e0	-2.6855901791522996
218	0x3fe2cb72b8696b1c	0.5873349763672624
219	0xbfd044cb701b2d63	-0.2541988940035564
220	0x3fcfcc97e2648a3c	0.24843119196255425
221	0x3fd1c21ad6769a08	0.277472218930058
222	0xbfe5285ca09118c6	-0.6611769805974965
223	0xbfc893d95d595a5d	-0.19201199586923937
224	0xbfd8b0c4efc1724a	-0.3857891408313533
225	0xbfc5c54306b5c6ee	-0.1700824530376432
226	0x3ff3f7c0168ad994	1.2479859238206688
227	0x3fe92b9092ecb56f	0.7865679616567557
228	0x3ff40e458aecc1e3	1.2534842898131664
229	0x3fe3f17d25498550	0.6232286194100798
230	0xc000e6522a415270	-2.1124614049133967
231	0x3fd24ec19d1f9f5b	0.28605690330595274
232	0xbfe61ba7b8ae2649	-0.6908758742367321
233	0xbfaa9906f74d9730	-0.051948754967084176
234	0xbfcd866258a0b143	-0.23066357924961708
235	0xbfd28838b20b40c5	-0.28956429850678617
236	0x3fe990e16ec57b52	0.7989356196884307
237	0xbfbfa8e795dae878	-0.12367103012630476
238	0x3ff8a2b49a922076	1.539723018448084
239	0xbfe5ca13604eef22	-0.6809174424192614
240	0x3fe73e839eca25b5	0.7263811208114733
241	0x3feb279e4923fd1f	0.8485862186934446
242	0xbfcfc2b92ef7e02f	-0.2481299857461194
243	0x3fca961465425ced	0.2077050680570446
244	0xbfebd49dfebc6339	-0.8697042441664059
245	0x3fb839e370504cba	0.09463330738099077
246	0x3fdd6b4458580ef5	0.45967205645887016
247	0xbff0ef35afa63b10	-1.058400808458547
248	0xbf632996151ae954	-0.0023391658113186917
249	0x3fe01ae10b1044fc	0.5032811370930683
250	0xbfd335c0d55304b0	-0.30015583832216475
251	0x3ff7d78350408917	1.4901154646727883
252	0x3ff026e584907146	1.009496229008691
253	0x3fb8d4db2fe2e5d0	0.09699792784785832
254	0x3fd1363f43cd7b2b	0.2689359819541319
255	0xbfee6d299c6ea02f	-0.9508255057635376

output_mask f8 [16]
0	0x3ff0000000000000	1.0
1	0x3ff0000000000000	1.0
2	0x3ff0000000000000	1.0
3	0x3ff0000000000000	1.0
4	0x3ff0000000000000	1.0
5	0x3ff0000000000000	1.0
6	0x3ff0000000000000	1.0
7	0x3ff0000000000000	1.0
8	0x3ff0000000000000	1.0
9	0x3ff0000000000000	1.0
10	0x3ff0000000000000	1.0
11	0x3ff0000000000000	1.0
12	0x3ff0000000000000	1.0
13	0x3ff0000000000000	1.0
14	0x3ff0000000000000	1.0
15	0x3ff0000000000000	1.0

output_mask f8 [256]
0	0x3ff0000000000000	1.0
1	0x3ff0000000000000	1.0
2	0x3ff0000000000000	1.0
3	0x3ff0000000000000	1.0
4	0x3ff0000000000000	1.0
5	0x3ff0000000000000	1.0
6	0x3ff0000000000000	1.0
7	0x3ff0000000000000	1.0
8	0x3ff0000000000000	1.0
9	0x3ff0000000000000	1.0
10	0x3ff0000000000000	1.0
11	0x3ff0000000000000	1.0
12	0x3ff0000000000000	1.0
13	0x3ff0000000000000	1.0
14	0x3ff0000000000000	1.0
15	0x3ff0000000000000	1.0
16	0x3ff0000000000000	1.0
17	0x3ff0000000000000	1.0
18	0x3ff0000000000000	1.0
19	0x3ff0000000000000	1.0
20	0x3ff0000000000000	1.0
21	0x3ff0000000000000	1.0
22	0x3ff0000000000000	1.0
23	0x3ff0000000000000	1.0
24	0x3ff0000000000000	1.0
25	0x3ff0000000000000	1.0
26	0x3ff0000000000000	1.0
27	0x3ff0000000000000	1.0
28	0x3ff0000000000000	1.0
29	0x3ff0000000000000	1.0
30	0x3ff0000000000000	1.0
31	0x3ff0000000000000	1.0
32	0x3ff0000000000000	1.0
33	0x3ff0000000000000	1.0
34	0x3ff0000000000000	1.0
35	0x3ff0000000000000	1.0
36	0x3ff0000000000000	1.0
37	0x3ff0000000000000	1.0
38	0x3ff0000000000000	1.0
39	0x3ff0000000000000	1.0
40	0x3ff0000000000000	1.0
41	0x3ff0000000000000	1.0
42	0x3ff0000000000000	1.0
43	0x3ff0000000000000	1.0
44	0x3ff0000000000000	1.0
45	0x3ff0000000000000	1.0
46	0x3ff0000000000000	1.0
47	0x3ff0000000000000	1.0
48	0x3ff0000000000000	1.0
49	0x3ff0000000000000	1.0
50	0x3ff0000000000000	1.0
51	0x3ff0000000000000	1.0
52	0x3ff0000000000000	1.0
53	0x3ff0000000000000	1.0
54	0x3ff0000000000000	1.0
55	0x3ff0000000000000	1.0
56	0x3ff0000000000000	1.0
57	0x3ff0000000000000	1.0
58	0x3ff0000000000000	1.0
59	0x3ff0000000000000	1.0
60	0x3ff0000000000000	1.0
61	0x3ff0000000000000	1.0
62	0x3ff0000000000000	1.0
63	0x3ff0000000000000	1.0
64	0x3ff0000000000000	1.0
65	0x3ff0000000000000	1.0
66	0x3ff0000000000000	1.0
67	0x3ff0000000000000	1.0
68	0x3ff0000000000000	1.0
69	0x3ff0000000000000	1.0
70	0x3ff0000000000000	1.0
71	0x3ff0000000000000	1.0
72	0x3ff0000000000000	1.0
73	0x3ff0000000000000	1.0
74	0x3ff0000000000000	1.0
75	0x3ff0000000000000	1.0
76	0x3ff0000000000000	1.0
77	0x3ff0000000000000	1.0
78	0x3ff0000000000000	1.0
79	0x3ff0000000000000	1.0
80	0x3ff0000000000000	1.0
81	0x3ff0000000000000	1.0
82	0x3ff0000000000000	1.0
83	0x3ff0000000000000	1.0
84	0x3ff0000000000000	1.0
85	0x3ff0000000000000	1.0
86	0x3ff0000000000000	1.0
87	0x3ff0000000000000	1.0
88	0x3ff0000000000000	1.0
89	0x3ff0000000000000	1.0
90	0x3ff0000000000000	1.0
91	0x3ff0000000000000	1.0
92	0x3ff0000000000000	1.0
93	0x3ff0000000000000	1.0
94	0x3ff0000000000000	1.0
95	0x3ff0000000000000	1.0
96	0x3ff0000000000000	1.0
97	0x3ff0000000000000	1.0
98	0x3ff0000000000000	1.0
99	0x3ff0000000000000	1.0
100	0x3ff0000000000000	1.0
101	0x3ff0000000000000	1.0
102	0x3ff0000000000000	1.0
103	0x3ff0000000000000	1.0
104	0x3ff0000000000000	1.0
105	0x3ff0000000000000	1.0
106	0x3ff0000000000000	1.0
107	0x3ff0000000000000	1.0
108	0x3ff0000000000000	1.0
109	0x3ff0000000000000	1.0
110	0x3ff0000000000000	1.0
111	0x3ff0000000000000	1.0
112	0x3ff0000000000000	1.0
113	0x3ff0000000000000	1.0
114	0x3ff0000000000000	1.0
115	0x3ff0000000000000	1.0
116	0x3ff0000000000000	1.0
117	0x3ff0000000000000	1.0
118	0x3ff0000000000000	1.0
119	0x3ff0000000000000	1.0
120	0x3ff0000000000000	1.0
121	0x3ff0000000000000	1.0
122	0x3ff0000000000000	1.0
123	0x3ff0000000000000	1.0
124	0x3ff0000000000000	1.0
125	0x3ff0000000000000	1.0
126	0x3ff0000000000000	1.0
127	0x3ff0000000000000	1.0
128	0x3ff0000000000000	1.0
129	0x3ff0000000000000	1.0
130	0x3ff0000000000000	1.0
131	0x3ff0000000000000	1.0
132	0x3ff0000000000000	1.0
133	0x3ff0000000000000	1.0
134	0x3ff0000000000000	1.0
135	0x3ff0000000000000	1.0
136	0x3ff0000000000000	1.0
137	0x3ff0000000000000	1.0
138	0x3ff0000000000000	1.0
139	0x3ff0000000000000	1.0
140	0x3ff0000000000000	1.0
141	0x3ff0000000000000	1.0
142	0x3ff0000000000000	1.0
143	0x3ff0000000000000	1.0
144	0x3ff0000000000000	1.0
145	0x3ff0000000000000	1.0
146	0x3ff0000000000000	1.0
147	0x3ff0000000000000	1.0
148	0x3ff0000000000000	1.0
149	0x3ff0000000000000	1.0
150	0x3ff0000000000000	1.0
151	0x3ff0000000000000	1.0
152	0x3ff0000000000000	1.0
153	0x3ff0000000000000	1.0
154	0x3ff0000000000000	1.0
155	0x3ff0000000000000	1.0
156	0x3ff0000000000000	1.0
157	0x3ff0000000000000	1.0
158	0x3ff0000000000000	1.0
159	0x3ff0000000000000	1.0
160	0x3ff0000000000000	1.0
161	0x3ff0000000000000	1.0
162	0x3ff0000000000000	1.0
163	0x3ff0000000000000	1.0
164	0x3ff0000000000000	1.0
165	0x3ff0000000000000	1.0
166	0x3ff0000000000000	1.0
167	0x3ff0000000000000	1.0
168	0x3ff0000000000000	1.0
169	0x3ff0000000000000	1.0
170	0x3ff0000000000000	1.0
171	0x3ff0000000000000	1.0
172	0x3ff0000000000000	1.0
173	0x3ff0000000000000	1.0
174	0x3ff0000000000000	1.0
175	0x3ff0000000000000	1.0
176	0x3ff0000000000000	1.0
177	0x3ff0000000000000	1.0
178	0x3ff0000000000000	1.0
179	0x3ff0000000000000	1.0
180	0x3ff0000000000000	1.0
181	0x3ff0000000000000	1.0
182	0x3ff0000000000000	1.0
183	0x3ff0000000000000	1.0
184	0x3ff0000000000000	1.0
185	0x3ff0000000000000	1.0
186	0x3ff0000000000000	1.0
187	0x3ff0000000000000	1.0
188	0x3ff0000000000000	1.0
189	0x3ff0000000000000	1.0
190	0x3ff0000000000000	1.0
191	0x3ff0000000000000	1.0
192	0x3ff0000000000000	1.0
193	0x3ff0000000000000	1.0
194	0x3ff0000000000000	1.0
195	0x3ff0000000000000	1.0
196	0x3ff0000000000000	1.0
197	0x3ff0000000000000	1.0
198	0x3ff0000000000000	1.0
199	0x3ff0000000000000	1.0
200	0x3ff0000000000000	1.0
201	0x3ff0000000000000	1.0
202	0x3ff0000000000000	1.0
203	0x3ff0000000000000	1.0
204	0x3ff0000000000000	1.0
205	0x3ff0000000000000	1.0
206	0x3ff0000000000000	1.0
207	0x3ff0000000000000	1.0
208	0x3ff0000000000000	1.0
209	0x3ff0000000000000	1.0
210	0x3ff0000000000000	1.0
211	0x3ff0000000000000	1.0
212	0x3ff0000000000000	1.0
213	0x3ff0000000000000	1.0
214	0x3ff0000000000000	1.0
215	0x3ff0000000000000	1.0
216	0x3ff0000000000000	1.0
217	0x3ff0000000000000	1.0
218	0x3ff0000000000000	1.0
219	0x3ff0000000000000	1.0
220	0x3ff0000000000000	1.0
221	0x3ff0000000000000	1.0
222	0x3ff0000000000000	1.0
223	0x3ff0000000000000	1.0
224	0x3ff0000000000000	1.0
225	0x3ff0000000000000	1.0
226	0x3ff0000000000000	1.0
227	0x3ff0000000000000	1.0
228	0x3ff0000000000000	1.0
229	0x3ff0000000000000	1.0
230	0x3ff0000000000000	1.0
231	0x3ff0000000000000	1.0
232	0x3ff0000000000000	1.0
233	0x3ff0000000000000	1.0
234	0x3ff0000000000000	1.0
235	0x3ff0000000000000	1.0
236	0x3ff0000000000000	1.0
237	0x3ff0000000000000	1.0
238	0x3ff0000000000000	1.0
239	0x3ff0000000000000	1.0
240	0x3ff0000000000000	1.0
241	0x3ff0000000000000	1.0
242	0x3ff0000000000000	1.0
243	0x3ff0000000000000	1.0
244	0x3ff0000000000000	1.0
245	0x3ff0000000000000	1.0
246	0x3ff0000000000000	1.0
247	0x3ff0000000000000	1.0
248	0x3ff0000000000000	1.0
249	0x3ff0000000000000	1.0
250	0x3ff0000000000000	1.0
251	0x3ff0000000000000	1.0
252	0x3ff0000000000000	1.0
253	0x3ff0000000000000	1.0
254	0x3ff0000000000000	1.0
255	0x3ff0000000000000	1.0

weight f8 [3, 64]
0	0x3fd0d568de542886	0.2630254908732542
1	0xbfb88d24b5c82731	-0.09590367734940909
2	0x3ff1d7608773a6e7	1.1150822917065228
3	0xbfd0f22c49ec66c3	-0.26478106707655175
4	0xbfebfa6bd7b9c84f	-0.8743190015213801
5	0xbffaa1c70f6cac02	-1.6644964792747037
6	0xbff4aa6a5e7c4a68	-1.2916053477134941
7	0x40017ac5762ffe2b	2.18494694074595
8	0xbfd506c62772eb91	-0.3285384545558197
9	0xbfe333c32f085c27	-0.6000686567884984
10	0xc000939484c6cc3a	-2.0720606206100713
11	0xbfe08ef822fd8f77	-0.5174523051650642
12	0xbfe84831a2a85965	-0.7588127304941678
13	0x3fd2c8e0d5941384	0.29351063592212534
14	0xbff0cee5643f5b4f	-1.0505117336194478
15	0xbff5c21b974f49f5	-1.3598895941291833
16	0x3fb24855bfc87ca3	0.07141624386030059
17	0x3ff0b6d23522834b	1.0446340632990594
18	0x3fde8f54451d54b7	0.47749811887235744
19	0xbfe14a8a0331268c	-0.540349012598385
20	0xbff250fab0eb4ce5	-1.1447703276542651
21	0x3fe9e1c0d3581603	0.8088077667059114
22	0xc002fde4c19522eb	-2.373971474040777
23	0xbfe88f6f0e447b73	-0.7675090101873664
24	0x3fd56b8434cac550	0.334687282137641
25	0xbff6a94181ec7333	-1.4163222384588152
26	0xc004fd654df15721	-2.6237283791805486
27	0x3fe9030291c739af	0.7816174361449181
28	0x3ffa080511ad645c	1.6269579592247032
29	0xbffca83741d64d68	-1.7910683223497816
30	0x3fe9c9baaa7d3f64	0.8058751420848975
31	0x3fd942ea7280ed0c	0.3947092168998132
32	0x3fdb4d4c960ddd23	0.4265929665920842
33	0x3fd7c95b6850e6ce	0.37166485964881424
34	0x3fd5350c1b156d1f	0.331362749527857
35	0x3fe3c057117e6556	0.617229017417382
36	0xbfb0b0eb64d6b910	-0.06519957744487592
37	0xbfe4c58d6c23d20a	-0.6491152870281109
38	0xbfc6d2f3b5c847ac	-0.17831274391261098
39	0x3ffc1e4edda42e8b	1.7573994310249954
40	0x3ff7ed3733fece17	1.4954139739101089
41	0xbfe0f8659f9845d6	-0.5303218953214877
42	0x3ffb704f86d68cfa	1.7149195925820195
43	0xbfe99ee350f9d325	-0.8006455022392386
44	0x3fe3ae5e50d3a02e	0.6150352076192627
45	0xc00258a3ec5e715d	-2.2932814089128173
46	0x3fd4c871bd116f5e	0.32473414863283334
47	0x3ff3fc33cb982f7b	1.2490728333386574
48	0x3fc49394bfa9dcb8	0.1607538162095119
49	0x3fb004d4529a1710	0.06257369057319928
50	0xbfcc1c9f976d702c	-0.21962351697845983
51	0xbfcabb2bced89b4a	-0.20883700942905598
52	0xc00df9b45e102778	-3.7469260548286307
53	0xbfe2818a8bcd7b4f	-0.5783131342430837
54	0xbff2fa16cfd56f78	-1.186056911325947
55	0xbff839fef497fb30	-1.5141591600838176
56	0xbfd798c7e4b053d1	-0.3687000020302636
57	0xbfd20cb410c78586	-0.28202535284625474
58	0x3fdddecf04261a20	0.4667241611972788
59	0xc0020d63a2fa14e8	-2.2565376980370395
60	0x3fe0388693470383	0.506900108004729
61	0xbfda3858d0966eb2	-0.40968914384732635
62	0x3fcb50a8433a0462	0.2133989647154833
63	0xbff2b9a544d016fe	-1.1703236282350526
64	0xbfee20c18115ae3d	-0.9414985200105047
65	0x3fd54116f49b73f5	0.332097758173233
66	0xbfee28b1ab9b9bb3	-0.9424675323215211
67	0x3fcbd795712c5c65	0.21751659418143557
68	0x3f724857ecfd2ff2	0.004463523349681241
69	0xbfecca62d3e655d1	-0.8997053278605397
70	0x3ff30b59ef894986	1.1902713162313332
71	0x3fedfe6e9e3fabed	0.9373086062236077
72	0xbfe1e8027534b235	-0.5595714844872136
73	0x3ff1c6dfeabe7536	1.111053387612015
74	0x3ff0c75ceba476db	1.0486726002485998
75	0xbfff375139d4c557	-1.9510051974323994
76	0x3fea54f7b9d87ca3	0.822872031192578
77	0x3ff2c95bf99da988	1.1741599798793647
78	0x3fe356e049bcd090	0.6043549957453411
79	0x3fe6c996ec4555f7	0.71210809847497
80	0xbfda926c220e7588	-0.41518691373661243
81	0xbfa0f96802515890	-0.03315281894963207
82	0x3fe71311aa44b2bb	0.7210777593187098
83	0x3fd1d98566c98545	0.27890143430530073
84	0xbfd8e710926b4138	-0.38910307215430207
85	0x3fe2881c38dc7ffa	0.579115019852906
86	0x4004b823a45e393b	2.5899117318396327
87	0xbfd58c4cfceb1893	-0.33668827723557476
88	0x3fd986802c46aa20	0.3988342697508944
89	0x3f9dde8427836f41	0.02916914454622988
90	0x3ff7b84efa8f33e8	1.4824971950031287
91	0xbff459343ab90b02	-1.2717783254490205
92	0xbff85560094def68	-1.5208435405210938
93	0x3fbcb9ea19116df2	0.11221182930005805
94	0xbff33c6417cc5719	-1.2022438935868591
95	0xbff73b6752df9757	-1.452002834057074
96	0xbff0184788b910cc	-1.0059275952090045
97	0xbfea952882aedaa0	-0.8307077934649278
98	0xbfe32a1c607f78e7	-0.5988904843068469
99	0xbf71345d2a682e2a	-0.004200328758553288
100	0x3feed90d34fc56b4	0.96399555538911
101	0x3ffeb2de57154fda	1.9186690713586274
102	0xbfefeeee1f65f01d	-0.9979162801023481
103	0xbfb7a1300047a0c9	-0.09230327612715707
104	0xbfcccc62c48ac758	-0.22498735996992525
105	0xbfe76a28019a4c7d	-0.7317085295966447
106	0x3fdb6455f7fb7b90	0.42799901215578817
107	0x3fe3fa6b3dea7ab1	0.624318715028343
108	0x3fe8a1a4c0291489	0.7697318795332119
109	0xbfb141f64d661d13	-0.06741275205250856
110	0xbfea1569f190d878	-0.8151139944154826
111	0x3fd12b555b7c1f16	0.26826986249987905
112	0xbfa98f12fecbe9ab	-0.04991969452199226
113	0x3ffd008d9e835faf	1.8126350585862203
114	0xbfbf3528026eab3c	-0.12190485057241757
115	0x3fc7775df7b70320	0.18333029361203845
116	0xbfc73d53a4d7a54e	-0.18155904339736612
117	0x3fba39c256e8e67e	0.10244383451290592
118	0x3ff9dbb8e258a66d	1.616143116154855
119	0x3fee41b9ed0b5be0	0.9455232267163147
120	0x3fcc1ddcd7e6660e	0.21966133634559565
121	0xbff65919f21dc6ca	-1.3967532594364678
122	0xbfa729970ac85410	-0.045239181581713805
123	0xbfe0d5b12763c88b	-0.5260854501086824
124	0x3fee2ded64f1f7c3	0.9431063624940567
125	0x3fcbb7e50537f791	0.21654951815429205
126	0xbfee185c7c0fe08a	-0.9404737876020743
127	0x3ff1f664e0393f34	1.1226547964797193
128	0xbfd930b20b232b25	-0.3935971363795708
129	0xbfc7dee9135a382e	-0.18649018711988802
130	0x3fd00dec4282825f	0.2508497857579978
131	0xbfade7dd6601d9a0	-0.058409613325170584
132	0x3ff3a3591236804e	1.2273798667374822
133	0x400b43c1c9ef7bab	3.4080844665727077
134	0xbfd9b50fcac3fa29	-0.40167612840005745
135	0xc0095dbf0dd6b8c3	-3.1707745629456396
136	0x3fe4a1cce4afe211	0.6447510210555852
137	0xbfe23660f6bdb68c	-0.5691380328332385
138	0x3fe02ffdb0727875	0.5058582731469544
139	0x3fd63fe3a525a574	0.3476494896663873
140	0xbfd360bdd1c837e0	-0.3027796314862581
141	0xbfd760f0fbaee438	-0.3652918298572021
142	0xbf9d833f68561540	-0.028820982688121832
143	0xc0082c651927b4c0	-3.0216772046320273
144	0x3fd7b733c6589db6	0.3705567776655373
145	0xbf958cbbf8a47f23	-0.02104467110723286
146	0xbfec187bd74b2997	-0.877988739486045
147	0x3ffb403fda28aef7	1.7031858941872409
148	0x3ff5022d12de5bd2	1.3130312668852082
149	0xbfeebef750a2c2af	-0.9608112883489265
150	0xbfefffb2f2f4fc5b	-0.9999632592442923
151	0x3fe38596d19f086c	0.6100572675861833
152	0x3ffaaf9ca7b00be1	1.6678740072536515
153	0x4002f1cce0103217	2.3680665497725033
154	0x3fc99877012462b8	0.1999653583123029
155	0x3feffefb04c826f0	0.9998755544085878
156	0x3fdf5006cb9b828a	0.48925943263569904
157	0x4000f68d820c9a75	2.12038709259951
158	0x3fea6083bb3558f8	0.8242815643705219
159	0x3ff0f5d850133685	1.060020745080153
160	0x3fe3388214519e49	0.6006479641773207
161	0x3fe07a43c57620a5	0.5149248940151848
162	0x3fdebd3c8dd90e3d	0.48030008175212285
163	0x3f9495850e62710e	0.020101622584307192
164	0xc00476c74668632e	-2.5579972744566453
165	0x3ff73a86b0562199	1.4517886055128655
166	0xbff4d91edca0c823	-1.3030079477580407
167	0xbfe4135e665d6c2a	-0.6273643492999146
168	0xbfdbf19054db7131	-0.4366188839610628
169	0x3fe976081a18b8da	0.7956581601809163
170	0xbff4d9db39b0e643	-1.303187585216066
171	0xbfc076b22c23b95d	-0.1286223140263684
172	0xc002dbf4eec2ba5a	-2.357400765721917
173	0x3ff3b0d18920d4bc	1.2306685787746536
174	0x4004307c8255517d	2.523674982289036
175	0xbfe74e1ef1682b90	-0.7282862391451648
176	0xbf9d6adcb79033a6	-0.028727959350408526
177	0x3f8b9e1cfae22b23	0.013485170751911085
178	0x3fc6fc8022b3b460	0.179580704635927
179	0xbfadebc3a932366c	-0.05843936386473278
180	0x4008c9c40fe081a4	3.0985184898747367
181	0x3ff25612d6c3cdb4	1.1460140599491355
182	0xbff4806d1b6b7754	-1.2813540526471643
183	0xbfb635b83c37b3ad	-0.08675719709545034
184	0xbfbeb4199d0b6734	-0.11993560871215153
185	0x4002246c1c3ad65d	2.267784328980993
186	0x3f911891fb9f9dd3	0.016695290549163588
187	0x3ff67372675e191b	1.4031852758212782
188	0xbfe472665c017434	-0.6389648243890691
189	0x3faad2e375d006fa	0.052390201693937
190	0x3fefbaa79abcc719	0.9915349981513116
191	0xbfd8b2db584aba39	-0.3859165537095666

weight f8 [64, 64]
0	0xbfdff7f69cd58344	-0.4995094806272855
1	0x3ffe92be0ec5e67e	1.9108257844040106
2	0x3fed7f476ab31977	0.9217869838692384
3	0xbfe98c47fd997677	-0.7983741715540437
4	0x3ff045bfcf63d074	1.0170286275070142
5	0x3febd83972cf7896	0.8701445810691151
6	0x3ff123cc06d3df34	1.0712394968704304
7	0x40008cdc1493bf98	2.0687791450108755
8	0x3fc215891b3f812e	0.14128221350166242
9	0xbfb239133765c502	-0.07118339636305751
10	0x3fe50838bab20697	0.6572536131281649
11	0x400aa76bd5175c51	3.3317486427072613
12	0xc005b2746ca181fe	-2.712136124304606
13	0x3fee56c10bc4be3b	0.9480900983671242
14	0xbfcdd8b7abb5d203	-0.23317619213379723
15	0x3fede88309695b51	0.9346327956981019
16	0xbfdffc5a37db0fb4	-0.49977736906680126
17	0x3fec72a0ed398ed6	0.8889927514360021
18	0xbffe7416a48efdfa	-1.9033419063633787
19	0x3f76e73500593753	0.005591589962547011
20	0x3ff21f1de04d2b16	1.1325968515181493
21	0xbff49d6f401e19cc	-1.288436174830724
22	0x3ffc7344e5fc5899	1.7781418784921128
23	0xbfe5c299be6aaeb3	-0.6800049513890002
24	0xc0060236cf7f94f9	-2.751081105309478
25	0x3fd1d27e672c4dd7	0.2784725196408692
26	0xc000ed109d6178b5	-2.115754346406073
27	0x3fe52a3ab9e50a2b	0.6614049559360117
28	0x3fc7924c7112ca14	0.18415217896615899
29	0x3ff7a36e440ef237	1.4774000795870401
30	0xbfe5a93f9fff3199	-0.6769102215708244
31	0xc00816aa4219cbbc	-3.011066929256655
32	0x3fc8b7a7ca4ebd1a	0.19310471895503484
33	0xbfd0c16d9689bd60	-0.26180591298085254
34	0xbfd5dfcde2968ab9	-0.34178492667903587
35	0x3ff628315a02ee0b	1.3848126903602658
36	0x4009d56622dac580	3.2291987154973754
37	0x4003bd744384d402	2.4675069117461144
38	0xbff31f640d49ea04	-1.1951637763110066
39	0xbff77018df998022	-1.4648674711570568
40	0xbff8214b3b82b4d0	-1.508128387892885
41	0xbfebf0e04d952d0d	-0.8731538310325121
42	0xbfc3bf7f2678314b	-0.15428151491540584
43	0x3fcf2b626a11e913	0.24351148776242634
44	0xc00171acd6aa6f4d	-2.180505444599396
45	0xbffe4dd8e88e041f	-1.8940056881112992
46	0xbfee54fadf54a8c8	-0.9478735315253966
47	0x3fe888eb6ce702c9	0.7667138220786792
48	0x3fdf0fd5bd00dfac	0.4853414865242438
49	0x3ff5b1ac6f2c51b6	1.355877336759574
50	0x3fecd115e371d23f	0.9005231325414299
51	0x40032340c06d0b02	2.3922133477475436
52	0x4001daee72c310ed	2.2319001165179686
53	0x3fb117c3e55593da	0.06676887845021842
54	0x3fe2842d59db5f11	0.5786349062936741
55	0xbff3e335ffacd2bb	-1.2429714190777037
56	0xbfe50204cbda0756	-0.6564964276769654
57	0xbfd3f05f8b36bcc8	-0.3115462169179861
58	0xbfc6f2636fffe074	-0.17927210777975555
59	0xbfe482542895957c	-0.6409092705404613
60	0x3fd666df1760421a	0.3500287750512442
61	0xbff5bb972d79a32a	-1.3582984711048973
62	0xbfe716e5c864d40e	-0.7215451158468811
63	0xbfd72b46906129e4	-0.3620163354832171
64	0x3fdf517ddbe88f84	0.4893488547843321
65	0xbfce286e1ef45874	-0.23560883056115112
66	0x3fe71bfaf65e4589	0.7221655666236738
67	0x3fd72b4f37f540c2	0.3620183989014657
68	0x3fe441cc34eac825	0.6330319436585837
69	0xbfe340bb08bed217	-0.6016516848381482
70	0xbfed6109dd72e32e	-0.9180955243274178
71	0x3fdad0c93b15e878	0.41899328966213245
72	0x3fa466e076fa4c6a	0.039847387813232896
73	0xbfe3dcccfe9c4fe1	-0.620703217779461
74	0x3fd4c6005585c710	0.32458504058659887
75	0x3fbd73f620afc492	0.11505068109524277
76	0xbfc6ad643e70a211	-0.17716649102045826
77	0xbfe1246cf5497123	-0.5356964865455079
78	0xbfda888244e84330	-0.41458183984018415
79	0x3fe80f55f9eaa862	0.7518720513519492
80	0x3fc34ee2c4a67123	0.15084490396555691
81	0x3fd2837df7e92976	0.2892756386760519
82	0xbfc0e5047e799f18	-0.13198906112233355
83	0xbfd790cee38890f6	-0.3682133886343445
84	0xbfdc17092d19be82	-0.4389059963641345
85	0x3ff9e4446af58b86	1.6182293108074375
86	0x3ff3c87976f5b758	1.2364439627521815
87	0xbfd71a7483f38cab	-0.3609896935069609
88	0xbff2d35a1e53311a	-1.1765996155327856
89	0x3febad501560f19e	0.8649063508560635
90	0xbffa8dcc6fa8d5a4	-1.6596187936496358
91	0xbfc8c4172eddc1d3	-0.19348420894995275
92	0x3fdeaaa54205f215	0.47916537711697177
93	0x3fe9be89ed238720	0.8045091277710732
94	0xc00167035dbcc638	-2.175299389193949
95	0x3fcbde2f8b866a58	0.21771807015177802
96	0xbfe366ce1c838465	-0.6062994534405673
97	0xbfe0e2d7a7bc80c2	-0.5276907230472931
98	0xbfef8dd706c6df95	-0.9860644466743788
99	0x3fe4454ae019e34f	0.6334585549330799
100	0x3fcbe00020ed0f9c	0.2177734528323726
101	0xbfffe50827c000a9	-1.9934159805998581
102	0xbfeea38d094e6f48	-0.9574647123113005
103	0x40088b88182ad3e1	3.0681306732244455
104	0xbfcc82ccc904ec1f	-0.2227416974581908
105	0xbfec17a2ae0be6db	-0.8778851889939817
106	0xbfe608b941776f8a	-0.6885648993152114
107	0xbfe9b1387bbe4a6e	-0.8028833786832601
108	0xbfdb8f8e610571a1	-0.4306369731400768
109	0x3f9713e06c456fc0	0.022536760910369713
110	0xbff74e7283b396d3	-1.4566521782484656
111	0xbff936856abc967b	-1.5758108300591676
112	0xbfeda4fe8a646cf9	-0.9263909056639071
113	0x3fe2674fdb4eb9ef	0.575111320815095
114	0xbfd780a54db528e3	-0.3672269114364452
115	0xbfeab0f0b30b26b8	-0.8340991494125864
116	0xbfec113b2c4d818a	-0.877103411225151
117	0xbfb90beebeed79a6	-0.09783832703894876
118	0x400317afcec94ab3	2.3865657954387074
119	0x3fb1a5ba7db17736	0.06893506592447526
120	0xbfe8655fd7e46605	-0.7623748032230543
121	0xbfe7d1f61cd5682c	-0.7443800509602219
122	0x3ff28d85031f2935	1.1595506784384046
123	0xbfdb1b3378cdece8	-0.42353522107414543
124	0x3fd3606a488a5110	0.3027597149278032
125	0xbfe0536d6d7992e3	-0.510184015100631
126	0x3ff0b8dd2e7d05d7	1.0451328102066009
127	0x3fe8609278866463	0.761788592720347
128	0xbfe8368b839c9281	-0.7566583223857181
129	0xbffb1631aa3061a5	-1.692918457794897
130	0x3ff74db1072c3624	1.4564676551993978
131	0x3fdfd7cd8f82fa8d	0.4975465680580918
132	0xbfee1757a4396476	-0.940349407911653
133	0xbffc5dde338a211c	-1.7729169858230938
134	0xbf922c1c665081ee	-0.017746394867687636
135	0x3fee0042811b0db0	0.9375317117305055
136	0x3ff1066455d5aa1e	1.064060530940544
137	0x3fbe5253c0c7281c	0.11844371277325688
138	0xbfe8b5431104a537	-0.7721267063508667
139	0x3fe9405c2e83045b	0.7891064556535058
140	0xbfd02652eba7dec2	-0.2523391057324994
141	0xbfd784dd661161b8	-0.36748442618911836
142	0x3fecdaf42bb379a5	0.9017277577911967
143	0xbff0bdc8ffa5e16e	-1.0463342653511876
144	0xbfe3b3620672bf26	-0.6156473279897667
145	0xbfec79b4f0aa9a1c	-0.8898567867771052
146	0xbfd01b93c45391b5	-0.2516831795931254
147	0xbff04c59ba7ccb8c	-1.0186402592341635
148	0x3fb22060162245c9	0.07080650844934334
149	0xbff2e61417490a4d	-1.1811715039808803
150	0x3fdb41e899122c27	0.42589774082506654
151	0xbffdaee8e06e31cd	-1.8552025572599746
152	0xbff221c6fb77f865	-1.1332464049333109
153	0xbfc80255ffd097d4	-0.18757128706891868
154	0x3fd094a04adfb26f	0.25907141982933174
155	0xbfc3a617c4a1f8c7	-0.15350625134664694
156	0xbfecf4c18e19e14b	-0.9048774505054465
157	0xbfca4d5738ca97d5	-0.2054852511693627
158	0xbfc9d0a99eda37db	-0.20168037659135404
159	0xbfc822c661c784e5	-0.1885612466276491
160	0x3fefe8185be53826	0.9970819277602956
161	0x40014a317a375555	2.1612271831642524
162	0x3fd3dc2d07251c32	0.3103134698653235
163	0xc003b6012380dbfd	-2.4638693593692538
164	0x3ffae75123b6ae8e	1.6814738650381602
165	0xbfef160f09d00a3b	-0.9714427177098693
166	0x3fee77d16066d564	0.9521262057157114
167	0xbff6bc1e0860b3ac	-1.4209270789390116
168	0x3fd18b2f6bc4fdcf	0.27412019276013394
169	0xbfea6c035b1e305c	-0.8256851939818364
170	0xbfeaca7b12e89b53	-0.8372168893155084
171	0x3fd6ff411071f6c2	0.35932947736715104
172	0x3fdb4b367b61476d	0.42646562622859713
173	0xbfeb4e99009cd050	-0.8533444416011751
174	0xbfbbacd1309dcaa4	-0.10810573040888954
175	0xbfefe60a19e16708	-0.9968309884527295
176	0xbfeb9b2f404cd891	-0.8626934295523531
177	0x3feaff5371e98da9	0.8436677193498571
178	0x3fdad2340848b0b0	0.41907978829363923
179	0xbfe51ca84b1096c8	-0.6597482172116651
180	0xbfd33b80282e2f32	-0.3005066292177957
181	0x3f930741a33a428d	0.018582368457432486
182	0xbfffb98c6ff91f36	-1.982799947161721
183	0x3fc733a4f7efcdd9	0.1812635622624004
184	0x3fd6162cd02b6461	0.34510345772793555
185	0xbfea833d09777456	-0.8285203156371022
186	0x3fde19adf5eca193	0.47031735435532446
187	0x3f9d07322d3969ab	0.02834776307131796
188	0xbff2ac345d284b6c	-1.1670421256028147
189	0x3fe72f0556258c77	0.7244898493339765
190	0x3fea43d5eab7f670	0.8207807144496666
191	0xc0018c64f4696ff0	-2.193551930873575
192	0xbfd06ac49811389b	-0.2565165982276853
193	0x3fdf5eea20b4a780	0.49016812509454866
194	0xbfeb435e6b02aa39	-0.851973732952792
195	0x3fd6fd32c2fe6567	0.3592039970622722
196	0x3fef02d7e278ec5e	0.9690970824516503
197	0xbfb98efcf8471958	-0.09983807622402219
198	0x3ffbf0e23d191547	1.7463095080032234
199	0xbfd2de4574351e21	-0.2948163637961177
200	0x3fe4649b486b90a3	0.6372810759026105
201	0xbfe4299bf2d18924	-0.6300792448567205
202	0xbfd7a332872bd6a1	-0.3693357772857358
203	0x3fe4ce2efd73a813	0.6501688909750122
204	0x3feb10226bb5ffbe	0.8457195380906268
205	0x3fe55361bb972042	0.666428438556075
206	0xbfe367e167f41149	-0.606430724176371
207	0xbfe4a9f0cdde6071	-0.645744707190728
208	0x3fec3817f7b9f200	0.8818473661809207
209	0x3fee2b5a1549f750	0.9427919784354604
210	0x4005946ba05acd71	2.697470906039307
211	0xbf9c76fe17c08f74	-0.027797670554846346
212	0xbff3223ae20998dc	-1.1958569364156153
213	0x3ff3284ccb29e3d8	1.1973388610915574
214	0x3ff15e0c896e9236	1.0854611748155896
215	0x3ffbe786c0ce84c7	1.7440249949943778
216	0xc000f0c9e139f513	-2.1175725551426097
217	0x3feb214e4a72e262	0.8478156522824742
218	0xbfd76f38ba29f4ec	-0.36616342716281625
219	0xbfe4e0462746dd67	-0.6523772017598447
220	0x3fc503cbbb356092	0.16417833939590715
221	0xbfe9628ddad0bdf1	-0.7932805322397468
222	0xbff1d8b29b7900f4	-1.1154047082091525
223	0x3fd52ae4488b2bb0	0.3307429035600604
224	0x3fda67ef591baddc	0.41259368612256053
225	0x3fe75f83533c7d51	0.7304093003948912
226	0xbff588935eab2138	-1.3458436677920655
227	0x3ff24583cc726ba1	1.1419713960847064
228	0xbfc7377deb833fb3	-0.1813809776272116
229	0xbfe7371dd83f8725	-0.7254780982586665
230	0x3fe4c824d1731d99	0.6494316187681078
231	0x3ffa8f12bc63fe3c	1.6599299773223626
232	0x3ffca9162786b5e2	1.791280893706578
233	0xbfea03e8cf3b9813	-0.8129772231593527
234	0xbfe2a369b7d85ec7	-0.5824478712774742
235	0x3fab458057fbc9ff	0.053264628162555276
236	0x3fe6d8bcf62cdef9	0.7139572914229283
237	0xbfef07c958dde9f9	-0.9697005019837085
238	0x3ffa8516696ee4ca	1.657492076729158
239	0x3fe5575883a1575f	0.6669123240378488
240	0x3ff3672dc4a12728	1.212690132221221
241	0xbfeedade823d34f1	-0.9642174285633286
242	0xbfd0e56e2e31f367	-0.2640033198475095
243	0x3ff1d70ce7ebcb8e	1.1150025424401266
244	0xbff9e27432273199	-1.617786594305562
245	0x3fe0396597a360e9	0.5070064508136315
246	0xbfe4f5fec386d0e0	-0.6550287073974026
247	0x3ff994a16efcc3be	1.5987867675250835
248	0x3fe5fda6fc3e62cf	0.687213413871257
249	0x3fdcdf8e37b3dcff	0.4511447471590628
250	0x3fdd0de933ec7088	0.45397405691779413
251	0xbfd1e5caf80ab4cd	-0.27965044234117614
252	0xbfa0a7f95d1c1d8c	-0.03253154050440363
253	0x3fda4dcd9b4297f2	0.41099872743723076
254	0xbff993e3627fd992	-1.5986055228837341
255	0xbfe8f77935af2f01	-0.780209164478464

weight f8 [64, 64]
0	0x3fe90eff77d0994a	0.7830808010228705
1	0x3fbc8f1028483b7a	0.11155796988917457
2	0x3ff0c911bce195f4	1.0490891817256598
3	0x3fede484126dc3a9	0.9341450080811359
4	0x3f9617bf538ba2f9	0.021574964021882945
5	0x3fef19ca18d4ebd8	0.9718981251711467
6	0x3fd855b719ff6c08	0.38023164309350976
7	0xbff688b96826de0a	-1.4083799427443204
8	0xbfba9fe869ad9956	-0.10400250034363032
9	0x3fedfd82ed4fbc99	0.9371962199201277
10	0x3ff8b6c9343f10dc	1.5446254769204222
11	0x3fec187700c59d4b	0.8779864325596604
12	0x3feb5d5c9c9a1fb5	0.8551466997750966
13	0x3ff33d59c7b4f293	1.202478199105063
14	0xbffbce4ae1e2f20f	-1.7378643821422235
15	0x3ff4e3142ade0b43	1.305439155054686
16	0x3fee55a984d3ec10	0.9479568094533324
17	0xbffe1b172337b58f	-1.8816138625801135
18	0xbffc1b23dd5feb28	-1.7566260001610292
19	0xbfb702f930844e2b	-0.08988912043087598
20	0xbff1e8142df0a8ec	-1.1191598696264533
21	0xbff1012f244c8166	-1.0627890985416228
22	0x3fef5178fd3bd82e	0.9786953874561328
23	0x3fdb3eef638f0e78	0.42571625444927674
24	0xbff62b7acba4ebf3	-1.3856151537754584
25	0x3fe7301c4cbad4ea	0.7246228693608405
26	0x3fe045dee060fce0	0.5085291273498136
27	0x3fcdc174278be0f3	0.23246623927094098
28	0xbfe196fe600132bd	-0.549681842335836
29	0x3ff3c4710a2b7c05	1.235459365583439
30	0x3ff341eb089d8086	1.2035932861836343
31	0xbfc46fbf502906b9	-0.15966025747370852
32	0xbfcab5322691eeda	-0.20865466006568206
33	0x3fe5dce36142bd18	0.6832138919470792
34	0xbfdd445b3f25a5cc	-0.4572971455259818
35	0x3fdfe8063609a310	0.4985366370879527
36	0x3ffce34233d839cd	1.8054830575161873
37	0xc000c705348b7c33	-2.0971778969829074
38	0xbfccfa4b7e5fa187	-0.22638839407524022
39	0xbff8bf3b0bee115d	-1.546687170602204
40	0x3fd02cdfc85589fa	0.25273890079384354
41	0x3ff55da94c20d165	1.3353665326840993
42	0xbff00be78fc43df5	-1.0029063812142998
43	0xc0043726b5f6890c	-2.5269293037282576
44	0x3ff6cbd11fbfcc4f	1.4247599830821576
45	0x3ff3acde10703958	1.229703964435961
46	0x3fcb4722583371f3	0.21310834223449113
47	0xbfe6ffad4b1da384	-0.7187105624299055
48	0xbff695cac297332e	-1.4115703202434804
49	0xbfc47d323f2d562b	-0.16007068714923042
50	0x3fe38a4d7c6600d8	0.6106326512963518
51	0xbfe2820119576d07	-0.578369664664394
52	0x3fcdc3cadc2b9efd	0.2325376105356937
53	0xc005f4bf8fd193eb	-2.7445060001214094
54	0x3ff2647eaf10833b	1.1495348776299597
55	0x3ff311f572f4974d	1.1918844690748813
56	0x3fd2f1716560ffdc	0.29598650837215046
57	0x3ff7d86f2e515e8f	1.490340405396555
58	0xbfb662cdc40b5b28	-0.0874451259254384
59	0x3f9f7b1e44a53fdb	0.030743096294202004
60	0x3fd5edadc6d6d47e	0.3426317636288515
61	0x400094c287ce4b3e	2.0726366624670893
62	0x3fdba8faadf6e94e	0.43218867291183904
63	0xbffc98c06c1b0ff3	-1.7872928831939106
64	0x3ffe5baef2226df7	1.8973836382273228
65	0xbff32f8d5ebb7861	-1.1991094303589522
66	0x3ffcf84780f7541c	1.8106150663127272
67	0x3fddc63fdff4145d	0.46522518988087375
68	0x4000d8beac57ce49	2.105832430295582
69	0x3fef2b48225d43e8	0.9740334197214198
70	0x3fee3e03e844bb4a	0.9450702225202374
71	0xbff6d1984d61b4a3	-1.4261706373902505
72	0x3ffa017c38de8f28	1.6253626080951538
73	0xbfd46caa4c756f2f	-0.31913239924118647
74	0xc004d950c3f2761f	-2.606111079060397
75	0xbff0900680c65c66	-1.035162451769588
76	0x40019d5b74c0e1cf	2.201834594856542
77	0x400482396cb0099b	2.563586091158141
78	0x3ffb511d647054ec	1.7073034213438474
79	0x3fe46be247b4797f	0.638169422196185
80	0x3fce222a2a6d71d5	0.23541762420326387
81	0x3fe18f2b262722a0	0.5487266297505649
82	0xbfe3620aa5e4097e	-0.6057179679922198
83	0x400a9baa30b7ff9e	3.326008206000508
84	0xbfe362d860cb374a	-0.605816067743697
85	0xbff2d0bdfdeee163	-1.1759624404204139
86	0xbff367a7b83044e2	-1.2128064341416622
87	0x3fe81fd2d7b6dbbb	0.7538847172898991
88	0x3ff06ec68ef480f2	1.0270448288138678
89	0x3fe8a37fc4d69379	0.7699583858962874
90	0x3ff3a021fa31dc0d	1.2265949033005683
91	0xc00032cae4c1e62e	-2.024801051299412
92	0xbfc48d03802762f9	-0.16055339581978226
93	0x3fdd564feb84fc09	0.4583930778498489
94	0x3fda97db9faff8b1	0.415518670983043
95	0x3ff1c058ba7807f8	1.109459617990522
96	0xc007c705d11a0a21	-2.97217906342236
97	0x3ff12debdebb3608	1.0737112713280812
98	0xc00f6f8bc6d27088	-3.929465821549517
99	0x3feba93fd90a801b	0.8644103278238647
100	0xbfe7012fb9370fec	-0.7188948266489184
101	0xbfd32d160bd07a58	-0.29962683824297676
102	0xbff1bb803bbabeb8	-1.108276589697125
103	0xbfcc23eb2eda0cb9	-0.21984615123446874
104	0xbff8d66dcfc67313	-1.5523508182734005
105	0xbfdb03dc2921bb93	-0.4221105958630968
106	0xc0101b0a1258c4dc	-4.0264056078605925
107	0x4001d4ee06474186	2.228969620751914
108	0x3fd3387629192c05	0.30032114041813457
109	0x3fe3a17aee2fc918	0.6134619381030317
110	0xbfc582a8a2b68ed2	-0.16804988808609395
111	0x3fb838d47c7873d1	0.09461715735274302
112	0xbfdd9991c19c8120	-0.4624981299148363
113	0x4003b97e74c4cabd	2.465573227172483
114	0xbffe3e282700c154	-1.8901750110199673
115	0xbfc151e083acf277	-0.135311188025202
116	0x3fdea34ba0e7b89c	0.4787167617167911
117	0xbfb821d25e549635	-0.09426607897747703
118	0x3ffc346cdce2c98b	1.7627991321902268
119	0xbfc4d7e6eb96c871	-0.16283880713814683
120	0x3fce8bf286e2a797	0.2386458548183412
121	0x400dcff144f2c943	3.726534403475996
122	0x3ff6db798194a00f	1.4285826741925154
123	0xbfe8405205187054	-0.7578516101380139
124	0xbff79e8771f063e9	-1.4762033892386575
125	0x3ff661ccc4ea9521	1.3988769237560705
126	0x3fb4cf9026d6e251	0.08129216144778552
127	0x3fda1336d9e9e15d	0.40742274551987184
128	0xbfbba8f537b10b2a	-0.1080468426671756
129	0xc0005c0f7ac0a4bc	-2.0449513998069886
130	0xbfd4b1c50ca38d5e	-0.3233502028872034
131	0xbfef922f95bbb5bc	-0.9865949558713321
132	0xbfd4e23922892d41	-0.3263075673355225
133	0xbfd693797d0d033f	-0.35275113307948297
134	0x3ff51bdbaf2fb9e3	1.3193013041706017
135	0xc003f573d71d8197	-2.4948498540763455
136	0x3fe9d2f2fd9af17a	0.8070006325938686
137	0xbfea225051a20fc7	-0.8166886896510669
138	0x3ff782dd18b12879	1.4694491352588825
139	0x3fc912d3a2d41d63	0.19588704538930832
140	0x3fd61a8375dc0bab	0.3453682566616247
141	0xbfd1af187d781d0b	-0.27631199124194045
142	0xbfd0e25859e9b852	-0.2638150098854385
143	0x3fead4dceabef4ea	0.8384842476731624
144	0xbfe54a592d40ce41	-0.6653257259226352
145	0xbfe8959c00a0c347	-0.768262864328883
146	0xbfed345076df98d9	-0.9126360246416666
147	0xbfc39eebe08e3a83	-0.15328739609363504
148	0xbfffc0ed95e5b1f0	-1.984601579223746
149	0xbfebf4978725beca	-0.8736074103926168
150	0x3fca89b8c46ed105	0.20732793418358866
151	0xbfd67c2d3b9f724f	-0.3513291437391545
152	0x3ff07bc08f47be11	1.0302129361042527
153	0x3fec0dc407174630	0.8766803873533657
154	0x3ffc4812008dd423	1.767595293201574
155	0x3fd152fca3cc99b7	0.27069011684434535
156	0x3fe1d09c9b7bef89	0.5567153012084286
157	0xbfc4515f236a93b9	-0.1587332652026399
158	0x3fe2bbacb4b0ce1e	0.5854095009912645
159	0x3fbd8ba93963cc52	0.1154123082267671
160	0xbfeb71e819ec9676	-0.8576546198207342
161	0x3fe6c957977b9496	0.7120778998038471
162	0xbfe43b77442b7b23	-0.6322590190355623
163	0xbfcf49b9549fa7fe	-0.244437376327653
164	0x3fa53fd13eaca73a	0.04150251283711133
165	0xbff6f242835b89d1	-1.4341454630999702
166	0xbfb39ed22306434f	-0.07664216380204646
167	0xbfbb8102c282bd6e	-0.10743729828640422
168	0x3fe47d2d881ce3ff	0.6402805002645663
169	0x3fe36df24a71c338	0.6071711973182579
170	0xc0063ade23784bee	-2.778744008167897
171	0x3ff7824a97758a78	1.4693094173786942
172	0xbfccbea22e95d418	-0.22456767344161288
173	0x3ff35889fe091ec9	1.2091159747378006
174	0x3ff235b1d7c076ea	1.1381090572171453
175	0xbfdd4ed589b90f44	-0.45793665360928437
176	0xbfe831cb04442f3b	-0.7560782512023033
177	0x3ff5f749c450fa50	1.372873083935378
178	0x3fef42060e2bf8e0	0.9768095280449209
179	0x4001aadee0b24da6	2.2084329180158475
180	0xbfe4b5b23cd899bd	-0.6471797169113455
181	0xbfecc02b08b92588	-0.8984580202460828
182	0xbff2f34b25921a24	-1.184397837410537
183	0xbfde6a96faf3fe9d	-0.475255723067656
184	0xbff6a287ad842e6e	-1.4146801736814285
185	0x3ff08e73f6074f32	1.0347785578241653
186	0x3fe38f3c820b5130	0.6112349071432046
187	0x3fd4ec79e983b7cc	0.3269333630004183
188	0x3ff80dfbdc03e4f3	1.5034140199989536
189	0x3fc1198fce653114	0.1335925824918226
190	0x3ff51ce937c93052	1.3195583514343707
191	0xc002072e20271d19	-2.253505946344046
192	0xbfb924af1f9b3467	-0.0982160045779935
193	0x3fcd3577674e56fe	0.22819416565169343
194	0x3fe5702ef03b9c57	0.6699442569778381
195	0xbfe0bf6214384f9c	-0.5233621973916232
196	0xbff88623cb116d6b	-1.532748978838607
197	0xbfd5de700d0c79d3	-0.3417015197209398
198	0xbfa307296d58c596	-0.037164015386575475
199	0xbfd9b287f9bd4f6a	-0.4015216769087063
200	0xbffda6214936d531	-1.8530590877465551
201	0xbfb81f0b149a69d1	-0.09422368290908102
202	0x3ffe1154f5a2cf25	1.8792314143328863
203	0xbffa042ecc5218fe	-1.6260211926724533
204	0x3ff5166536ab5c4a	1.3179676185152567
205	0xbfd93ae2ac691231	-0.3942190822311061
206	0xbfeeb277a691eeaa	-0.959285569507718
207	0x3fe5556887b56940	0.666675820403988
208	0x3ffec5d430160d13	1.9232980612148978
209	0xbfe5c91aff198f44	-0.6807990057390971
210	0xbfd86c0d98f401d2	-0.38159503876525236
211	0xbfe926708095b89f	-0.7859423171446628
212	0xbfecbfe32ee7b8f6	-0.8984237590900921
213	0x3ff48b0a7339c98c	1.2839455128674642
214	0x3f9b936cb5c825bb	0.026929567904550682
215	0x3feb3df52fd95371	0.8513132032918361
216	0x3fdb879a8846fd43	0.43015158947305937
217	0xbfeaf8dd5d82399a	-0.8428789926854734
218	0xbfd6ceba49d19019	-0.35636765679214616
219	0xbfe11cd33b3ef2bb	-0.5347686917444529
220	0xbfef54f22c9ba58d	-0.9791193839311504
221	0xbfda1d31f5dddf11	-0.40803193102282004
222	0x3ffa0840c8d5dfaa	1.6270149083265815
223	0xbfe91a585cdffd61	-0.7844659627880156
224	0x3fc67fea780386c5	0.17577868328139892
225	0xbffd0a8ec7f96a04	-1.8150775729651523
226	0xbff1ce57ba8c8f7f	-1.1128766333649478
227	0x3fe0a247b0701892	0.5198095747043843
228	0xbfee20122357b08b	-0.9414148988994538
229	0x3fc34939d4374884	0.15067217695338198
230	0xbff1ec4833062697	-1.1201860421300915
231	0xbfd9271a90769cb8	-0.393011704518766
232	0xbff0d0b9a91d9ba6	-1.0509583097534487
233	0x3ffc73436442a6f7	1.7781404415531463
234	0x3fe7c61a31123fd5	0.742932411043507
235	0x3ff4214318de0536	1.2581206294419878
236	0xbfe59c239d7d0f42	-0.6753099513957539
237	0x400322cf42d3fb9d	2.391996881574825
238	0xbfc2b024dc1363c5	-0.14600048776517674
239	0x3feca29334d3b394	0.8948455840851346
240	0xbfaab4f171fbf69d	-0.05216173664483146
241	0x3fecec1cc2e1e174	0.9038223081870869
242	0xc00478d1ae3dfa00	-2.558993684069037
243	0xbfe4173df044e48a	-0.6278371517902468
244	0xbfd22863a316c0fd	-0.2837151615776888
245	0xbff88f84790e8ce0	-1.5350384453566264
246	0x3fe7fc5054905aab	0.7495500232351636
247	0x3ff8d7ae5ba621b5	1.5526565151250058
248	0x3ff2a268e09b6d90	1.1646508001057079
249	0x3fd71b295b19d59b	0.36103280922483244
250	0xbfd7898e1de6ab2f	-0.3677706996920049
251	0xbfecad2161493234	-0.8961340808978719
252	0x3ff31f0d5ad9a070	1.1950810955841256
253	0x3ff1f9c42692b689	1.1234780794870025
254	0xbfa04983f6dc7d94	-0.031810878643450696
255	0x3fca1986f06afe8f	0.20390402545125538
