px915_reproducible/b/MACE_model_b5.model (torch, 961538 bytes, 78 tensors)

r_max f8 []
0	0x4010000000000000	4.0

weight f8 [32]
0	0xbf817955f44fa32a	-0.008532210844309402
1	0x3f7071d85708b098	0.004014821126968958
2	0xbf9a44f237f3b1fc	-0.025653633751902646
3	0xbfe9ff3ff2396985	-0.8124084216063215
4	0xbfa0d7190b828165	-0.03289106622219399
5	0x3f7817612db0545f	0.005881671527295656
6	0xbfe8e84eb2f822c2	-0.7783578391546018
7	0xbfaa5e087dd19985	-0.05149866615174673
8	0x3fd93bc7b661e9d5	0.3942736893729067
9	0x3fc453aefd6762a4	0.15880381940111932
10	0x3fe11863f1e7139d	0.5342273449574467
11	0x3fdf8aecc8a4bd64	0.4928543052110028
12	0xc0043351b3f227b3	-2.525058179690825
13	0x3fc3c4b3ffbd9e13	0.15444040286387004
14	0xbff1a4b2029502a6	-1.1027088261472868
15	0xbf8f663895be79db	-0.015331689901185655
16	0xbfe65337c20de20e	-0.6976584234353724
17	0x3f92a663fa4a34a4	0.018212854529839576
18	0xbfc74bbf13390e8c	-0.18199909628502942
19	0xbfc9e853e93512d9	-0.20240258109165302
20	0xbfe4a7393865d701	-0.6454130269546284
21	0x3fde57bf06f24757	0.4741056030116985
22	0x3ff7b111a47a3ac5	1.4807297158146622
23	0xbfe84e5a194fa37c	-0.7595644468648142
24	0xbfb577763342cbe2	-0.08385409118163481
25	0x3fec94d44a6659fd	0.8931676343079854
26	0xbfe500cd3849f09a	-0.6563478564635432
27	0x3ff05e7ca86dd1ba	1.0230681018120849
28	0xbfe21cf354425a5a	-0.566033997124417
29	0x3fe87cfedad2a67a	0.7652582429775088
30	0x3ff1ef2b9d0e6ca1	1.120891202451084
31	0xbf7035565a85758d	-0.003957116430993846

output_mask f8 [16]
0	0x3ff0000000000000	1.0
1	0x3ff0000000000000	1.0
2	0x3ff0000000000000	1.0
3	0x3ff0000000000000	1.0
4	0x3ff0000000000000	1.0
5	0x3ff0000000000000	1.0
6	0x3ff0000000000000	1.0
7	0x3ff0000000000000	1.0
8	0x3ff0000000000000	1.0
9	0x3ff0000000000000	1.0
10	0x3ff0000000000000	1.0
11	0x3ff0000000000000	1.0
12	0x3ff0000000000000	1.0
13	0x3ff0000000000000	1.0
14	0x3ff0000000000000	1.0
15	0x3ff0000000000000	1.0

bessel_weights f8 [3]
0	0x3fe921fb54442d18	0.7853981633974483
1	0x3ff921fb54442d18	1.5707963267948966
2	0x4002d97c7f3321d2	2.356194490192345

r_max f8 []
0	0x4010000000000000	4.0

prefactor f8 []
0	0x3fe6a09e667f3bcd	0.7071067811865476

p f8 []
0	0x4010000000000000	4.0

r_max f8 []
0	0x4010000000000000	4.0

atomic_energies f8 [2]
0	0xc02b591b83ea04ec	-13.67403805
1	0xc0e617acbb7942b7	-45245.39788497

weight f8 [256]
0	0x3fddd0616e064b88	0.4658435415705573
1	0x3fed48d00f401a08	0.9151382730349846
2	0x3fae96ecbb38e0e0	0.05974521432330149
3	0xbff7d2be0089dd95	-1.488950731376325
4	0x3ff2eb4bf7f48d82	1.1824454961541453
5	0x3fed8dfe8a43ccfc	0.9235832882390294
6	0x3ffa156adb88f780	1.6302288604342436
7	0xbff05df8e4608b3f	-1.0229424401265559
8	0x3feb1d08eba3a41e	0.8472942926720213
9	0xbfdc6d3159cea96a	-0.44416459818116627
10	0x3ff40f8623332aae	1.2537900328631326
11	0x3fe3d6d6c60a38b1	0.6199754589049659
12	0xbff723ce385a027d	-1.4462415887102502
13	0x3ffa6a9ee8c71394	1.6510304539562854
14	0x3fd3062ccc7580de	0.2972518917722605
15	0x3ff081c699dfca9f	1.0316835413656589
16	0xbfdd796cd7b946e7	-0.4605362040211802
17	0x3ff41c3408991457	1.2568855605943747
18	0xbfca2e60bc1b626d	-0.20454034027968096
19	0x3fd41a3d106f6349	0.31410147290221296
20	0x3fd8219effa10863	0.37705206836483834
21	0xbffda1c34b2d438b	-1.8519928871721472
22	0x3ff25ab49c14a0d6	1.1471448990724205
23	0x3ff0115a8e584bc4	1.0042367515895743
24	0xbfe71d45e210b806	-0.7223233619058653
25	0xbfe3c409c33eeb4f	-0.6176804364580252
26	0xc002086ee80b39e6	-2.2541177872110323
27	0xbfdd99480535105b	-0.4624805498936035
28	0xbfe2501236b82104	-0.5722743099914003
29	0xbfb1cf9dda1ea133	-0.06957422805010509
30	0x3fa7bc6c0b1e4329	0.04635942111702313
31	0xbfc32c0572504482	-0.14978092271534044
32	0xbfc1c65289b6a601	-0.13886481975832513
33	0xbff4241eed99a467	-1.2588185578590811
34	0xbfb86b770b64bd39	-0.09538978603517458
35	0xbfe33546c60bed4a	-0.6002534740540935
36	0x3fcbccc54d789fb2	0.21718660624287406
37	0x3fe603f4d8de28ef	0.6879829631518798
38	0xbf9fbf176b31753d	-0.03100239364390699
39	0xbfef4143000edb23	-0.9767165185101913
40	0x3ff58135b92a51a8	1.3440453751582968
41	0xbfbec0e245461af8	-0.12013067427879409
42	0x3fc90874d122d2c8	0.19557056628914027
43	0x3fd4385f2e31019b	0.31594066153413686
44	0xbff714e497932855	-1.4426008149043998
45	0x3fed18039c4a2061	0.909181409123459
46	0x3fc8a51186ddc152	0.19253748975053014
47	0xbfcc0916c7980153	-0.2190273737505871
48	0x3ff746bf314629d6	1.4547721791046704
49	0xbfe8222bf4352fe8	-0.7541713494952065
50	0x3fede58d5e7a5b9f	0.9342715115807215
51	0xbfe1a2a37f831bef	-0.5511033525916654
52	0xbfc5dd7b08e73c28	-0.17082155165414403
53	0x3fe5cd3058c3a4e4	0.6812974675823651
54	0xbfdb57d2555cb616	-0.4272352059950618
55	0xbfe6c60064120d4b	-0.71167010827086
56	0xbfeb2f4fa50e390b	-0.8495252822629323
57	0xbffe02260e016099	-1.8755245730481305
58	0xbfff202a00e8dbac	-1.9453525577098203
59	0xbfdcdc24bb697cf7	-0.45093649198493274
60	0xbfde404daa670b33	-0.4726747669302995
61	0xbfe458cd73830ce7	-0.635840154275141
62	0x3ffe2c0113ef604a	1.8857432154382132
63	0x3fe048e6d98076dd	0.508899140175085
64	0x3ffeef83498e4cc5	1.9334748147273768
65	0xbfc15d963cafb119	-0.13566854441831636
66	0xbfd909cddf8b5981	-0.39122340040685094
67	0xbfd7690d64f88b2a	-0.36578688488423217
68	0xbfe3a77064ec9fcf	-0.6141893359354017
69	0x3fff08275d1e05fa	1.9394906651872348
70	0xbfef37c4f03c791b	-0.9755577747453431
71	0x3fd013b8dca7267e	0.25120374248636057
72	0xbff61f0e628df217	-1.3825820779594602
73	0x3fd36578122664f1	0.3030681779142262
74	0xbffcbf9de0633674	-1.7967814221514375
75	0x3fd3c638471ba77d	0.30897337860243806
76	0xbfb3bd097d442ec8	-0.07710322674045778
77	0x3fd3f87e0330f60e	0.31204176246305415
78	0xbfd5710825315d56	-0.3350239146434054
79	0x3fe3abc569575ea8	0.6147181565711053
80	0x3ff4912f412c75c6	1.2854454561087194
81	0xbf99b6729fc0162f	-0.025110045433413383
82	0x3fad752444124858	0.05753434496831805
83	0x3fbd2430a29e05a6	0.11383346529148372
84	0xbfaa4641cc5e4446	-0.05131726855973588
85	0xbfe04bb90e2e8a7b	-0.5092435147274296
86	0xbfa1fe44b75884f9	-0.03514303911311773
87	0x3ffdf20312153c16	1.8715849596371803
88	0x3ff4efdd563bfab2	1.3085606926467048
89	0x3fba8fa2430bde61	0.10375417839883873
90	0x3fd394bc1071a8fb	0.30595304113252525
91	0xbfcd0d7ec9f4627a	-0.22697434292856028
92	0x3f97fc8135ad3e8b	0.02342416658512873
93	0xbfe3ec0972f03314	-0.6225630993736524
94	0xbfc055e987f6bb0d	-0.1276218332181646
95	0xc000f3ddf0fd4695	-2.119075663308488
96	0x3fd515f817238c3d	0.32946588763860857
97	0x3ff242ed88c0e877	1.1413398115096507
98	0xbfd4395c11526bc6	-0.3160009545478569
99	0xbfdf4cd4b4c7fe9e	-0.4890643849794091
100	0x3fd73d0d9769ec27	0.3631013849878308
101	0xbf97bfb07be907f3	-0.02319217449463191
102	0xbff362c0bafcc2cf	-1.2116095833009017
103	0xbffb3668ba075971	-1.7007834688898493
104	0x3fdfdc259a3a68f1	0.4978116994985973
105	0xbfd5aea77bcf5fed	-0.33878504839731144
106	0xbfe6ecb1a1a4a306	-0.7163932950107614
107	0x3ff2162433fced25	1.1304056196957586
108	0xbfef6a1f4dcc8286	-0.9817043799885858
109	0x400010c11097ecdf	2.00818074191703
110	0x3ff83d7896881302	1.5150075798166545
111	0xbfbf64bee4478986	-0.12263100693920678
112	0xbfd8d6c12f85f56a	-0.38810758248276633
113	0xbff69cb9e14cb30c	-1.4132632065549755
114	0x3fc014af399fa86b	0.12563124002128076
115	0x3fd590118af5ec3a	0.3369182450330218
116	0xbffaac28490913c6	-1.6670306065509393
117	0x3ff50d574e27f1b2	1.315757088944434
118	0xbfec26666807d49f	-0.879687503037207
119	0x3fdc42f564b46ca8	0.44158682665301763
120	0xbff0d3e2796df245	-1.0517296546305641
121	0x3ff42c67e63734ed	1.2608412735747223
122	0x3fe5324a9d4ffe05	0.6623890945920158
123	0xbff0d23d7e1f78b9	-1.05132817522785
124	0xbfe59f265c6cdbb1	-0.6756774716549129
125	0xbfe95481ce5f997c	-0.7915658026438872
126	0x3fe34c3408645726	0.6030521549134604
127	0xbfc07bc360c83c4b	-0.12877695298854727
128	0x3fe3c452e39c922d	0.6177153058566255
129	0xbff76055ff086309	-1.4610195123879655
130	0xbfe1079e9cc5f78a	-0.5321801244715385
131	0xbff6131790a3849a	-1.37966114520558
132	0xbff5bd686584b1bd	-1.3587421384391825
133	0xbff468f6f9574f3d	-1.275626157749641
134	0x3fec5bb8e95f305f	0.8861965711635199
135	0x3fcd7b2307d1a1ee	0.23032033807545765
136	0x3fd34a131f3447eb	0.30139616057669966
137	0x3fea144370586a0c	0.8149735635991546
138	0x3fc547c7db4c8620	0.16625307281451374
139	0x3fe39a16968ef45a	0.6125595989793837
140	0x3fdbac60c161a809	0.4323961151591225
141	0x3fce2a3840e3fedd	0.23566344421850874
142	0xbfe405afaafacc79	-0.6256941165396618
143	0xbf61084cec110b79	-0.0020791532884074063
144	0xbff7b5627981782d	-1.4817833658521622
145	0x3fdaa6e902e7f7f5	0.4164373901729726
146	0x3fd3524d543d367e	0.3018983194968782
147	0x3fee50d8bd4dc2b9	0.9473689744318882
148	0x3fe778c6e60b8afe	0.7334932797496945
149	0x3fe09e738318a39b	0.5193421898339808
150	0x3fd8057fbaab3324	0.3753356287896159
151	0xbfe65e56364adb20	-0.6990157184980923
152	0xbfe149449950b1e1	-0.5401938433110979
153	0x3fe2c2ab3831b435	0.5862632844488248
154	0x3fe25c3a9e703677	0.5737584204195646
155	0xbfb41f138c5975c8	-0.07859918762684182
156	0x3ff0cd349d40f355	1.0500990050051844
157	0xbffe3319f92b57c5	-1.887475941960916
158	0xbfd8e6ca2f4dd1fb	-0.3890862905457479
159	0x3fefe9fa5d243bb9	0.9973117655916816
160	0xbfd9e5bd1dc67486	-0.40464713962303056
161	0x3fe1eef2a22ab9be	0.5604184310266687
162	0x3fd958592ffc6be3	0.39601735769400487
163	0xbfb581705f36a561	-0.08400633167788875
164	0x3fe038af9f9f58cc	0.5069196813226653
165	0xbff4ad159586a5d6	-1.2922569123132823
166	0xbfc601b67a39a918	-0.17192727058438417
167	0xbff928e81af8baff	-1.5724869779184585
168	0xc0026440d364a952	-2.2989517703146385
169	0x3fe3bfeea8c6c774	0.6171792313018458
170	0x3ff24bf77815ebac	1.1435465517849748
171	0x3fee39f57eae87ff	0.9445750688794304
172	0x3fe075daeafce188	0.5143866147619045
173	0xbfe3f33de41e0c9b	-0.6234425979058814
174	0xbfddc20a386cff47	-0.4649682570488846
175	0x4004fe0702cfbeaa	2.62403680988776
176	0xbfea8a28a6ebd174	-0.829365087526226
177	0x3fb97e68f46c3dd3	0.09958511321405376
178	0xbff9bd875a73cb79	-1.608771661118878
179	0xbfd5022e65a87d65	-0.3282581322436811
180	0x40000cd40d938f0a	2.0062638340622287
181	0x3fe191816519ace5	0.5490118956198812
182	0xbff558741c7888fc	-1.334095107282848
183	0xbffff850323509c6	-1.9981233559816345
184	0xbfc7eaa8ae60ebbf	-0.18684872164325658
185	0xbf9297493f4eaa77	-0.018155235756845713
186	0xbfee1c8cf4b854bc	-0.9409851817787493
187	0xbfe871472aae03c9	-0.7638278802479529
188	0xbff20d60abecb8e5	-1.128266021328778
189	0x3f9452e925a296f1	0.01984752933699147
190	0xbfeea2210957df02	-0.9572911436543736
191	0xbfe26b18b95e7199	-0.5755733128058181
192	0xbfd0486ce925c149	-0.2544204975920548
193	0x3f951fd2d9da1684	0.02062921003973496
194	0x4002d2e7facaba4b	2.3529815285794817
195	0xbfc9b0b1c330518f	-0.2007047846860925
196	0xbff342e5488d259e	-1.2038319429433169
197	0x3fe8d3b945705e59	0.7758451801518716
198	0x3ff569c7843a0d6d	1.3383250393970585
199	0xbfe7bc82c60ee2a3	-0.7417615764926108
200	0x3fecdfcb9a00ee78	0.9023187644847459
201	0x4002c13859bcb961	2.344345761367706
202	0xbffe6efde1a3d580	-1.9020975889264662
203	0xbff6e8cf2ca670f7	-1.4318382019183085
204	0x3ffb46c7a3bf6130	1.7047802349462238
205	0x3ff0f0cec18c287f	1.0587909279297774
206	0x4001736688fb1678	2.181347913897124
207	0x3fe20d302ac7f7ab	0.5641098819321447
208	0xbff8e5de0258c753	-1.5561199275657216
209	0x3fe62f84de7c489e	0.6933006616038886
210	0x3fd26d6e77df0eaf	0.2879291697138155
211	0xbfd7e780ded4db5b	-0.3735048461998553
212	0xbfd2571d99789d06	-0.28656711566368676
213	0xbfb3d9323d5dcf66	-0.07753290174679037
214	0xbfd192677c2590a9	-0.2745608055468077
215	0xbfd1792ad78a9808	-0.2730204682251274
216	0xbfc7821ee0256ce9	-0.18365846581114134
217	0xc00423e45d1c68f8	-2.5175254129691176
218	0x3fd7bf9703242cb6	0.3710687189747647
219	0xbfc89d60f456f86b	-0.19230281763697418
220	0x3fc633e13d9903f6	0.17345824725819597
221	0x3fc612b17360a622	0.17244547017735196
222	0xbfe83636ec7660be	-0.7566179865271108
223	0xbfc17a5fd5cd5337	-0.13654706897309563
224	0xbfdd2c3757c8aed0	-0.4558237416519946
225	0xbfa51c72b79ba494	-0.04123266688640928
226	0x3ff573f30625a8df	1.3408079376336486
227	0x3feab14547092d65	0.8341394793909954
228	0x3fed451640b6547f	0.9146834625158958
229	0x3fda39f8eb13fb71	0.409788350647367
230	0xc000c26df40d04d5	-2.0949362818215413
231	0x3fdc19bea818aee6	0.4390713349882688
232	0xbfe4e9fc39bd4607	-0.653562653324287
233	0x3fc85a2e762961f1	0.19025212068187572
234	0xbfcf770abf7b4539	-0.24582037305530394
235	0xbfd052a12a771c3a	-0.2550433077526041
236	0x3feb5257c15a05e0	0.8538016106032806
237	0xbfba12cd2595fc64	-0.10184938590644915
238	0x3ff8af5d01bca4e7	1.5428133075568498
239	0xbfe4e2a7283c6e6f	-0.6526675973759221
240	0x3fe88ee58b22a8c4	0.7674434392440834
241	0x3fe6b9c1e9f7dd5e	0.7101754731838061
242	0xbfc4787112be6249	-0.15992558875292875
243	0x3fdb00d7936bd3ae	0.4219263972911972
244	0xbfe598c03556e0e1	-0.6748963395866917
245	0x3fc095614ed2aed1	0.12955871914652176
246	0x3fe12f961e6dc70a	0.5370588869393214
247	0xbfe91b570908f6f1	-0.7845874000992962
248	0xbfbefd3475907404	-0.12105110044690554
249	0x3fbe557d5d1f0ac3	0.11849196933239185
250	0xbfe2f58a37a33bc1	-0.5924731337234946
251	0x3ff76edb897c75f4	1.4645648356012062
252	0x3fed03a48716cbe9	0.906694663854407
253	0x3f94c38032c33a96	0.020277026270202635
254	0xbf8a01109a0c9c6d	-0.012697343541345963
255	0xbff09d088e5772c0	-1.038338237783293

output_mask f8 [16]
0	0x3ff0000000000000	1.0
1	0x3ff0000000000000	1.0
2	0x3ff0000000000000	1.0
3	0x3ff0000000000000	1.0
4	0x3ff0000000000000	1.0
5	0x3ff0000000000000	1.0
6	0x3ff0000000000000	1.0
7	0x3ff0000000000000	1.0
8	0x3ff0000000000000	1.0
9	0x3ff0000000000000	1.0
10	0x3ff0000000000000	1.0
11	0x3ff0000000000000	1.0
12	0x3ff0000000000000	1.0
13	0x3ff0000000000000	1.0
14	0x3ff0000000000000	1.0
15	0x3ff0000000000000	1.0

output_mask f8 [256]
0	0x3ff0000000000000	1.0
1	0x3ff0000000000000	1.0
2	0x3ff0000000000000	1.0
3	0x3ff0000000000000	1.0
4	0x3ff0000000000000	1.0
5	0x3ff0000000000000	1.0
6	0x3ff0000000000000	1.0
7	0x3ff0000000000000	1.0
8	0x3ff0000000000000	1.0
9	0x3ff0000000000000	1.0
10	0x3ff0000000000000	1.0
11	0x3ff0000000000000	1.0
12	0x3ff0000000000000	1.0
13	0x3ff0000000000000	1.0
14	0x3ff0000000000000	1.0
15	0x3ff0000000000000	1.0
16	0x3ff0000000000000	1.0
17	0x3ff0000000000000	1.0
18	0x3ff0000000000000	1.0
19	0x3ff0000000000000	1.0
20	0x3ff0000000000000	1.0
21	0x3ff0000000000000	1.0
22	0x3ff0000000000000	1.0
23	0x3ff0000000000000	1.0
24	0x3ff0000000000000	1.0
25	0x3ff0000000000000	1.0
26	0x3ff0000000000000	1.0
27	0x3ff0000000000000	1.0
28	0x3ff0000000000000	1.0
29	0x3ff0000000000000	1.0
30	0x3ff0000000000000	1.0
31	0x3ff0000000000000	1.0
32	0x3ff0000000000000	1.0
33	0x3ff0000000000000	1.0
34	0x3ff0000000000000	1.0
35	0x3ff0000000000000	1.0
36	0x3ff0000000000000	1.0
37	0x3ff0000000000000	1.0
38	0x3ff0000000000000	1.0
39	0x3ff0000000000000	1.0
40	0x3ff0000000000000	1.0
41	0x3ff0000000000000	1.0
42	0x3ff0000000000000	1.0
43	0x3ff0000000000000	1.0
44	0x3ff0000000000000	1.0
45	0x3ff0000000000000	1.0
46	0x3ff0000000000000	1.0
47	0x3ff0000000000000	1.0
48	0x3ff0000000000000	1.0
49	0x3ff0000000000000	1.0
50	0x3ff0000000000000	1.0
51	0x3ff0000000000000	1.0
52	0x3ff0000000000000	1.0
53	0x3ff0000000000000	1.0
54	0x3ff0000000000000	1.0
55	0x3ff0000000000000	1.0
56	0x3ff0000000000000	1.0
57	0x3ff0000000000000	1.0
58	0x3ff0000000000000	1.0
59	0x3ff0000000000000	1.0
60	0x3ff0000000000000	1.0
61	0x3ff0000000000000	1.0
62	0x3ff0000000000000	1.0
63	0x3ff0000000000000	1.0
64	0x3ff0000000000000	1.0
65	0x3ff0000000000000	1.0
66	0x3ff0000000000000	1.0
67	0x3ff0000000000000	1.0
68	0x3ff0000000000000	1.0
69	0x3ff0000000000000	1.0
70	0x3ff0000000000000	1.0
71	0x3ff0000000000000	1.0
72	0x3ff0000000000000	1.0
73	0x3ff0000000000000	1.0
74	0x3ff0000000000000	1.0
75	0x3ff0000000000000	1.0
76	0x3ff0000000000000	1.0
77	0x3ff0000000000000	1.0
78	0x3ff0000000000000	1.0
79	0x3ff0000000000000	1.0
80	0x3ff0000000000000	1.0
81	0x3ff0000000000000	1.0
82	0x3ff0000000000000	1.0
83	0x3ff0000000000000	1.0
84	0x3ff0000000000000	1.0
85	0x3ff0000000000000	1.0
86	0x3ff0000000000000	1.0
87	0x3ff0000000000000	1.0
88	0x3ff0000000000000	1.0
89	0x3ff0000000000000	1.0
90	0x3ff0000000000000	1.0
91	0x3ff0000000000000	1.0
92	0x3ff0000000000000	1.0
93	0x3ff0000000000000	1.0
94	0x3ff0000000000000	1.0
95	0x3ff0000000000000	1.0
96	0x3ff0000000000000	1.0
97	0x3ff0000000000000	1.0
98	0x3ff0000000000000	1.0
99	0x3ff0000000000000	1.0
100	0x3ff0000000000000	1.0
101	0x3ff0000000000000	1.0
102	0x3ff0000000000000	1.0
103	0x3ff0000000000000	1.0
104	0x3ff0000000000000	1.0
105	0x3ff0000000000000	1.0
106	0x3ff0000000000000	1.0
107	0x3ff0000000000000	1.0
108	0x3ff0000000000000	1.0
109	0x3ff0000000000000	1.0
110	0x3ff0000000000000	1.0
111	0x3ff0000000000000	1.0
112	0x3ff0000000000000	1.0
113	0x3ff0000000000000	1.0
114	0x3ff0000000000000	1.0
115	0x3ff0000000000000	1.0
116	0x3ff0000000000000	1.0
117	0x3ff0000000000000	1.0
118	0x3ff0000000000000	1.0
119	0x3ff0000000000000	1.0
120	0x3ff0000000000000	1.0
121	0x3ff0000000000000	1.0
122	0x3ff0000000000000	1.0
123	0x3ff0000000000000	1.0
124	0x3ff0000000000000	1.0
125	0x3ff0000000000000	1.0
126	0x3ff0000000000000	1.0
127	0x3ff0000000000000	1.0
128	0x3ff0000000000000	1.0
129	0x3ff0000000000000	1.0
130	0x3ff0000000000000	1.0
131	0x3ff0000000000000	1.0
132	0x3ff0000000000000	1.0
133	0x3ff0000000000000	1.0
134	0x3ff0000000000000	1.0
135	0x3ff0000000000000	1.0
136	0x3ff0000000000000	1.0
137	0x3ff0000000000000	1.0
138	0x3ff0000000000000	1.0
139	0x3ff0000000000000	1.0
140	0x3ff0000000000000	1.0
141	0x3ff0000000000000	1.0
142	0x3ff0000000000000	1.0
143	0x3ff0000000000000	1.0
144	0x3ff0000000000000	1.0
145	0x3ff0000000000000	1.0
146	0x3ff0000000000000	1.0
147	0x3ff0000000000000	1.0
148	0x3ff0000000000000	1.0
149	0x3ff0000000000000	1.0
150	0x3ff0000000000000	1.0
151	0x3ff0000000000000	1.0
152	0x3ff0000000000000	1.0
153	0x3ff0000000000000	1.0
154	0x3ff0000000000000	1.0
155	0x3ff0000000000000	1.0
156	0x3ff0000000000000	1.0
157	0x3ff0000000000000	1.0
158	0x3ff0000000000000	1.0
159	0x3ff0000000000000	1.0
160	0x3ff0000000000000	1.0
161	0x3ff0000000000000	1.0
162	0x3ff0000000000000	1.0
163	0x3ff0000000000000	1.0
164	0x3ff0000000000000	1.0
165	0x3ff0000000000000	1.0
166	0x3ff0000000000000	1.0
167	0x3ff0000000000000	1.0
168	0x3ff0000000000000	1.0
169	0x3ff0000000000000	1.0
170	0x3ff0000000000000	1.0
171	0x3ff0000000000000	1.0
172	0x3ff0000000000000	1.0
173	0x3ff0000000000000	1.0
174	0x3ff0000000000000	1.0
175	0x3ff0000000000000	1.0
176	0x3ff0000000000000	1.0
177	0x3ff0000000000000	1.0
178	0x3ff0000000000000	1.0
179	0x3ff0000000000000	1.0
180	0x3ff0000000000000	1.0
181	0x3ff0000000000000	1.0
182	0x3ff0000000000000	1.0
183	0x3ff0000000000000	1.0
184	0x3ff0000000000000	1.0
185	0x3ff0000000000000	1.0
186	0x3ff0000000000000	1.0
187	0x3ff0000000000000	1.0
188	0x3ff0000000000000	1.0
189	0x3ff0000000000000	1.0
190	0x3ff0000000000000	1.0
191	0x3ff0000000000000	1.0
192	0x3ff0000000000000	1.0
193	0x3ff0000000000000	1.0
194	0x3ff0000000000000	1.0
195	0x3ff0000000000000	1.0
196	0x3ff0000000000000	1.0
197	0x3ff0000000000000	1.0
198	0x3ff0000000000000	1.0
199	0x3ff0000000000000	1.0
200	0x3ff0000000000000	1.0
201	0x3ff0000000000000	1.0
202	0x3ff0000000000000	1.0
203	0x3ff0000000000000	1.0
204	0x3ff0000000000000	1.0
205	0x3ff0000000000000	1.0
206	0x3ff0000000000000	1.0
207	0x3ff0000000000000	1.0
208	0x3ff0000000000000	1.0
209	0x3ff0000000000000	1.0
210	0x3ff0000000000000	1.0
211	0x3ff0000000000000	1.0
212	0x3ff0000000000000	1.0
213	0x3ff0000000000000	1.0
214	0x3ff0000000000000	1.0
215	0x3ff0000000000000	1.0
216	0x3ff0000000000000	1.0
217	0x3ff0000000000000	1.0
218	0x3ff0000000000000	1.0
219	0x3ff0000000000000	1.0
220	0x3ff0000000000000	1.0
221	0x3ff0000000000000	1.0
222	0x3ff0000000000000	1.0
223	0x3ff0000000000000	1.0
224	0x3ff0000000000000	1.0
225	0x3ff0000000000000	1.0
226	0x3ff0000000000000	1.0
227	0x3ff0000000000000	1.0
228	0x3ff0000000000000	1.0
229	0x3ff0000000000000	1.0
230	0x3ff0000000000000	1.0
231	0x3ff0000000000000	1.0
232	0x3ff0000000000000	1.0
233	0x3ff0000000000000	1.0
234	0x3ff0000000000000	1.0
235	0x3ff0000000000000	1.0
236	0x3ff0000000000000	1.0
237	0x3ff0000000000000	1.0
238	0x3ff0000000000000	1.0
239	0x3ff0000000000000	1.0
240	0x3ff0000000000000	1.0
241	0x3ff0000000000000	1.0
242	0x3ff0000000000000	1.0
243	0x3ff0000000000000	1.0
244	0x3ff0000000000000	1.0
245	0x3ff0000000000000	1.0
246	0x3ff0000000000000	1.0
247	0x3ff0000000000000	1.0
248	0x3ff0000000000000	1.0
249	0x3ff0000000000000	1.0
250	0x3ff0000000000000	1.0
251	0x3ff0000000000000	1.0
252	0x3ff0000000000000	1.0
253	0x3ff0000000000000	1.0
254	0x3ff0000000000000	1.0
255	0x3ff0000000000000	1.0

weight f8 [3, 64]
0	0x3fca38528d5c54a1	0.20484382536293302
1	0xbfd616a9a820f96f	-0.3451332227595207
2	0x3ff0fd4a26bcb05d	1.0618382943312306
3	0xbfd05b2c16aa923c	-0.2555647107458616
4	0xbfe984cf92f712d2	-0.7974622602856363
5	0xbff9e6ec75d3c23f	-1.6188778498291325
6	0xbff4a497b9e598cb	-1.2901837598415564
7	0x3ffe965fe2b1e9f9	1.9117125373146548
8	0xbfebcabaf129f4e2	-0.868497344039181
9	0xbfe5f1786b8a1744	-0.6857263660792587
10	0xc0010a04673fbcc6	-2.129891211159335
11	0xbfdf7a5484fd66a8	-0.49184144007959185
12	0xbfea3959b4632438	-0.8195007823170561
13	0x3fd49d89d3945559	0.3221153799252839
14	0xbfed54d499b720f2	-0.9166052820446835
15	0xbff25a0d48cf167b	-1.146985325250539
16	0x3fc1f167938aeee1	0.14017958358987584
17	0x3ff0959ccd10a949	1.036526490245324
18	0x3fe09fa3c646c99d	0.5194872734630739
19	0xbfda0c3ce4fc4562	-0.40699694024904975
20	0xbff0e4dfcc9928f9	-1.0558774940605515
21	0x3fe7198000152af3	0.7218627931227658
22	0xc002d8851c8a3b6e	-2.3557226400075058
23	0xbfe9dd5d28a6a9f7	-0.8082719606366585
24	0x3fd8a0dbef2e1268	0.38481806142252717
25	0xbff5e622c0bf5473	-1.3686854867167113
26	0xc006355baf01f06d	-2.7760537788836275
27	0x3fe83f3c4ceedd98	0.7577191832159995
28	0x3ffa302b7078a874	1.6367601769839242
29	0xbffcf1293604c2c7	-1.8088771925069282
30	0x3fea6cc9dbc404f5	0.8257798473643151
31	0x3fdaf0fa9c2fce0c	0.42095818760501014
32	0x3fd5c65b6566d037	0.340231751465811
33	0x3fd629fb8504338e	0.34631240835079147
34	0x3fc65386572c56ca	0.174423973622359
35	0x3fe2178404b3bb3f	0.5653705684506817
36	0xbfb4e9caa2436ce1	-0.08169237576969436
37	0xbfe439516123b04e	-0.6319968125585633
38	0xbfc90eaf32b843ba	-0.19576063133766103
39	0x3ffa7f567a9f1d6d	1.6560883321670545
40	0x3ff7fa07d4a61983	1.4985426241488262
41	0xbfe33e17aa9dae33	-0.6013296444265904
42	0x3ffb6e8543160761	1.7144825573490936
43	0xbfe8da88460d0733	-0.7766763084584681
44	0x3fe075e8508b44a9	0.5143930028081246
45	0xc001d27c0bad7745	-2.2277756607353774
46	0x3fd2290254ee624e	0.2837529973417404
47	0x3ff514787004fa1d	1.3174976707229071
48	0x3fd0584999d1ca84	0.2553886415618438
49	0x3f9162062a70049e	0.016975494709190124
50	0xbfc0063ced1895d9	-0.12519036843256862
51	0xbfc32bca2ea56fc4	-0.14977385785721087
52	0xc00d5f27731dbbb2	-3.671461963028798
53	0xbfe117a821af4282	-0.5341377885725509
54	0xbff1790b7f3fa0bf	-1.0920519800802564
55	0xbffa831ad09750bd	-1.6570079944695373
56	0xbfd404c77a4c8624	-0.31279169982198796
57	0xbfcf842a453c3b1a	-0.24622085934284926
58	0x3fdcd45e3b2d285c	0.45046191958375004
59	0xc002c5df7621bf8e	-2.3466176251458313
60	0x3fd622a57887e706	0.3458646466311709
61	0xbfddfc67715e37e7	-0.4685305220708628
62	0xbfa7186e435bdfd0	-0.04510826656581879
63	0xbff0a032f8d8d03f	-1.0391111107428654
64	0xbff158940daadebb	-1.0841255697140884
65	0x3fc5a8584484ba3d	0.1691999754488779
66	0xbfef9792892cac07	-0.9872524909200145
67	0x3fca45845981543e	0.20524649019594848
68	0x3fc38d9ddabcdf24	0.15275929623180062
69	0xbfe99008a14ca615	-0.7988322401408278
70	0x3ff43c8893a5c2d9	1.264778687236847
71	0x3feb7a81be782d1a	0.8587044448953833
72	0xbfd24097566ff2d0	-0.285192331706452
73	0x3ff1603a1b5e86aa	1.0859929150687244
74	0x3ff100aab377bdd7	1.0626627932032215
75	0xbffb673fa4d6387f	-1.7127071799218638
76	0x3fea0f032a68d89e	0.8143325641929271
77	0x3ff25b1078e64515	1.1472325060497657
78	0x3fdacb32cb95cbe8	0.41865224725114425
79	0x3ff0feb33800b2f1	1.062182635079065
80	0xbfc970ed815ee73b	-0.1987587815945576
81	0xbfaef465cacabc13	-0.06045835590827422
82	0x3fe4ed95bb80577f	0.6540020620475245
83	0x3fd9dc018742fa4f	0.4040530987657904
84	0xbfd335c2a75f7343	-0.3001562723637116
85	0x3fe04348b9799ce6	0.5082133886870934
86	0x400477be94ed5b17	2.5584689745841263
87	0xbfd89f7203fb1160	-0.3847317732691149
88	0x3fdff725a0032720	0.49945965410425863
89	0x3fb7916c5db38926	0.0920627335322349
90	0x3ff67b94df70774e	1.4051712730501609
91	0xbff4a308ea320a4d	-1.2898034237156424
92	0xbff7ff56448ce582	-1.4998381307362654
93	0x3fcaec47e84d9de6	0.21033572047166088
94	0xbff13ddf411ab67f	-1.0776054900301515
95	0xbff5421f9d0b00d7	-1.3286434301845043
96	0xbff07b1924d0cd0d	-1.030053275881815
97	0xbfebac3713a69873	-0.8647723563961008
98	0xbfe1db783d35b316	-0.5580407329085542
99	0x3f80b5b978acdfb7	0.008159111972062634
100	0x3fec7fc77880bbbf	0.890598044736059
101	0x40004a3ca3a17ba0	2.0362484725623773
102	0xbff103e25a0bcc48	-1.0634482877183178
103	0xbfc1ce1770a627ee	-0.1391019153637098
104	0xbfc8ade237847a21	-0.19280650816740866
105	0xbfe8ab70d9099363	-0.7709278334628887
106	0x3fda89022d6bb971	0.4146123355448231
107	0x3fe20277eb3b7449	0.5628013224010228
108	0x3fe616fe9c61ac4f	0.6903069547964921
109	0xbf9ee9a57fc9681b	-0.03018816559265512
110	0xbfea0e442480d7ab	-0.8142414772944354
111	0x3fc98f793707ebe5	0.1996909636216905
112	0xbfbad8e481e09bea	-0.10487201853594255
113	0x3ffc426f1735fc09	1.766219225566376
114	0xbfc81dea4a078e10	-0.18841293921205748
115	0x3fc1e5e1ea7e9220	0.1398279566757461
116	0xbf8bdb20aa6e921d	-0.013601546479386656
117	0x3fc1d9b0a93b9776	0.13945587409324006
118	0x3ff655259d3435b9	1.3957878247050373
119	0x3ff09cab3b5c831e	1.0382492369464624
120	0x3fca4f77a116ee5f	0.2055501495905103
121	0xbff5da525d273a5a	-1.3658012045667847
122	0xbfb1feada9db34d7	-0.07029233357316698
123	0xbfe371650fc58c08	-0.6075921352424993
124	0x3fefa875760945a8	0.9893138223071007
125	0x3fc2744516c73f31	0.14417327511045522
126	0xbfea0f77a516a86d	-0.8143881058106338
127	0x3ff147b7a7361037	1.0800091296851073
128	0xbfe11f8d390e87e2	-0.5351015200033056
129	0x3f8c217afc55d024	0.013735733819636727
130	0x3fd3cc0c44e82bf4	0.30932909707252
131	0xbfab69199eb4d34e	-0.05353622495969167
132	0x3ff4571830c0628e	1.271263304172098
133	0x400aeb535c10ec98	3.3649050896324972
134	0xbfdb9159790e72ce	-0.43074642965238474
135	0xc0077151e38cc9dc	-2.9303319718685383
136	0x3fe9dd14a18569e3	0.8082373766622449
137	0xbfde8b04a2386571	-0.4772349914724919
138	0x3fe162f4bf27d41e	0.5433295949466161
139	0x3fe318c1527dfb89	0.5967718707250792
140	0xbfd20b6732ab332f	-0.28194599102134793
141	0xbfd9b81796dfd789	-0.40186109289003774
142	0x3facc95ba1fc38cd	0.056223739169682575
143	0xc009999815dd86b1	-3.199997111151639
144	0x3fc89a775b6a4351	0.19221393550517488
145	0x3fa102a26af12966	0.03322322421498107
146	0xbfe965a28b720077	-0.793656608919277
147	0x3ffc7211b5a87824	1.777848920442474
148	0x3ff1d5fca328d9c5	1.1147428868695084
149	0xbfe9a05ac47871f3	-0.8008245312990411
150	0xbfedebd9b0bb011a	-0.9350403262870117
151	0x3fe576d5d5f6abf3	0.6707562617278867
152	0x3ffbbd101efd1ada	1.7336579523559323
153	0x4001c3fff6ddf125	2.2207030569535555
154	0x3fdd05f2850bd813	0.45348799698638337
155	0x3ff0393d1a7e7eee	1.013974288456605
156	0x3fdd7966121480e4	0.4605345894397159
157	0x40011692cd6dffef	2.136022190970827
158	0x3fe605841f192274	0.6881733519922606
159	0x3fed25dc764bc508	0.9108717260807291
160	0x3fe41de052307f50	0.6286470036757041
161	0x3fe10f76dbf5553d	0.5331377311764879
162	0x3fe3d59727dd691b	0.6198230532275234
163	0x3fa1c5b9666a83fe	0.034711641075098484
164	0xbffafa6a76f236f2	-1.686136688836481
165	0x3ff89a07d8645609	1.5376051380930014
166	0xbff753adc53cc394	-1.4579293922981593
167	0xbfe0d029476d78f6	-0.5254103083678092
168	0xbfdeec258f571c63	-0.4831632518584625
169	0x3feabaf374adffb0	0.8353211668872884
170	0xbff33cf9072f2ac7	-1.2023859291681889
171	0xbfb837215efe82cb	-0.09459122246927192
172	0xbffd73035c727aff	-1.8405793772905665
173	0x3ff0bc4b8b52e754	1.0459704820954885
174	0x4003b7d8c46a5f67	2.4647689194643365
175	0xbfe63857af384384	-0.6943777487050373
176	0xbf97c8ef82564539	-0.023227445917261866
177	0x3fbdc73c4a793aaf	0.116321342641849
178	0x3fc740712a282a38	0.18165411528055286
179	0xbfaffb1b8594c253	-0.06246267324093382
180	0x4006fc71b2f3014e	2.873263738671233
181	0x3ff20d28c0232333	1.1282126908647114
182	0xbff51ea5d5bb123d	-1.3199823712212855
183	0xbfb326129fe02720	-0.07479969409191911
184	0xbfc1ff38c58f4b8e	-0.14060125013801578
185	0x400123127f26c4e6	2.1421251233774568
186	0x3fbe840994ecfd2a	0.11920223127252841
187	0x3ff8a5bb364eaeb0	1.5404617425328233
188	0xbfda8079ae64763d	-0.4140915110636774
189	0x3fc024a9caa667cb	0.12611887354870385
190	0x3ff16b869de07c0f	1.0887514273706562
191	0xbfd95762399da128	-0.39595847727334155

weight f8 [64, 64]
0	0xbfd87c98b34e98cb	-0.38260476599169796
1	0x4000e5b28be69ca9	2.112156956649035
2	0x3ff00176f5ac8939	1.0003575894011887
3	0xbfef2d479776f425	-0.974277301625652
4	0x3ff02498b2f3bbcb	1.008934687644557
5	0x3fec0dff7c66dc28	0.8767087392542452
6	0x3ff4cd860e695c89	1.3001766741706737
7	0x40024fb0057afa93	2.2889099529414323
8	0xbfa19b9f0af477ed	-0.034390420996927996
9	0xbfac0a6cce6eb06f	-0.054767036628022285
10	0x3feac4c635ecc950	0.8365202954503648
11	0x400946c19c51fd52	3.1595489704629154
12	0xc007144bb712d727	-2.884910040152039
13	0x3fef3a809e0705c1	0.9758914076302788
14	0x3fd4899470380ec7	0.3208972068680222
15	0x3ff0d475791c4199	1.051869843566328
16	0xbfd23297093a6db4	-0.28433776761240925
17	0x3ff0c7a4f98bebf1	1.0487413165963029
18	0xbffe67a3c2f9fc66	-1.9003026596326662
19	0xbfc6530185584172	-0.17440814028715185
20	0x3ff3b1557251d0fb	1.2307943788155729
21	0xbfef7823e3a2feaa	-0.9834155508069291
22	0x3ffe04fea5e8b409	1.8762194138355446
23	0xbfe4ec76fe80d9a2	-0.653865334584044
24	0xc005ab9f3c66ce54	-2.7087998122095005
25	0x3fca07f91ee9168d	0.20336832055379653
26	0xbfffd487c1944042	-1.9893872796710785
27	0x3fe96dd38b0ab65d	0.7946565356884993
28	0x3fb526f481152cf8	0.08262565757211238
29	0x3ff4c522aa82269a	1.2981287632450518
30	0xbfe0b45a14880ed2	-0.5220156098370927
31	0xc008024080d9ee56	-3.0010995928294433
32	0x3fc486a805d8c7af	0.16035938535202152
33	0xbfd626c6ab87d1d4	-0.34611670256643134
34	0xbfd852121f4d2f3f	-0.3800092034987194
35	0x3ff480f5f1df3127	1.2814845512503525
36	0x400ab3679d7c93c7	3.3375999740260087
37	0x4002b36bc4b5a827	2.337607895654418
38	0xbfee5f1e1718bf3d	-0.9491110278231428
39	0xbfe93156d41a3709	-0.7872728483796162
40	0xbffd408337b7f5b5	-1.828250138903383
41	0xbfef2cf25e141de0	-0.9742366635772974
42	0xbfd12d4f884cd961	-0.2683905440384447
43	0x3fd035cd168fea92	0.2532837601026269
44	0xc000af6c2e5e46e8	-2.0856555578728724
45	0xbfffb3d146e3785d	-1.9814007538875764
46	0xbfe87ea7f5c48f83	-0.765460948958648
47	0x3fd3a4cf6946e6e9	0.3069342163176843
48	0x3fe7194e01ba1a0e	0.7218389543275536
49	0x3ff640dd17b9a600	1.390835850407143
50	0x3fee7df26cab39fa	0.9528743860662978
51	0x4002a6e7f84cab21	2.331497135009514
52	0x40024acd5fa3d476	2.2865245315429616
53	0x3fba3ab7a5ec5d88	0.10245845604764814
54	0x3fe5595b7b6c0d36	0.6671578798854287
55	0xbff258fd18fdc0fa	-1.146725747701622
56	0xbfede367c0a5cdcd	-0.9340094339990458
57	0xbfcdd1b3d61a4d9e	-0.2329621119903153
58	0xbfd157415c358e4d	-0.27095064167790356
59	0xbfefd1538ba57b13	-0.9943025329083376
60	0x3fdc06f9cce8aa8e	0.4379257679999363
61	0xbff83bc50d0553ed	-1.5145922192216361
62	0xbfde9d797fae197b	-0.4783614870906587
63	0xbfe3688ffd61b67a	-0.6065139721738
64	0x3fe16a06818917d9	0.5441925554266575
65	0xbfc319f1a8e7bd20	-0.14922924754453337
66	0x3fe6a9798f5ad7b5	0.7081878471278659
67	0x3fd981c8e19284e0	0.3985464289526828
68	0x3fe3b6ec0ecb4520	0.6160793580003521
69	0xbfe2eb62627c52e7	-0.5912334369228035
70	0xbfee49141e5cee5f	-0.9464207261111816
71	0x3fd6b466e5aeed46	0.3547608607293181
72	0x3fc080551a4377a5	0.1289163950195277
73	0xbfe65827ef52f702	-0.6982612299250095
74	0x3fc8350f44311e45	0.18911925153428136
75	0x3fc768b3726fd89b	0.18288271987666324
76	0xbfc557ff42b90fd8	-0.16674795873598103
77	0xbfe02614d64d9658	-0.5046486077887478
78	0xbfe1d493cd5eb3cc	-0.5571993838435616
79	0x3fe40c6de0bb57a3	0.6265172375958524
80	0x3fb6d7b00d8353cc	0.08922863321215785
81	0x3fd48019b51fd1c9	0.3203186291496221
82	0xbfb339b2bbbf9e49	-0.07509915431693871
83	0xbfd5863f45f0c9b6	-0.33631879644522245
84	0xbfdd0d9ffc78021b	-0.45395660071520333
85	0x3ff90ee835d3be07	1.566139421713048
86	0x3ff4a927155fe706	1.2912970385500002
87	0xbfd18f3841fa267c	-0.27436644023018864
88	0xbff3347f409bcc6d	-1.2003166698239298
89	0x3fefbb74dd783d75	0.9916328740672912
90	0xbffaa99e6a6e885b	-1.6664108426562254
91	0xbfca7d66974775f1	-0.20695192705799983
92	0x3fdfebd124325e7c	0.49876812491263656
93	0x3fe9b96afd40045e	0.8038840242662777
94	0xc0027b54d4eba8ee	-2.310220397416848
95	0x3fca0dbbd78f0178	0.2035441210300737
96	0xbfe06492c540fb6c	-0.5122770168889992
97	0xbfddaa992fdf8764	-0.46353749919045684
98	0xbfec24cb400462b0	-0.8794914484343135
99	0x3fe5a055997537bd	0.6758220669960263
100	0x3fcf31ef5894ee3f	0.2437113935974242
101	0xbffe1b1a9906107f	-1.8816171624648914
102	0xbff065f5f3385732	-1.0248927593979258
103	0x4006fe95701fe131	2.874308467839136
104	0x3fbc7f7cfdea1fb7	0.11132031630597693
105	0xbfe53cc331403285	-0.6636672937325591
106	0xbfe38ac955181ce5	-0.6106917058940807
107	0xbfe65eca6b0d44e7	-0.6990711298805338
108	0xbfdb34145aadc3a5	-0.42505368094776436
109	0x3faaaaedbbbbfd0b	0.052085332075870815
110	0xbff6299acd22772f	-1.3851573956557777
111	0xbff5d29c767d69f2	-1.3639187458526263
112	0xbff04c8e2d9b1c1b	-1.0186902791481376
113	0x3fe03c08f6f910d5	0.5073284934701642
114	0xbfd3da2af9cb4cd9	-0.3101909102817451
115	0xbfeafff22b93d916	-0.8437434054492623
116	0xbfeb8c7b83b0b999	-0.8608987400128171
117	0xbfc0e5614595b542	-0.13200012109465759
118	0x40034150d2674465	2.4068924367680204
119	0x3fbd798b8eb0d139	0.11513588174495205
120	0xbfe9237cbe736d18	-0.7855819434875313
121	0xbfea51c314c6aaef	-0.8224807172567504
122	0x3ff24d630e3d31b0	1.1438932949268796
123	0xbfdea1f21b221ce3	-0.4786343827222039
124	0x3fd2741f865f7792	0.28833759424548433
125	0xbfd5ef34144025f6	-0.3427248189696849
126	0x3ff049e9e08aa48d	1.0180453082232674
127	0x3fea408b5ba32652	0.820378951052769
128	0xbfe706af982e0701	-0.7195661518346413
129	0xbfe4693afd9aeff5	-0.637845511744216
130	0x3ff6ef091c15887a	1.433358297065324
131	0x3fe57b449574ae52	0.6712973517473506
132	0xbfef8094485c0727	-0.9844457066794562
133	0xbffde1ee272f7140	-1.8676587610890039
134	0x3f9d747369cdf74b	0.028764537174985432
135	0x3fef4b03d97f5576	0.9779071090694476
136	0x3ff07633dc9497d1	1.0288580528663156
137	0x3f8f77ef1ad3f29d	0.015365474706862609
138	0xbfe7afecfadf26d4	-0.7402253055417654
139	0x3fe9433824cc6978	0.7894554823608777
140	0xbfcb11ee25206432	-0.2114846879274253
141	0xbfc33de245aa8b18	-0.15032604600590882
142	0x3fe88b361dd09068	0.7669935781782558
143	0xbff029d4209759ea	-1.010212065991818
144	0xbff15a2f76c6414c	-1.0845179214121172
145	0xbfef66e24e0462dc	-0.9813090823909891
146	0xbfccd7d1d597276f	-0.2253362934991929
147	0xbff2a73377a823ef	-1.1658205675214466
148	0x3fa87ee86a648295	0.047843230235462254
149	0xbfee9b335b62b544	-0.9564453873514727
150	0x3fe8930e15a5ebd1	0.7679510519804983
151	0xbffd2b85dccb5277	-1.823125708081674
152	0xbff28192829b091a	-1.1566338636189983
153	0xbfc62b9be8cb9e13	-0.17320584170305206
154	0x3fe2b6775bcd6b50	0.5847737114921561
155	0xbfbb6569f997db73	-0.10701620429595753
156	0xbfd4e897b61aa6e6	-0.32669632705311213
157	0xbfd291f1d8517ec0	-0.2901577579959671
158	0xbfe08341a6d4e1e9	-0.5160225161008017
159	0xbfc0a2a4737bc89b	-0.12996345175594545
160	0x3ff28070dc8aa13a	1.1563576331046321
161	0x3fff9c5b7981d65c	1.975673174512301
162	0x3fd5111e74a26041	0.3291698588377621
163	0xc003b3e3bdd0dcc4	-2.462836726128076
164	0x3ffbc8ebb9fcbdf8	1.7365529313209418
165	0xbff1ae217d2207d8	-1.1050124061589397
166	0x3feacba584148b9d	0.8373591975872504
167	0xbff60296970633c1	-1.3756318950065494
168	0x3fbf360746a6d798	0.12191815829177555
169	0xbff007de08c7a537	-1.001920732780787
170	0xbfe537824ee29fa2	-0.6630260029532915
171	0x3fdc760bdef1f8f2	0.4447049786757723
172	0x3fe3684aa6cd867e	0.6064809091441956
173	0xbfe9c474a849b6a7	-0.8052314078210728
174	0x3fc414c8640f6d8e	0.15688424001460216
175	0xbfed7130e193d3f9	-0.9200672536668427
176	0xbfef84b040bab536	-0.9849473251576117
177	0x3feba1d88937ae0e	0.8635065727261819
178	0x3fe436f88d498349	0.6317103156580767
179	0xbfe455da7e9f2c03	-0.6354801629144052
180	0xbfc64de85f7870a8	-0.17425255452770227
181	0xbf8be2ea749d8236	-0.013616401370826297
182	0xc0002d0b71b47a26	-2.0219944842531445
183	0x3fcf1fa4abd6df30	0.24315317526429103
184	0x3fd33c8d3a5de60a	0.30057078075296373
185	0xbfe384c3b89725bc	-0.6099566083222991
186	0x3fdc1e23be32f057	0.4393395764743721
187	0x3fa41b4ca7ff71fc	0.03927077818636701
188	0xbfef4465ee623648	-0.9770993858271106
189	0x3fe6d95fc4f80d7c	0.7140349242257993
190	0x3fe5d4ecd49821ce	0.6822418358070139
191	0xc0021cebd312622f	-2.264121674536248
192	0xbfdc5281467cc064	-0.44253570445562773
193	0xbfe46cd798c48afc	-0.6382863982911142
194	0xbfeb00931e8cc48e	-0.8438201519658308
195	0x3fcb638f7c126cfe	0.21397584493829663
196	0x3ff0e6312c6e2368	1.0561992393070003
197	0x3fac857a5a4f1823	0.05570585586933443
198	0x3ff8bee296a32e0a	1.5466028103136318
199	0xbfdd02f1c4ec4f67	-0.4533047125889795
200	0x3fe8af266615a53b	0.7713806146468082
201	0xbfcd8c554f7b2b92	-0.2308451307383988
202	0xbfdc8250a13254de	-0.4454537939248676
203	0x3fe484cff6a564f1	0.6412124459558567
204	0x3fe9c395a7060cd8	0.805125070779833
205	0x3fc29c4510450480	0.14539397520460184
206	0xbfd2f66f7500db1e	-0.29629122186763535
207	0xbfea656ed6dd9d27	-0.8248819538684175
208	0x3ffa4b11f2e545a7	1.643327664194979
209	0x3ff0152dff7e894d	1.0051708202596104
210	0x40073fc7ef6cc261	2.9061430649820044
211	0x3fd4af59b2e7ee12	0.3232025382164646
212	0xbff12089d655a747	-1.070443951839893
213	0x3ff1a9ba017e3e5e	1.1039371546102283
214	0x3feb3a14a2a575e1	0.8508399178205616
215	0x3ffbbf35efff58d9	1.7341822981739397
216	0xbffecfcc4a752b9c	-1.925731936312082
217	0x3fe8f7ff85cbf8f9	0.7802732098787423
218	0xbfeb7b5ee71138ca	-0.8588099015267059
219	0xbfecf781273d39ba	-0.9052129522695431
220	0x3fd521161718fd07	0.3301444268763167
221	0xbfe2dd6e8f6217a3	-0.5895302582218743
222	0xbfe6863268a83b57	-0.7038814586720531
223	0x3fd10852522441dd	0.26613290807384066
224	0x3fe0f83966f610ba	0.5303008089981838
225	0x3fe11ed5344a9020	0.5350137730897622
226	0xbff7ba4c38773f74	-1.4829828458495884
227	0x3ff21486c45d16f1	1.1300113363699291
228	0xbfd535116f65e88f	-0.3313640201446412
229	0xbfe839b7f79c5611	-0.7570457302232986
230	0x3fe8517f5a6d83f4	0.7599484220664849
231	0x3ffa2d1186054ad0	1.636003039854291
232	0x40000b2a9920a69a	2.0054523432816724
233	0xbfe89bd1b277bd64	-0.7690208898256228
234	0xbfde614bce112256	-0.47468848346446657
235	0x3f9b9edbc81ede85	0.026973184670821233
236	0x3fe01e71a2258109	0.503716293995269
237	0xbff14e0417cecbd9	-1.0815468721382244
238	0x3ff8c7528cc2432a	1.5486627100364765
239	0x3fe1158723858f5e	0.5338779157432147
240	0x3ff5712bbc1e8f46	1.3401295994198832
241	0xbfec1605eb74ffa8	-0.8776883696336784
242	0xbfd82ba48e271d5e	-0.37766374475582676
243	0x3ff294c724a7123c	1.161322730230622
244	0xbffcae417f333c4b	-1.7925429314380092
245	0x3fddf5bd8db1f25b	0.46812380635654954
246	0xbfe1110656a2e04f	-0.5333282177080124
247	0x3ff8e46837b90993	1.5557634522125212
248	0x3ff115dc881d54ef	1.0678372685409234
249	0x3fd580ab9a317c6d	0.335978413180732
250	0x3fda830d1618d3d1	0.41424872548969655
251	0x3fc6711932597e18	0.17532649000621414
252	0xbfd693d21a66268c	-0.3527722604563699
253	0x3fe1f2545ad91d08	0.5608312391640604
254	0xbffa08c4a9257231	-1.627140675284988
255	0xbfd86ce219cf35ae	-0.38164570351076577

weight f8 [64, 64]
0	0x3fedd0cd2b76116a	0.931738457570231
1	0xbfb27e28b489c97a	-0.07223753364249844
2	0x3fe8e8c72d9fe180	0.7784152880768005
3	0x3feb9efcdef200c2	0.8631576876068936
4	0xbf902118632bd426	-0.0157512484101582
5	0x3ff17f25a7b4cdaa	1.0935417700792223
6	0x3fd6dc33cfa9a87a	0.35719008712351974
7	0xbff8500780741a92	-1.5195384042469056
8	0xbfc6badf975eff49	-0.17757792369047312
9	0x3fe7dbec4c82a4e5	0.7455960745184284
10	0x3ff84e9f2c366285	1.5191947676704853
11	0x3fea3df84e4b2dec	0.820064690511058
12	0x3fee202937618875	0.9414259034786158
13	0x3ff4531968bb6413	1.270287903889998
14	0xbff92678f507d13e	-1.5718926974778493
15	0x3ff52e1a469e52ca	1.323755527356456
16	0x3fe84088913aab52	0.757877620363937
17	0xbffef0ea103a13cf	-1.933816970239821
18	0xc00069c58396d86d	-2.0516462593469016
19	0x3f34d1333b85b812	0.0003176450805061358
20	0xbfec8b6e5b546ca4	-0.8920203956398791
21	0xbfecb02f161cf37c	-0.8965068275352759
22	0x3feeb25952c859c9	0.9592711083267257
23	0x3fe17a2c9922ad82	0.5461638441969827
24	0xbff783c6b6bfd94d	-1.4696719301842507
25	0x3fe39bfb4eb06ab3	0.6127907311341317
26	0x3fdfa82d1608a9fd	0.4946396556066757
27	0x3fba4e23ad7fe57b	0.1027548121054646
28	0xc001c47e6ea7a530	-2.2209442753707194
29	0x3ff3859cfa783bca	1.2201204093905624
30	0x3ff4f4e3018ac58b	1.3097868023145078
31	0xbfc9c3e1fc026f77	-0.2012903671755983
32	0xbfda7e18339f960c	-0.41394619981142067
33	0x3fe7d242b4ba865f	0.7444165735107154
34	0xbfd804cda64eee4c	-0.37529317132041196
35	0x3fe3d74744b798c0	0.6200291006214442
36	0x3ffc5a1214ebc290	1.771989900324261
37	0xbfff7aae3c866bed	-1.967451321054564
38	0x3fc01eb678a8eed3	0.1259372796210899
39	0xbff908e6c909ee0c	-1.564673219020622
40	0x3fbb2f74a613ff5e	0.10619286589280594
41	0x3ff4790059857d0a	1.279541349118349
42	0xbff0d1be76117e45	-1.0512070285839326
43	0xc0071da80d001199	-2.889480687679861
44	0x3ff90a88182f3bf3	1.5650711960513461
45	0x3ff2a812fa3ea26c	1.1660337233717213
46	0x3fd223260ba34a79	0.28339530121335305
47	0xbfe39cc0eda16466	-0.612884964105558
48	0xbff7594ab8eb782f	-1.4592997764043607
49	0xbfde002241517dd8	-0.46875816706412143
50	0x3fe07f907c3f9872	0.5155718256689978
51	0xbfe3bfafde5f6914	-0.6171492903916111
52	0x3fc3a8d25970ba02	0.1535895287247087
53	0xc001fd84d5d35a2f	-2.2487885193943593
54	0x3ff25adc8f715637	1.1471829989653892
55	0x3fef56f5bd773b7d	0.9793652248862227
56	0x3fd72a509515de1c	0.36195768889544566
57	0x3ff6cbac8e145bab	1.4247251081448933
58	0xbfd058559db76ae2	-0.25539150621413687
59	0x3fcd66fce9bbe353	0.229705442550563
60	0x3fd872950bc2c842	0.3819935431339482
61	0x40010373680c1809	2.126684964055134
62	0x3fd7f339b87eed83	0.3742203046528731
63	0xbffcdcc7e930cfcc	-1.8039015873919082
64	0x3ff76223554aa12b	1.4614594775867527
65	0xbff3f92365a9c44e	-1.2483247729508267
66	0x3ffb49ca6285360f	1.705515274853841
67	0x3fca15089f2f8e80	0.2037668969415911
68	0x40020e58d1a13031	2.2570053460422277
69	0x3ff32505b59e167a	1.1965386480746063
70	0x3fdd47bab030dafd	0.457503006039971
71	0xbfee9b2abaaa9b97	-0.9564412732914772
72	0x3fe99937b21f6b43	0.799953315635641
73	0x3fa37968859ca16c	0.0380356467342747
74	0xc003a61843185663	-2.4561009637644005
75	0x3fc51c91f2511c31	0.16493439037205485
76	0x3ff9bef0354c75cb	1.6091157991389646
77	0x400459fc98e0d78d	2.543938822137483
78	0x3ffc23c018d19160	1.758728119800331
79	0x3fd3bd5c3cd65b68	0.30843263569970825
80	0x3fd5115ed007503b	0.32918520274438706
81	0x3fe5279a9d1eb043	0.6610844677684401
82	0xbfe79001fbe97801	-0.7363290710597995
83	0x400bd38e934fb881	3.4782992848113854
84	0xbfbadcd09921a7a2	-0.10493186701356064
85	0xbfe71e5c8818357e	-0.7224562318894383
86	0xbff768ce84fcbaa5	-1.4630875773251912
87	0x3fe51e8f43e00a05	0.6599804235159473
88	0x3fece2602d8924b9	0.9026337518090691
89	0x3ff1aa4b143f45ec	1.1040755072502817
90	0x3ff8303c07de5cfa	1.5117759997718268
91	0xbffe42c04edf2cb8	-1.8912966805390123
92	0xc01052703694e1f0	-4.0805061844225605
93	0x3fe12db71550a148	0.5368304649646598
94	0x3fd0529c4fd46106	0.25504215045795353
95	0x3ff41e84033ab66a	1.2574501157900166
96	0xc00a6539185ab0f2	-3.2994253065754657
97	0x3ff7ade7aba54fce	1.4799572663223333
98	0xc00c1120f0cf677c	-3.508363610581851
99	0x3fb6ba7b07c9489c	0.08878296794981327
100	0x3fd95a95555eab1a	0.3961537679376065
101	0x3fe3d9d9b9ae9a07	0.620343077335577
102	0xbff21a20690dfb17	-1.131378565187054
103	0xbfe153bab0d1937e	-0.5414708569993392
104	0xbfe53fd234922779	-0.6640406634116821
105	0xbfe4332f06b4905b	-0.6312480097735816
106	0xc00f91dc7d2c6cbf	-3.946221330564725
107	0x3fea708de8552fd8	0.8262395417927975
108	0x3ff52c46d342ffd4	1.32330973171337
109	0x3fd88aac81a719ac	0.3834639803066249
110	0xbfaf52fe2d831cf0	-0.06118006043976176
111	0x3fc3dd20471a9d8b	0.15518573257325516
112	0xbfd3779c85d68459	-0.3041755015384005
113	0x3ffcc63733910c49	1.7983924879379336
114	0xbffcdaa232e4466a	-1.803377341075612
115	0xbfdad76780bd763b	-0.41939723560594516
116	0x3fe0f7df73e97ad3	0.5302579177767605
117	0x3fe34bfcb6a9e674	0.6030257766389711
118	0x3fff16a9c41783d8	1.9430329952085597
119	0xbfdff4ef7a43258d	-0.4993246740310376
120	0x3febc68cca726ebf	0.8679870561640753
121	0x400c7b6ad012a332	3.5602623229682644
122	0x3ff5760e797efe9f	1.3413223977985707
123	0xbfe5ac955e2eaf02	-0.6773173179148844
124	0xbff509f9ad4b33c7	-1.3149353760993436
125	0x3ffa368d50553e4b	1.638318361092291
126	0xbfc85256f946a46b	-0.19001280948330942
127	0x3fd8ec0e8aa8ca16	0.389407763871675
128	0x3fa2f4ccb12cb381	0.0370239225652318
129	0xbfffe1ba4b3152be	-1.9926093041623711
130	0xbfe59ed8ada0ef74	-0.6756404296097416
131	0xbfed566dc94c4f04	-0.9168003970721377
132	0xbfd46c04608b4faf	-0.319092840463095
133	0xbfbe6b9c218e6db8	-0.11882949656722175
134	0x3ff1c7eda1be2d94	1.111310607727181
135	0xc002ce45da4a98bf	-2.350719170953283
136	0x3fe658f8abb4ec4c	0.6983607629439432
137	0xbfe22beaa037071e	-0.5678609017561234
138	0x3ff98e3dee4d09aa	1.5972270306234386
139	0x3fd61618b8d294f2	0.34509866761284436
140	0x3fc1cd5c927e5475	0.1390796389866044
141	0xbfcdf9bf97a2aa21	-0.2341842165381687
142	0xbfc2cee3e87ce83d	-0.14693878986310152
143	0x3fe96d64ae1c0664	0.7946036720824847
144	0xbfeea1f694979fde	-0.9572708990281134
145	0xbfe3d4e5d1f9eb04	-0.6197384930704577
146	0xbfecc8e2af54a66c	-0.8995221542765655
147	0x3fcfa09247766c4b	0.24708775033363603
148	0xbff57222d3fef0a9	-1.3403652459228772
149	0xbfe8097316f95ea6	-0.7511535118782902
150	0x3fcd511f892eae2a	0.22903818319660846
151	0xbfd38f4b5f2e846a	-0.30562099738205595
152	0x3fedf6337e66c5f7	0.9363038510111313
153	0x3fed8b87522cfcaa	0.9232822995180829
154	0x3ffb5889df7611c8	1.709115860839221
155	0x3fd3053b41d0c392	0.29719430377286316
156	0xbff89720ade28e3b	-1.5368963997251643
157	0xbfc09e94ffaf8104	-0.12983953938147164
158	0x3fe65190d2e3d963	0.6974567526765835
159	0x3fc7f3c84c0e09e5	0.18712714875807915
160	0xbff18c2157c7b8ea	-1.0967114857590397
161	0x3fe17ac7dd5d4932	0.5462378810428048
162	0xbfe8d918508f9f8b	-0.7765008519609052
163	0xbfd624a8945582e6	-0.3459874580931185
164	0xbfe5040f5ed03289	-0.6567456104108526
165	0xbff49a718c7ea062	-1.2877059448310537
166	0xbfb9c82b9cbb1ec7	-0.1007106073039906
167	0xbfc43ef0ad21e4c4	-0.15817078069429702
168	0x3fe4f69cbdb797cb	0.6551040368474274
169	0x3fdd5428a7458224	0.45826164565190397
170	0xc005f6a60dc1c24b	-2.7454339098697225
171	0x3fe7a5776f5a6080	0.7389485525955166
172	0xbfd25b9a9c70c9a8	-0.2868410613765726
173	0x3ff4d705af387d88	1.3024956554944271
174	0x3ff413e297de720c	1.2548547680263509
175	0xbfea7106b2051d4c	-0.8262971379234982
176	0xbfe27dcac227f5ba	-0.5778554718123623
177	0x3ff15492310afe87	1.0831472316494073
178	0x3ff32cb7817d463a	1.1984171922853322
179	0x4000f7b54612420c	2.1209512209245585
180	0xbfe10e26547db191	-0.5329772615637457
181	0xbfe3db4477d60408	-0.6205160465762001
182	0xbff218b810abefbc	-1.1310349131808684
183	0xbfd8743ffae8d687	-0.38209533217318675
184	0xbff4478cddc0303a	-1.267468324865162
185	0x3ff69cfc45ae3a68	1.4133265230081182
186	0x3fd5510920181926	0.3330710233134532
187	0x3fd45d6689d5de12	0.3182007165955564
188	0x3ffd2c736acde56b	1.8233522579233419
189	0x3fc3174188a7a339	0.14914721653556187
190	0x3ff36cb05621ce13	1.2140353550465803
191	0xc0018933b57c75ad	-2.1919931582076146
192	0x3fdb5770aab7a85b	0.42721192046758966
193	0x3fd6b90cd32abee8	0.3550445615937705
194	0x3fe3d98c0c1b8b1d	0.6203060375667949
195	0xbfdec70298f66da5	-0.4808966153884405
196	0xbffac88330399b64	-1.6739532359876756
197	0xbf8d0bbaa0417b1d	-0.014182527557009156
198	0xbfd33f83eb66451d	-0.30075166691047334
199	0xbff089bcc1c89e7f	-1.0336272782969045
200	0xbffc545d6ca5a61a	-1.7705969089532858
201	0xbfd7bcbd734f562e	-0.3708947778771713
202	0x3ffc722ef6981fb8	1.7778768189036622
203	0xbff6da5d515001f9	-1.4283116508742053
204	0x3fedb8225da15b2d	0.9287273243633983
205	0xbfe0ead16332ebe1	-0.5286642968634362
206	0xbfe913e5f6ad5215	-0.7836789911185088
207	0x3fec6434b4278092	0.88723216234577
208	0x3ffc46dd47a1e958	1.7673008726256594
209	0xbfe5010192b21024	-0.6563728203914292
210	0xbfdc021093dbcd7c	-0.43762602271382156
211	0xbfe93566a23091a1	-0.7877686660545359
212	0xbff5fc2d72ea8ae0	-1.3740667809403746
213	0x3ff62a8e1a330f25	1.385389425603486
214	0xbfcf6a2d61bd0192	-0.2454277732122248
215	0x3ff15b3907de73a6	1.0847711856251663
216	0x3fbb97034f371101	0.1077730244060753
217	0xbff16df73d7e9fe7	-1.0893471147664913
218	0xbfa4c07e72d55a2b	-0.040531112210988894
219	0xbfe0db9f4cccd8ca	-0.5268093585971425
220	0xbff43b106c5c48b9	-1.2644199593383247
221	0xbfcecc05ca04c36b	-0.24060127605619228
222	0x3ffad84fec6caf45	1.6778105960210763
223	0xbfe461ca7f8d2a5e	-0.6369373790015052
224	0x3fd064d5242a8809	0.2561543324646896
225	0xbff6ec5ca5a8ad6d	-1.4327055426645885
226	0xbff04c4cabb270e9	-1.018627806369347
227	0x3fc419d5e2dccf54	0.15703843667290107
228	0xbff43390d3e3695d	-1.2625892903220894
229	0xbfa7b36b8e7dda85	-0.04629074205779652
230	0xbff850fec3e1f927	-1.519774212996319
231	0xbfe23d10d61fc47c	-0.5699543172942323
232	0xbfeeab981c2aa78c	-0.9584465551499632
233	0x3ff84db895733cb6	1.5189748609443945
234	0x3fe032ca72957a42	0.5062000501600965
235	0x3fe09388d5a125e0	0.5180095837069381
236	0xbff791fa392cb5ca	-1.4731390221962664
237	0x400180fb44229737	2.187979252153038
238	0x3fe70c6432e7b1a3	0.7202626222838727
239	0x3fddff95cc9d2f72	0.46872467977367827
240	0x3fa17cbc17375889	0.03415477546120466
241	0x3fede15dee39332d	0.9337606098939425
242	0xc005103d6d208d44	-2.6329296613272692
243	0xbff08a93736663ea	-1.0338320262728709
244	0xbfdbb5d603127339	-0.4329733877182665
245	0xbff06aa50e0953b0	-1.0260363148019955
246	0x3fe8907e38da8865	0.7676383123800973
247	0x3ff8602ed99243bd	1.5234821795349796
248	0x3ff3ac8e50784e44	1.2296279090268323
249	0x3fe5dc09b8dcd59c	0.6831101046179131
250	0xbfd04d8775994027	-0.25473200306169236
251	0xbfe347b00951d860	-0.6025009328866524
252	0x3ff32f93044a53b4	1.1991148154822726
253	0x3ff1eac2aab3999e	1.1198145549802585
254	0xbfd0cc68fc5f36c7	-0.2624762024469018
255	0xbfd20cd3bdb184ca	-0.2820329048609663
